temp/best_modeltrigger_RMSprop_1.model (torch, 155693 bytes, 14 tensors)

word_embeds.weight f4 [3918, 5]
0	0x3e89da1d	0.2692422
1	0xbf81f707	-1.0153512
2	0xbf7eec32	-0.99579155
3	0xbf0f3c21	-0.55951124
4	0xbf865d6f	-1.0497264
5	0x3f4ebd83	0.8075792
6	0xbf2cea5c	-0.67545104
7	0xbf4187c7	-0.75597805
8	0x3fdf4db3	1.7445587
9	0x3f0b4ff5	0.5441888
10	0x400e0ec5	2.2196515
11	0xbfadbd3c	-1.3573375
12	0xbfee7c32	-1.8631651
13	0xbfc18e5d	-1.5121571
14	0xbfe8a700	-1.8175964
15	0x3f9a2db1	1.2045194
16	0xbfd3a843	-1.6535724
17	0xbfa6100c	-1.2973647
18	0xbfa21a10	-1.2664204
19	0xbfb56b7a	-1.4173424
20	0x3ed669ac	0.41877496
21	0xc010cf25	-2.262643
22	0xbf66d6bc	-0.9017141
23	0x3f2e37c1	0.68053824
24	0xbf1ba60b	-0.60800236
25	0x402afee8	2.6718082
26	0xbfa8a327	-1.317479
27	0x3f8d9bd9	1.1063186
28	0x3f2cb3d6	0.6746191
29	0xbf6053cf	-0.8762788
30	0x3fe95d41	1.8231584
31	0xbf82a4aa	-1.0206501
32	0xbf103486	-0.56330144
33	0xbff3698b	-1.9016584
34	0xbfb8b6bd	-1.4430767
35	0x3da5c42e	0.08094059
36	0xbfd79f10	-1.6845417
37	0xbf8af0c2	-1.0854723
38	0x3e8c74ca	0.27432853
39	0xbfb2efee	-1.3979471
40	0x3f214768	0.6299958
41	0xbe8d8bab	-0.2764562
42	0xbfe9bf7f	-1.8261565
43	0xbc8bf239	-0.017083274
44	0xbef45a4c	-0.4772514
45	0x3fe31c11	1.774294
46	0xbfb553e8	-1.4166231
47	0xc003d5d1	-2.0599253
48	0xbf84c0be	-1.037132
49	0xbfdc781f	-1.7224158
50	0x3e18299c	0.14859623
51	0xbf5f1834	-0.87146306
52	0xbf371f6b	-0.71532315
53	0xc01bb8de	-2.4331584
54	0x3f39e780	0.72618866
55	0x3f1d2a86	0.6139301
56	0xbf9bb455	-1.2164408
57	0xbfbfd213	-1.4985985
58	0xbee06a2d	-0.43831006
59	0x3dc18522	0.09449221
60	0x3fe2ab28	1.7708483
61	0xbf496c0d	-0.786805
62	0xbfd6501d	-1.6743199
63	0x3e968136	0.29395455
64	0xbfd8afa6	-1.6928604
65	0x3fa4fa74	1.2888932
66	0xbe420e6c	-0.18950814
67	0x3fc8cdaa	1.5687764
68	0x3fb187d7	1.386958
69	0xbf459d30	-0.77192974
70	0x4028bc77	2.636503
71	0xbf076cd1	-0.52900416
72	0xbf8275be	-1.0192182
73	0xc0124c06	-2.28589
74	0xc0003af9	-2.0035994
75	0x3ec40558	0.38285327
76	0xbee300ef	-0.4433665
77	0xba701200	-0.00091579556
78	0xbe96b282	-0.29433066
79	0xbfa05496	-1.2525814
80	0x3fd66a61	1.6751214
81	0xc03329c0	-2.7994232
82	0xbe9f5d84	-0.31126034
83	0xbe88d0ec	-0.26721895
84	0x3f76be37	0.96383995
85	0x3fa7d8c8	1.3113031
86	0xbf478003	-0.77929705
87	0xbfef59a7	-1.8699235
88	0x3fbc7dbb	1.472587
89	0xbf937fc6	-1.1523368
90	0xbd1ebf35	-0.038756568
91	0xbf9e19ad	-1.2351586
92	0xc02e2164	-2.720788
93	0x3f68cdcd	0.9093903
94	0xbf1cdea7	-0.6127724
95	0x3f9e8d2e	1.2386835
96	0x3f80bc1f	1.005741
97	0xc01680b8	-2.3516064
98	0xbdfa1f5d	-0.12213013
99	0x3ea8a1f6	0.32936066
100	0x3e0e82ec	0.1391713
101	0x3f710492	0.941476
102	0xbbf32aa8	-0.0074208565
103	0x404cf6fb	3.2025745
104	0x3f4b9566	0.7952484
105	0x3f1744ba	0.59089243
106	0xbef892d1	-0.48549512
107	0xbf640421	-0.890688
108	0x3f23b04f	0.639409
109	0xbfb099c7	-1.3796929
110	0x3d80c650	0.06287825
111	0xbfdd3325	-1.7281233
112	0xc04e6902	-3.2251592
113	0x3f733e27	0.9501671
114	0xbf15408b	-0.5830161
115	0x3ec0d4b4	0.3766228
116	0x3f3ffbbe	0.74993503
117	0x3e97bde2	0.29637057
118	0x3f76269d	0.9615267
119	0xbf0ac872	-0.54212105
120	0x3f097046	0.5368694
121	0x3f3423a0	0.7036686
122	0xbeb7e204	-0.35914624
123	0x3ffd08e3	1.9768337
124	0x3f4a60c7	0.7905392
125	0xbfaa8983	-1.3323215
126	0xbf611479	-0.87921864
127	0x3f83dbcb	1.030145
128	0x3e0568ab	0.13028209
129	0xbeb44c4b	-0.35214457
130	0x3fb1f1aa	1.3901875
131	0xbfa6ac36	-1.3021305
132	0xbf2d3c03	-0.67669696
133	0x3e4e3987	0.20139132
134	0xbfd3d458	-1.6549177
135	0x3f8b348c	1.0875411
136	0xbf7ae936	-0.980121
137	0xbfa57ade	-1.2928121
138	0x3dc409a9	0.09572155
139	0xbfd961ad	-1.6982933
140	0x3e9aad5c	0.30210388
141	0xc00a50f7	-2.1611917
142	0xbfb69554	-1.4264321
143	0xbdd41140	-0.10354853
144	0xbf6ff7db	-0.9373757
145	0x3fe7617e	1.8076627
146	0xbeb60bf6	-0.35556
147	0xbf590d79	-0.8478618
148	0xbf9b4a04	-1.2131963
149	0xbffd8ce3	-1.980862
150	0x40140ea6	2.313394
151	0xbfaceec4	-1.3510365
152	0xbea7aa43	-0.32747087
153	0xc03de0cb	-2.9668453
154	0xbf9b91b5	-1.2153841
155	0xbd65c7c0	-0.0560987
156	0xbfd4f7a7	-1.6638077
157	0xbf1225e1	-0.5708905
158	0xbdf057eb	-0.11735519
159	0xbff8b118	-1.9429045
160	0x3f4f4ac7	0.80973476
161	0xc0198e90	-2.3993263
162	0xbf580536	-0.8438295
163	0xc0025322	-2.036324
164	0xc0051637	-2.079481
165	0xbe73dbb4	-0.23814279
166	0xbf23b594	-0.6394894
167	0xbf232862	-0.63733494
168	0x3e97b3e1	0.29629424
169	0xbf273ff7	-0.6533198
170	0x3f43c9eb	0.7647998
171	0xbfb12c75	-1.3841692
172	0xbf092b0a	-0.535813
173	0xbee8ddc1	-0.45481685
174	0xbf29e78d	-0.66368943
175	0x3fcc1dd9	1.5946609
176	0xbf82a816	-1.0207546
177	0xbf6b7b70	-0.91985226
178	0xc003a3b6	-2.0568671
179	0xbff82964	-1.9387631
180	0x4010d3cb	2.2629268
181	0x3f3548fe	0.708145
182	0xbf13b63c	-0.5769994
183	0xbf034662	-0.5127927
184	0xbe754bc0	-0.23954678
185	0x3e952b90	0.29134798
186	0xbfae0cd4	-1.3597665
187	0xbfb13d56	-1.3846843
188	0x3f2388f4	0.6388085
189	0x3ea6dbd9	0.32589605
190	0x3fa4de94	1.2880425
191	0xbdf0269f	-0.117261164
192	0xbf272a92	-0.6529933
193	0xbecbb217	-0.3978431
194	0xc0100439	-2.2502577
195	0x3fa198d1	1.2624761
196	0xbf345030	-0.70434856
197	0x3f7e0862	0.9923154
198	0x3f5c34ec	0.8601825
199	0x3e4e4034	0.20141679
200	0x3f22065d	0.6329096
201	0xbebe4570	-0.37162352
202	0xbe8fe680	-0.28105545
203	0x3f0b605c	0.5444391
204	0xbf06bd6a	-0.5263277
205	0x3f7024fe	0.93806446
206	0xbe8072ee	-0.25087684
207	0xbf8a9194	-1.0825677
208	0xbcfb2e8e	-0.030661847
209	0xbf596611	-0.84921366
210	0x3f77d3f6	0.968078
211	0x3e8fdfe8	0.28100514
212	0x3f0cdd09	0.5502477
213	0xbfaaf67f	-1.3356475
214	0x3fb38692	1.4025443
215	0x40367837	2.8510873
216	0xbee99c29	-0.45626953
217	0xbf66350b	-0.8992469
218	0x3ed07d9c	0.40720832
219	0xbe647c8e	-0.22313139
220	0x3f84b20b	1.0366834
221	0xbfe9aeda	-1.8256485
222	0x3e5a7978	0.21335399
223	0x3f4b0138	0.79298735
224	0xbfc290c2	-1.5200427
225	0xbfc4a977	-1.5364217
226	0xbf04abf6	-0.5182489
227	0xbf998291	-1.1992971
228	0xbfbed4cf	-1.4908694
229	0x3fb11b50	1.383646
230	0xbeca9da0	-0.39573383
231	0xbf04ff51	-0.5195208
232	0x3e7334df	0.23750637
233	0x3f5561b0	0.83352184
234	0x3f1b3d0a	0.60640013
235	0xbf7ddd29	-0.9916559
236	0x403db19f	2.9639661
237	0x3f07a0c2	0.5297967
238	0xbdacdbaa	-0.08440335
239	0xbf5801a7	-0.8437752
240	0x3e6b3ecd	0.22973175
241	0xbfc75dae	-1.5575464
242	0xc057f7ef	-3.3745077
243	0x3f2cdb4f	0.6752214
244	0x3f2f29a8	0.6842294
245	0xbf73470e	-0.95030296
246	0xbee12cf9	-0.43979624
247	0x3e7bb652	0.24581268
248	0xbfd59322	-1.6685526
249	0xbec2f4e0	-0.3807745
250	0xbfe3352b	-1.77506
251	0xbeb81a1f	-0.3595743
252	0xbe107015	-0.14105256
253	0x3f54a64c	0.8306625
254	0xbeaa7085	-0.3328897
255	0xbf33b377	-0.70195717

lstm.weight_ih_l0 f4 [8, 5]
0	0xbfa8e778	-1.3195639
1	0xbf2d39ce	-0.6766633
2	0xbd89309c	-0.06698725
3	0x3faac8c5	1.334252
4	0x40224ee3	2.5360649
5	0x3d9c0cbd	0.07619617
6	0x3f54c626	0.8311485
7	0xc0064059	-2.0976775
8	0xc002f096	-2.0459342
9	0xbec4577c	-0.38347995
10	0xbf441bf8	-0.76605177
11	0xbfd6f1c6	-1.6792533
12	0x3fd32339	1.6495124
13	0x3f8faa78	1.1223898
14	0x3f891434	1.070929
15	0x3f824a0c	1.0178847
16	0x3dcb1315	0.09915749
17	0xbf990ec5	-1.1957632
18	0xbf780899	-0.9688812
19	0xbea0d5cc	-0.31413114
20	0x40560960	3.3443222
21	0x3f168a18	0.58804464
22	0x3f46fa39	0.7772556
23	0x3e4e11c0	0.20123959
24	0xbe71907e	-0.23590276
25	0xbec8ac14	-0.39193785
26	0xbf642c94	-0.8913052
27	0xbf13cbb3	-0.57732695
28	0xbfaadb63	-1.3348202
29	0xbf6579c1	-0.89638907
30	0xbf61b704	-0.88169885
31	0x3fd15ba6	1.6356094
32	0xbf88a674	-1.0675797
33	0x3f50914d	0.8147171
34	0x3fba0d26	1.4535263
35	0xbe1c4dec	-0.152641
36	0xbe518ed6	-0.20464644
37	0xc017a84b	-2.3696468
38	0xbfb15aa3	-1.3855785
39	0x3f16c675	0.5889657

lstm.weight_hh_l0 f4 [8, 2]
0	0x3f1b1ba3	0.60589045
1	0x3eaf9881	0.3429604
2	0x3f65ecea	0.8981463
3	0xbf040b49	-0.5157972
4	0xbfbf7c02	-1.4959719
5	0x3fe6779e	1.8005254
6	0xbfd2d70c	-1.6471877
7	0x3e31b6c4	0.17354876
8	0x3f40d7f6	0.7532953
9	0x3e8882b5	0.26662222
10	0xbf6293c9	-0.8850675
11	0x3eb6680d	0.3562626
12	0xbf788664	-0.97080064
13	0xbc7bd9e0	-0.01537177
14	0x3f50babc	0.81534934
15	0x3f5e4116	0.86818063

lstm.bias_ih_l0 f4 [8]
0	0x3e0e432b	0.1389281
1	0x3f1f7fac	0.62304187
2	0x3e90e588	0.28300118
3	0xbea60bb5	-0.32430807
4	0x3e928e13	0.2862402
5	0x3e37bf18	0.1794399
6	0x3e884cba	0.26621038
7	0x3f8825ed	1.0636574

lstm.bias_hh_l0 f4 [8]
0	0x3e2b5aa5	0.16733797
1	0xbe3dfeec	-0.18554276
2	0x3f36f5b4	0.71468663
3	0x3c25cdf8	0.010119908
4	0xbefac07e	-0.48974985
5	0x3efc0e10	0.4922948
6	0x3f442ca8	0.7663064
7	0x3f55064e	0.83212745

lstm.weight_ih_l0_reverse f4 [8, 5]
0	0x3f8ba7a8	1.091054
1	0xbf9d8e66	-1.2309082
2	0xbec8a5ac	-0.39188898
3	0x3fbaa5c0	1.4581833
4	0xbf4d927f	-0.8030166
5	0xbe90690f	-0.28205153
6	0x3f11d285	0.5696185
7	0xbf313650	-0.692235
8	0x3f92eaa2	1.1477854
9	0x3ec66c34	0.38754427
10	0xbe5210e6	-0.20514259
11	0xbf9a57da	-1.205806
12	0x4000c852	2.0122266
13	0xbf6e9316	-0.93193185
14	0xc0060c37	-2.0944955
15	0x3f143ddb	0.57906884
16	0xbe313e0a	-0.17308822
17	0xbd787c38	-0.06066534
18	0x3e41afa0	0.18914652
19	0x3e542d04	0.20720297
20	0x4021f756	2.5307212
21	0xbecd1c56	-0.4006068
22	0xbf607145	-0.87672836
23	0x3f84f518	1.0387297
24	0xbf8e2aeb	-1.1106848
25	0x3dc064fc	0.09394261
26	0x3f263ac8	0.64933443
27	0xbed0eb65	-0.40804592
28	0x3f8508ba	1.0393288
29	0x3eff577c	0.49871433
30	0x3f418bbf	0.7560386
31	0xbfc9ee9d	-1.5775944
32	0x3e1d9b44	0.1539126
33	0x400464f1	2.068661
34	0xbfbaa0d2	-1.4580328
35	0x3f98d702	1.1940615
36	0xc0032c75	-2.0495884
37	0xbf4f9a2f	-0.8109464
38	0xbf7a0ec3	-0.97678775
39	0x3f1be81a	0.60901034

lstm.weight_hh_l0_reverse f4 [8, 2]
0	0xbf2f12dd	-0.6838816
1	0x3f10b074	0.56519246
2	0x3f269f54	0.65086865
3	0xbd8f6198	-0.070010364
4	0xbd033743	-0.032035124
5	0xbf7d914f	-0.9904985
6	0x3f330e0c	0.6994331
7	0x3f93d821	1.1550332
8	0xbfbed277	-1.4907979
9	0xbe8f9cac	-0.2804922
10	0x3e9b6982	0.30353934
11	0x3f91736c	1.1363349
12	0xbf6b59ba	-0.91933787
13	0x3f0ef99c	0.55849624
14	0x3cec04e0	0.028810918
15	0x3f17726f	0.59158987

lstm.bias_ih_l0_reverse f4 [8]
0	0x3dd7bcf0	0.10534084
1	0x3e95cdf9	0.29258707
2	0xbe023f87	-0.12719546
3	0x3f48c6c8	0.78428316
4	0x3f055a8a	0.52091277
5	0x3e8021c0	0.2502575
6	0x3f9b9a44	1.2156453
7	0x3f3982b6	0.72465074

lstm.bias_hh_l0_reverse f4 [8]
0	0x3f5d854f	0.8653154
1	0xbeff4316	-0.4985587
2	0xbf702b51	-0.93816096
3	0x3fab2593	1.3370842
4	0xbe404849	-0.18777575
5	0x3f5a3603	0.85238665
6	0x3e84b7cb	0.25921473
7	0xbc90e514	-0.017687358

crf.start_transitions f4 [131]
0	0xbfeea162	-1.8643
1	0xbfe30982	-1.7737277
2	0x3ed11faf	0.40844485
3	0xc0853f2f	-4.163963
4	0xc018b87e	-2.3862605
5	0xc0531452	-3.2981153
6	0xbfef7369	-1.8707095
7	0xbfef74da	-1.8707535
8	0xc03ae745	-2.9203656
9	0xc061eb2b	-3.5299785
10	0xbfe7a222	-1.8096354
11	0xbff6e73d	-1.9289318
12	0xc00a51e3	-2.161248
13	0xc06f55ec	-3.7396193
14	0xc035658d	-2.8343232
15	0xc08161be	-4.0431814
16	0xc0114bd1	-2.2702525
17	0xc05bb677	-3.4330118
18	0xc012617e	-2.2872005
19	0xc051c1d3	-3.277455
20	0xbff72c2d	-1.9310356
21	0xbfe5e053	-1.7959083
22	0xbfe7ba4b	-1.8103727
23	0xbfe963a3	-1.8233532
24	0xbff8f075	-1.9448382
25	0xc04d04cf	-3.2034185
26	0xbff42f4f	-1.9076937
27	0xbfe2cc93	-1.7718681
28	0xbfeb2761	-1.8371392
29	0xc0390c94	-2.8913927
30	0xbfef4244	-1.8692098
31	0xc01076d0	-2.2572517
32	0xbfe69481	-1.801407
33	0xbfe9d335	-1.826758
34	0xbff10828	-1.8830614
35	0xbff55560	-1.9166679
36	0xbff6f191	-1.929247
37	0xbfed12e0	-1.8521385
38	0xbff95abf	-1.9480819
39	0xc076a715	-3.8539479
40	0xbfebcb57	-1.8421429
41	0xc005622b	-2.0841167
42	0xc0122007	-2.2832048
43	0xc0411499	-3.0168822
44	0xbfde598b	-1.7371076
45	0xbff4dab5	-1.9129244
46	0xbff1832d	-1.8868157
47	0xbfe587dd	-1.7932087
48	0xbfe894be	-1.8170393
49	0xbff1e363	-1.8897518
50	0x3f0ed94a	0.55800307
51	0xc03988d0	-2.8989754
52	0xc01c3647	-2.4408128
53	0xc0512dba	-3.268416
54	0xbff9c3b1	-1.9512845
55	0xc04f028b	-3.2345302
56	0xc018d03a	-2.3877091
57	0xc063522d	-3.5518906
58	0xbffe8360	-1.9883842
59	0xc00caa83	-2.1979072
60	0xc0160524	-2.3440638
61	0xc03c56da	-2.942801
62	0xbfeeb7ac	-1.8649802
63	0xbff4103c	-1.9067454
64	0xbfea5289	-1.8306438
65	0xbfe6a3e7	-1.8018769
66	0xbff5dd97	-1.9208249
67	0xbfe17779	-1.7614585
68	0x3f19a663	0.6001951
69	0xc04ec3b4	-3.2306948
70	0xbfe89df5	-1.8173205
71	0xbfff8c50	-1.9964695
72	0xbffb8994	-1.965136
73	0xc01fe219	-2.498175
74	0xbff9da14	-1.9519677
75	0xc05a77a1	-3.4135516
76	0xc0011d33	-2.0174072
77	0xc0104cae	-2.2546802
78	0xc02d295d	-2.7056496
79	0xc087555d	-4.2291703
80	0xc00e220d	-2.2208283
81	0xc020bd77	-2.511564
82	0xc02db0b9	-2.7139113
83	0xc0677c49	-3.6169608
84	0xc005e3ff	-2.0920408
85	0xc06059e1	-3.5054858
86	0xbfd784ed	-1.6837441
87	0xc03338d5	-2.8003438
88	0xc01299a2	-2.290627
89	0xc0411f32	-3.017529
90	0xbfeea43c	-1.864387
91	0xbff07949	-1.8787013
92	0xbff4d7d3	-1.9128364
93	0xbfebf4f6	-1.8434131
94	0xbff3e023	-1.9052776
95	0xbfe8881b	-1.8166536
96	0xbffa0905	-1.9534003
97	0xbfe8e1b8	-1.8193884
98	0xc03ba2b4	-2.9318056
99	0xc0624441	-3.535416
100	0xbfe9d786	-1.8268898
101	0xbfe4e926	-1.7883651
102	0xbff6f221	-1.9292642
103	0xbfe953e1	-1.8228723
104	0xbffb28ee	-1.9621866
105	0xbfef36de	-1.8688619
106	0xbff38758	-1.9025679
107	0xbfede583	-1.8585666
108	0xbff54ca1	-1.916401
109	0xbff5829d	-1.9180485
110	0xbfe57360	-1.7925835
111	0xbfed4614	-1.8537011
112	0xbfeae5a3	-1.835133
113	0xbfe7c555	-1.8107096
114	0xbfedcbab	-1.857778
115	0xbfe8e7fb	-1.8195795
116	0xbff3db34	-1.905127
117	0xbff527f8	-1.9152822
118	0xc05641ba	-3.3477616
119	0xc08353dc	-4.1039867
120	0x3f2e84ce	0.68171394
121	0xc0547f33	-3.3202636
122	0xc00b7e45	-2.1795819
123	0xc0424ad7	-3.0358179
124	0xbff94992	-1.9475577
125	0xbffaa8a3	-1.9582714
126	0xc027cf91	-2.6220438
127	0xc05c23aa	-3.4396768
128	0xc03505cd	-2.828479
129	0xc07e1728	-3.9701633
130	0x3f54c05f	0.83106035

crf.end_transitions f4 [131]
0	0xc01cdf94	-2.4511461
1	0xc0214c19	-2.5202696
2	0xc08133bf	-4.0375667
3	0xbeee6366	-0.4656021
4	0xc07f71e1	-3.9913256
5	0x3f3d43ae	0.73931396
6	0xc0223e20	-2.5350418
7	0xc024989d	-2.5718148
8	0xc09288d7	-4.579204
9	0x3f8461b5	1.0342318
10	0xc0240c81	-2.5632632
11	0xc01a8c00	-2.414795
12	0xc06517ea	-3.5795846
13	0xc05e0c9e	-3.46952
14	0xc0821785	-4.065371
15	0xbea64347	-0.32473204
16	0xc0823091	-4.0684285
17	0xc0745e64	-3.8182611
18	0xc0759fcc	-3.8378782
19	0xc0453d30	-3.0818596
20	0xc01d6e0b	-2.4598415
21	0xc01f884d	-2.4926941
22	0xc0252df2	-2.5809293
23	0xc01c3a2f	-2.4410512
24	0xc06e43b4	-3.7228823
25	0xc0434304	-3.0509653
26	0xc01e1569	-2.4700568
27	0xc021af55	-2.5263264
28	0xc0602cec	-3.5027418
29	0x3ceeb9e7	0.02914138
30	0xc0606313	-3.506047
31	0x3edbcb07	0.42928335
32	0xc0265e8b	-2.5995204
33	0xc019da47	-2.4039476
34	0xc0191dfb	-2.3924549
35	0xc01e462c	-2.473033
36	0xc019ee3d	-2.405166
37	0xc0257c9d	-2.5857308
38	0xc0877c73	-4.2339416
39	0x3e5ce98c	0.21573466
40	0xc06931ef	-3.6436727
41	0x3f6b7f03	0.9199068
42	0xc081039e	-4.0316916
43	0xc0387123	-2.8819053
44	0xc024774e	-2.5697818
45	0xc024868d	-2.5707123
46	0xc01eac70	-2.4792747
47	0xc0197079	-2.3974898
48	0xc020c3b1	-2.511944
49	0xc0264223	-2.5977867
50	0xc04d6103	-3.2090461
51	0xc02cbe1f	-2.699104
52	0xc08acdb7	-4.3376117
53	0xc0644ebf	-3.5673063
54	0xc0602487	-3.5022295
55	0xc04a1560	-3.1575546
56	0xc081ae31	-4.0525136
57	0xc03e0a2d	-2.969371
58	0xc07cbd8c	-3.949069
59	0x3eb6a7b4	0.35674822
60	0xc08693c3	-4.2055373
61	0x3dc7ed8b	0.097621046
62	0xc01a29ef	-2.4088094
63	0xc024c98a	-2.574801
64	0xc0275023	-2.6142662
65	0xc01bee95	-2.436437
66	0xc01f7bd7	-2.4919336
67	0xc0197504	-2.397767
68	0xc04e4df2	-3.2235074
69	0xc03466d3	-2.818776
70	0xc0636ddb	-3.55358
71	0x3eca3809	0.39495876
72	0xc07ff954	-3.9995928
73	0x3ea1cd5c	0.3160199
74	0xc07705e0	-3.8597336
75	0xc04989db	-3.149039
76	0xc0842e8c	-4.130682
77	0x3f00bdd0	0.5028963
78	0xc078407c	-3.8789358
79	0xbf0e6836	-0.55627763
80	0xc08b77ca	-4.3583727
81	0x3f34426d	0.7041386
82	0xc082d1a4	-4.088091
83	0xc0704be7	-3.7546327
84	0xc083f62e	-4.123801
85	0x3d49ee0b	0.04929928
86	0xc07354c6	-3.8020492
87	0x3e1d29d9	0.15347995
88	0xc079797c	-3.8980398
89	0xc03ddc6a	-2.966578
90	0xc024e329	-2.5763648
91	0xc0230890	-2.5473976
92	0xc01e6f66	-2.4755492
93	0xc0213dde	-2.519401
94	0xc02291e4	-2.5401545
95	0xc02448cf	-2.566944
96	0xc021f450	-2.5305367
97	0xc0233050	-2.5498238
98	0xc08adb68	-4.339283
99	0xbd9f6038	-0.07782024
100	0xc01c4795	-2.441869
101	0xc02370c3	-2.5537574
102	0xc0190193	-2.390721
103	0xc01c52c4	-2.4425516
104	0xc024321f	-2.5655591
105	0xc0229a64	-2.5406733
106	0xc01f401e	-2.4882884
107	0xc026c3fd	-2.6057122
108	0xc019ec01	-2.4050295
109	0xc01b3d17	-2.4256036
110	0xc017cc05	-2.3718274
111	0xc01f13e8	-2.48559
112	0xc01baafe	-2.4323115
113	0xc01c26ee	-2.439876
114	0xc02508bd	-2.5786583
115	0xc01bb570	-2.432949
116	0xc024810c	-2.5703764
117	0xc01f4e16	-2.489141
118	0xc0882a3c	-4.2551556
119	0x3e4d2fb6	0.20037732
120	0xc06bbd32	-3.6834226
121	0xc03b7dcf	-2.9295537
122	0xc07b4278	-3.925932
123	0xc035ff4c	-2.843707
124	0xc017f557	-2.3743494
125	0xc0216ec7	-2.5223863
126	0xc07a9cc6	-3.9158187
127	0xc0458b62	-3.0866323
128	0xc087b172	-4.240411
129	0xc064b672	-3.5736356
130	0xbeebe004	-0.46069348

crf.transitions f4 [131, 131]
0	0xbf897d65	-1.0741392
1	0xbf8ebe8b	-1.1151899
2	0xbfc4d9e7	-1.5378999
3	0xc03c37f7	-2.9409158
4	0xbf9ecf19	-1.2406951
5	0xc0276510	-2.6155434
6	0xbf89b782	-1.0759127
7	0xbf890949	-1.0705959
8	0xbff893b2	-1.9420073
9	0xc039ba0d	-2.9019806
10	0xbf9f3b06	-1.2439888
11	0xbf8ddd44	-1.108315
12	0xbf97efbe	-1.1870039
13	0xc0209769	-2.5092413
14	0xbfba7cd0	-1.456934
15	0xc050557e	-3.255218
16	0xbfc0e428	-1.5069628
17	0xc0408bdb	-3.008536
18	0xbf99a314	-1.2002892
19	0xc0185aa8	-2.3805332
20	0xbf928b12	-1.1448691
21	0xbf89f9a4	-1.0779309
22	0xbf871244	-1.0552449
23	0xbf88d3b8	-1.0689611
24	0xbfa2f236	-1.2730167
25	0xbffb6625	-1.9640547
26	0xbf8ede92	-1.1161673
27	0xbf9ad8b2	-1.209738
28	0xbf9cf922	-1.2263529
29	0xc0244898	-2.5669308
30	0xbf8a5b0e	-1.0809038
31	0xbff093ad	-1.8795067
32	0xbf895ec9	-1.0732051
33	0xbf9cbd6e	-1.2245309
34	0xbf87cf7f	-1.0610198
35	0xbf7fe5c1	-0.9995995
36	0xbf94fff1	-1.1640607
37	0xbf85c89d	-1.0451847
38	0xbfe79243	-1.809151
39	0xc035bd21	-2.8396685
40	0xbf9386a8	-1.1525469
41	0xc00cfd99	-2.2029784
42	0xbf9e52c3	-1.2369007
43	0xbfecacc4	-1.8490224
44	0xbf8f37f1	-1.1188947
45	0xbf8ded16	-1.1087978
46	0xbf99ac57	-1.2005719
47	0xbf8e5a23	-1.1121258
48	0xbf8782ac	-1.0586753
49	0xbf965591	-1.1744863
50	0xbfb9825e	-1.449291
51	0xbff26d68	-1.8939638
52	0xbfbf4b93	-1.4944938
53	0xc02da678	-2.7132854
54	0xbfa4ac15	-1.2865015
55	0xbffe34e8	-1.9859896
56	0xbfe6cc3d	-1.8031079
57	0xc0192544	-2.3928995
58	0xbf9da04b	-1.2314543
59	0xbffda218	-1.9815092
60	0xbfb34e71	-1.4008313
61	0xc02a4559	-2.6604826
62	0xbf8cb349	-1.0992213
63	0xbf86f87e	-1.0544584
64	0xbf8769ad	-1.0579125
65	0xbf8a62d8	-1.0811415
66	0xbf9600bc	-1.1718974
67	0xbf8db365	-1.1070372
68	0xbfba64b3	-1.4561981
69	0xc00cc7bd	-2.199691
70	0xbf8eb78c	-1.1149764
71	0xbfd9603c	-1.6982493
72	0xbfabfcdf	-1.3436545
73	0xc008cdeb	-2.1375682
74	0xbfa1e225	-1.2647139
75	0xc01c5b9d	-2.4430916
76	0xbfb98fd0	-1.4497013
77	0xc016548f	-2.348911
78	0xbff205b0	-1.8907986
79	0xc0575bed	-3.3649857
80	0xbfc78e60	-1.5590324
81	0xc01473f9	-2.3195784
82	0xbfafd087	-1.3735512
83	0xc0518fe7	-3.274408
84	0xbfb4b26c	-1.411695
85	0xc01828d7	-2.3774927
86	0xbfa38093	-1.2773613
87	0xc0144325	-2.3165982
88	0xbfa5a38a	-1.2940533
89	0xc0188d8e	-2.3836398
90	0xbf9df9c0	-1.2341843
91	0xbf87cfe8	-1.0610323
92	0xbf8fc449	-1.1231776
93	0xbf8eda6c	-1.1160407
94	0xbf900b8c	-1.1253524
95	0xbf8a4e30	-1.0805111
96	0xbf8f6055	-1.1201273
97	0xbf928945	-1.1448141
98	0xbfb21129	-1.3911487
99	0xc02ec534	-2.7307863
100	0xbf90dfa7	-1.1318253
101	0xbf84e076	-1.0381
102	0xbf8b9b19	-1.0906707
103	0xbf865818	-1.0495634
104	0xbf91fb50	-1.140482
105	0xbf9e16e9	-1.2350742
106	0xbf8cb8dc	-1.0993915
107	0xbf8a8c35	-1.0824038
108	0xbf940992	-1.1565421
109	0xbf865184	-1.0493627
110	0xbf835a9f	-1.026203
111	0xbf82f6ab	-1.0231527
112	0xbf9456de	-1.158901
113	0xbf8cf92c	-1.1013541
114	0xbf8f32f9	-1.1187431
115	0xbf9d1f17	-1.2275113
116	0xbf8c44d1	-1.0958501
117	0xbf8f1b9a	-1.1180298
118	0xc008cced	-2.1375077
119	0xc0598c39	-3.3991835
120	0xbfe10cc0	-1.7582016
121	0xc0110df4	-2.2664766
122	0xbf9c6007	-1.2216805
123	0xc003e4d3	-2.0608413
124	0xbf89f0d7	-1.0776623
125	0xbf836d50	-1.0267735
126	0xbfab4226	-1.3379562
127	0xc01ef8c5	-2.4839337
128	0xbfd21906	-1.6413887
129	0xc034182f	-2.813976
130	0xc0733179	-3.7998946
131	0xbf8fc097	-1.1230649
132	0xbf71cdd2	-0.9445468
133	0xbfe2266b	-1.7667974
134	0xc03f8a95	-2.9928334
135	0xbfb3287a	-1.3996727
136	0xc021270b	-2.518008
137	0xbf9b1474	-1.2115617
138	0xbf8f5f47	-1.1200951
139	0xc00270a1	-2.0381243
140	0xc03bd3bb	-2.934798
141	0xbf9a5367	-1.2056702
142	0xbf859cab	-1.0438436
143	0xbf91bcb5	-1.1385714
144	0xc01c0c56	-2.438253
145	0xbfc53b07	-1.5408639
146	0xc0510d14	-3.2664232
147	0xbfc07f5e	-1.5038869
148	0xc03aac7a	-2.9167771
149	0xbf95636f	-1.167097
150	0xc01f93b6	-2.4933906
151	0xbf88519f	-1.0649909
152	0xbf7895c0	-0.971035
153	0xbf83eba7	-1.030629
154	0xbf8f8e95	-1.1215388
155	0xbfa3a940	-1.2786026
156	0xbffff1bf	-1.999565
157	0xbf8fd389	-1.123643
158	0xbf86920e	-1.0513322
159	0xbf92b029	-1.146001
160	0xc02c77bc	-2.694808
161	0xbf91cd8b	-1.1390852
162	0xbfdcd8ac	-1.7253623
163	0xbf84cb56	-1.0374553
164	0xbf95a1b9	-1.1689979
165	0xbf90b449	-1.1305019
166	0xbf85bed9	-1.0448867
167	0xbf8e32ab	-1.1109213
168	0xbf76e742	-0.9644662
169	0xbfd71982	-1.6804659
170	0xc0372e30	-2.862194
171	0xbf9e4bcc	-1.2366881
172	0xc0130dad	-2.2977097
173	0xbf94e4d1	-1.1632329
174	0xbfe7f143	-1.8120502
175	0xbf79a6f1	-0.9752036
176	0xbf84b530	-1.0367794
177	0xbf92390f	-1.1423663
178	0xbf7466fd	-0.9546965
179	0xbf8ef63e	-1.1168897
180	0xbf8d98a5	-1.1062208
181	0xbfb30c25	-1.3988081
182	0xbffa7ae6	-1.9568756
183	0xbfc8470e	-1.5646684
184	0xc0306d5e	-2.7566752
185	0xbfa92b6f	-1.321638
186	0xc00310f2	-2.0479093
187	0xbfd2bc24	-1.6463666
188	0xc0122b5a	-2.283896
189	0xbf901752	-1.1257117
190	0xbff4b84c	-1.9118743
191	0xbfb3e13b	-1.405311
192	0xc0262a20	-2.596321
193	0xbf8cf788	-1.101304
194	0xbf7d04b5	-0.9883531
195	0xbf82fc05	-1.023316
196	0xbf9200e0	-1.1406517
197	0xbf91019a	-1.1328614
198	0xbf9263e2	-1.1436732
199	0xbfa9ea72	-1.3274672
200	0xc006e6d5	-2.1078389
201	0xbf914aab	-1.1350912
202	0xbfea3478	-1.8297262
203	0xbfaa8f16	-1.3324916
204	0xc01279cf	-2.2886846
205	0xbfa22b7a	-1.2669518
206	0xc0132a6f	-2.299465
207	0xbfbfa32e	-1.4971673
208	0xc017fe88	-2.3749104
209	0xbff56b31	-1.9173337
210	0xc054c11e	-3.324287
211	0xbfb75b09	-1.4324657
212	0xc01bc84e	-2.4341006
213	0xbfa7d290	-1.3111134
214	0xc04d4505	-3.2073376
215	0xbfb12147	-1.383828
216	0xc019bdce	-2.4022098
217	0xbfa3d1bf	-1.2798384
218	0xc01fdf9d	-2.4980233
219	0xbfa32017	-1.2744168
220	0xc0191961	-2.392174
221	0xbf874be0	-1.057003
222	0xbf7af4be	-0.98029697
223	0xbf8f4318	-1.119235
224	0xbf95aeb0	-1.1693935
225	0xbf94808a	-1.1601727
226	0xbf81d9cb	-1.014459
227	0xbf8e610b	-1.1123365
228	0xbf830d3d	-1.0238415
229	0xbfc57043	-1.5424885
230	0xc02c9d13	-2.697087
231	0xbf9589c2	-1.1682665
232	0xbf96087f	-1.1721343
233	0xbf8dae18	-1.1068754
234	0xbf8a4f9b	-1.0805544
235	0xbf949b8a	-1.1609967
236	0xbf8e78e1	-1.1130639
237	0xbf84c566	-1.0372741
238	0xbf88ce59	-1.0687972
239	0xbf9242af	-1.14266
240	0xbf8067cc	-1.0031676
241	0xbf863653	-1.0485328
242	0xbf8a38dc	-1.0798602
243	0xbf893fe2	-1.072262
244	0xbf80b09c	-1.0053897
245	0xbf8888a3	-1.0666698
246	0xbf9b7f81	-1.2148286
247	0xbf91cc0c	-1.1390395
248	0xbf821d3f	-1.0165175
249	0xc0030462	-2.0471425
250	0xc05dac25	-3.4636319
251	0xbfd7f045	-1.68702
252	0xc00c3bf8	-2.1911602
253	0xbf99f8ff	-1.2029113
254	0xbff90b14	-1.9456506
255	0xbf987277	-1.1909932

hidden2tag.weight f4 [131, 4]
0	0x3f86d039	1.0532295
1	0xbf37088f	-0.71497434
2	0xbfc40a58	-1.5315657
3	0xbff9b797	-1.9509152
4	0x3f608d90	0.8771601
5	0xbf2799ef	-0.6546926
6	0xbfa6be83	-1.302689
7	0xc01536ed	-2.3314774
8	0x3fba8474	1.4571671
9	0xbf5a7759	-0.8533836
10	0x3f007f8a	0.5019461
11	0xbf34b5df	-0.70590013
12	0x401f50a4	2.489297
13	0xc02ca188	-2.697359
14	0x3f128f2c	0.5724971
15	0xbfab150e	-1.33658
16	0x3f68520a	0.9075018
17	0xbf833d0e	-1.0253007
18	0xbff4e540	-1.9132462
19	0xbfe07dc3	-1.753838
20	0x4012bfff	2.2929685
21	0xbf3f9704	-0.74839807
22	0xc005a7b9	-2.088362
23	0xc003061b	-2.0472476
24	0x3f6c7f42	0.9238168
25	0xbf9251cd	-1.1431214
26	0xbfaf4fcd	-1.3696228
27	0xbfc658da	-1.5495865
28	0x3f7ee335	0.9956544
29	0xbf6d7416	-0.9275526
30	0xbfc1ebc4	-1.5150075
31	0xbfd14ad1	-1.6350957
32	0x401367b0	2.3032036
33	0xc01db7fb	-2.4643543
34	0xbe0fa0f8	-0.14026248
35	0x3e9dbcfc	0.30808246
36	0x401996b4	2.3998232
37	0xbf88da53	-1.0691627
38	0xbf2fd55e	-0.6868495
39	0xbf9fe642	-1.2492144
40	0x3f6be64b	0.92148274
41	0xbf8ab415	-1.0836207
42	0xbfb020bb	-1.3759989
43	0xbfaed95a	-1.366008
44	0x3f78be45	0.9716533
45	0xbf9916b2	-1.1960051
46	0xbfb99929	-1.4499866
47	0xbfb8d54a	-1.4440091
48	0x40201664	2.5013666
49	0xbf6db04d	-0.9284714
50	0xbfdeac6c	-1.7396369
51	0xbfe8bd92	-1.8182852
52	0x3f645dfb	0.892059
53	0xc0096d1c	-2.1472845
54	0xbf0e7ef9	-0.55662495
55	0xbc674e32	-0.014117764
56	0x3fd3adcb	1.6537412
57	0xc02dc65f	-2.7152326
58	0xbeb029d9	-0.34406927
59	0xbf5d1a4e	-0.8636826
60	0x3f044ed9	0.5168281
61	0x3fb19049	1.3872157
62	0xbfd01f6b	-1.6259588
63	0xbec93605	-0.39299026
64	0xbf18adfc	-0.5964048
65	0xbfa681a1	-1.300831
66	0xc0065850	-2.0991402
67	0xbeee4225	-0.4653484
68	0xbfa78bd9	-1.3089553
69	0xbe2bfe21	-0.16796161
70	0xbfbf2549	-1.4933254
71	0xbf8ebaef	-1.1150798
72	0x3fbdebf7	1.4837636
73	0xbfab55cd	-1.3385559
74	0xbfeb0562	-1.8361018
75	0xbf23118c	-0.6369865
76	0x3f39caaf	0.72574896
77	0x3f41f75d	0.7576807
78	0xc0041da4	-2.0643091
79	0xbf113cc3	-0.5673334
80	0x3f6c8720	0.92393684
81	0xbf81e661	-1.0148431
82	0xbfa542a7	-1.2910966
83	0xbff6a6a3	-1.9269603
84	0x3f822f0d	1.0170609
85	0xbf0efadf	-0.5585155
86	0xbfba3bc4	-1.4549489
87	0xc0109d98	-2.2596188
88	0x3f6e0bda	0.92986834
89	0xbf920000	-1.140625
90	0xbfb08db4	-1.3793244
91	0xbfcf09f7	-1.6174916
92	0x3f628a1f	0.88492006
93	0xbf7d89cc	-0.99038386
94	0xbfa0d757	-1.2565717
95	0xbff12fe0	-1.8842735
96	0x3f7e114e	0.99245155
97	0xbf9fe57c	-1.2491908
98	0xbfa367b3	-1.2766021
99	0xbfa79b4f	-1.3094271
100	0x3fc4f9a9	1.538869
101	0xc0007951	-2.0074046
102	0x3e789ba5	0.24278124
103	0xbe7b1efc	-0.24523538
104	0x3f8f2d02	1.118561
105	0xbf4297a9	-0.76012665
106	0xbfd2cba4	-1.6468396
107	0xbfb79c8c	-1.4344649
108	0x3f70fd8e	0.94136894
109	0xbf6cf86a	-0.9256655
110	0xbfb04ed5	-1.3774058
111	0xbfe1d842	-1.7644122
112	0x3f227dd5	0.63473254
113	0xbfa59f77	-1.293929
114	0xbe4c31d8	-0.19940889
115	0xc0066dd1	-2.1004527
116	0x3f98ee35	1.1947695
117	0x3f71fca4	0.94526124
118	0x3e9c7d14	0.30564177
119	0xbf212b59	-0.6295677
120	0x3f625ad2	0.8841983
121	0xbf91b6d5	-1.1383921
122	0xbff90e3d	-1.945747
123	0xbfdad54b	-1.7096342
124	0x3fc6560b	1.5495008
125	0x3e73417d	0.2375545
126	0xc009b537	-2.1516855
127	0xbe099721	-0.13436557
128	0x3f5cafad	0.8620556
129	0xbf82ccc7	-1.0218743
130	0xbfa435f8	-1.282897
131	0xc009fb2c	-2.1559553
132	0x3f8324bd	1.0245587
133	0xbf872048	-1.0556726
134	0xbfc16bca	-1.511102
135	0xbfabbf88	-1.3417826
136	0x3f7ccfcf	0.9875459
137	0xbf375524	-0.7161429
138	0xbfb1b9df	-1.3884848
139	0xbfdfed7f	-1.7494353
140	0x3f776b40	0.96648026
141	0xbf72eccd	-0.9489258
142	0xbfb1b829	-1.3884326
143	0xc015f60d	-2.3431427
144	0x3f8092f2	1.0044844
145	0xbf60a40b	-0.8775031
146	0xbfb70b77	-1.4300374
147	0xbfd256bc	-1.6432719
148	0x3f7b9163	0.9826872
149	0xbf55fe23	-0.83590907
150	0xbfb34d27	-1.400792
151	0xc00be090	-2.1855812
152	0xbfda2efc	-1.7045588
153	0xc02de700	-2.7172241
154	0xbf179c4f	-0.59222883
155	0xc01a86e1	-2.4144824
156	0x3fd983dc	1.6993365
157	0xbfd9c93b	-1.7014536
158	0x3fc28927	1.5198106
159	0xbf731184	-0.949486
160	0x40180353	2.375203
161	0xbfdf5144	-1.7446675
162	0xbfd1d2f1	-1.6392499
163	0xbf8ca560	-1.0987968
164	0xbf3c9821	-0.7366963
165	0x3f931066	1.148938
166	0xbf7ecd28	-0.99531794
167	0xbfb8c113	-1.4433922
168	0x3e87c5d4	0.26518118
169	0xbfa1fbd7	-1.265498
170	0xbf5edf04	-0.87059045
171	0xbfccfcf5	-1.6014696
172	0x3f91b771	1.1384107
173	0xbe42f46e	-0.19038555
174	0xbeeb480a	-0.459534
175	0xbfa80d31	-1.3129026
176	0x3f770221	0.96487623
177	0xbf78f64f	-0.9725084
178	0xbfb71071	-1.4301893
179	0xc015b68a	-2.3392663
180	0x3f68ab95	0.90886813
181	0xbf7ce8c2	-0.9879266
182	0xbfa5a5f3	-1.2941269
183	0xc00f7d2b	-2.2420146
184	0x3f6f2cc4	0.9342768
185	0xbf8dd075	-1.1079241
186	0xbfb43f31	-1.4081784
187	0xbfcc55f9	-1.5963737
188	0x3f7c9507	0.986649
189	0xbf19832f	-0.59965795
190	0xbfae7830	-1.3630428
191	0xc018279a	-2.377417
192	0x3f7383a6	0.95122755
193	0xbf6b09fd	-0.91812116
194	0xbfb6427d	-1.4239041
195	0xbfe1a0e8	-1.762723
196	0x3f802f1c	1.0014377
197	0xbf590548	-0.84773684
198	0xbfb3a404	-1.4034429
199	0xc0071646	-2.1107345
200	0x3fc48072	1.5351698
201	0xbf5600f8	-0.8359523
202	0x3e5eac80	0.21745491
203	0xbf98747a	-1.1910546
204	0x3f999e70	1.2001476
205	0xbf8fe80a	-1.1242688
206	0xbfde8206	-1.738343
207	0xbfcb1815	-1.5866724
208	0x3fa814e5	1.3131377
209	0xbf808fda	-1.00439
210	0xc02aaef0	-2.6669273
211	0xbf60df41	-0.8784066
212	0xbfab4bad	-1.338247
213	0xc0546a9c	-3.319007
214	0xbf4f8157	-0.8105673
215	0xbfe86203	-1.8154911
216	0x3e4805fe	0.19533536
217	0xbf94745e	-1.1598012
218	0xc0146d42	-2.3191686
219	0xbf86be4b	-1.0526823
220	0x3fe36e8f	1.7768115
221	0xc00b65fc	-2.1780996
222	0x3e80026e	0.25001854
223	0xbf25fb0d	-0.648362
224	0xbf04b8cf	-0.51844496
225	0xbf8ba792	-1.0910513
226	0xc04c128a	-3.1886315
227	0xbfa8ce1e	-1.3187902
228	0x3fd355e3	1.6510586
229	0xbfd1cb17	-1.6390103
230	0xbea2380c	-0.31683385
231	0xbf68edbe	-0.90987766
232	0x3e767249	0.24067034
233	0xbf906d25	-1.1283308
234	0x3e6d8ec7	0.23198996
235	0xc00d3c5a	-2.2068086
236	0xbf128091	-0.57227427
237	0xbfc707ce	-1.5549257
238	0xbfd0a6d1	-1.6300908
239	0xbfd3ef44	-1.6557393
240	0x3f9bb001	1.2163087
241	0xbfdaebc7	-1.7103204
242	0xbf8a53c4	-1.0806813
243	0xc01e0019	-2.468756
244	0xbfc2413b	-1.5176157
245	0xbf7da186	-0.9907459
246	0xc0064fe3	-2.098626
247	0xbfff7414	-1.9957299
248	0x3f7281b3	0.94729155
249	0xbf47dc36	-0.7807039
250	0xbfb29074	-1.3950334
251	0xbff03361	-1.876568
252	0x3f6ab8c4	0.9168818
253	0xbf777b52	-0.96672547
254	0xbfaebaa8	-1.3650713
255	0xc0161230	-2.34486

hidden2tag.bias f4 [131]
0	0xc001b0b6	-2.0264106
1	0xbff3eab2	-1.9055998
2	0xbf727212	-0.9470531
3	0xbf0d2392	-0.551324
4	0xbf45a023	-0.77197474
5	0xbebcdaea	-0.36885768
6	0xbfcb7b74	-1.589705
7	0xc0208044	-2.5078287
8	0x3e3faba8	0.18717825
9	0x3e87df79	0.26537684
10	0xc004318f	-2.0655248
11	0xc01b316d	-2.4248917
12	0xbeee89f0	-0.46589613
13	0xbdf10380	-0.11768246
14	0xbf77a74f	-0.9673967
15	0x3dad1b1d	0.08452437
16	0xbf0b9d6d	-0.5453709
17	0xbf139e6e	-0.5766362
18	0xbf6d060e	-0.92587364
19	0xbf7c590c	-0.98573375
20	0xbfc73bcc	-1.5565124
21	0xbfca73e7	-1.581662
22	0xc01c2ff2	-2.4404263
23	0xc0134d24	-2.3015833
24	0xbe49b0c7	-0.19696341
25	0xbef5e5a4	-0.48026764
26	0xc01d3c98	-2.4568233
27	0xbfc7bd4d	-1.5604645
28	0xbf5aafd7	-0.8542456
29	0xbe64c4ee	-0.22340748
30	0xbf3ff622	-0.74984944
31	0xbf6966d9	-0.9117256
32	0xc01c3932	-2.440991
33	0xc01d1455	-2.454366
34	0xbfed2c46	-1.8529136
35	0xbfc8a2c9	-1.5674678
36	0xc0055265	-2.083154
37	0xc013530a	-2.3019433
38	0xbf704d4c	-0.93867946
39	0xbf698123	-0.9121267
40	0xbf88f1e3	-1.0698818
41	0xbf284856	-0.65735376
42	0xbe9cc722	-0.30620676
43	0xbedf40b8	-0.43604064
44	0xc02230c4	-2.5342264
45	0xbfe4977d	-1.785873
46	0xbff76d8d	-1.9330307
47	0xc0173266	-2.362451
48	0xbfd53f25	-1.6659895
49	0xbff2569d	-1.8932682
50	0xbea60870	-0.32428312
51	0xbed7b32b	-0.42128882
52	0xbefe8fe9	-0.4971917
53	0xbf32538b	-0.69658726
54	0xbee5951e	-0.4484033
55	0xbe719aec	-0.23594254
56	0xbf888638	-1.066596
57	0xbf81a58c	-1.0128646
58	0xbea41629	-0.32048157
59	0xbe941e5f	-0.2892942
60	0x3dce325c	0.10068199
61	0xbe7bddb0	-0.24596286
62	0xc019e950	-2.4048653
63	0xc00c966f	-2.1966817
64	0xc010615d	-2.2559426
65	0xbfdc48c4	-1.7209706
66	0xbfc2d1c9	-1.5220271
67	0xc00d2b18	-2.2057552
68	0xbc120944	-0.008913342
69	0xbe25923c	-0.16169065
70	0xbf7ef6f8	-0.99595594
71	0xbf8bd668	-1.0924807
72	0xbf1460be	-0.57960117
73	0xbf299899	-0.6624847
74	0xbee092bf	-0.43861958
75	0xbf23c262	-0.6396848
76	0xbf9257a1	-1.1432992
77	0xbf26c213	-0.65139884
78	0xbe286d5d	-0.16447969
79	0x3f875272	1.0572035
80	0xbf5fdb4e	-0.8744401
81	0xbeed7e96	-0.4638564
82	0xbf2281f2	-0.6347953
83	0xbede01c8	-0.43360734
84	0xbf5ed80c	-0.8704841
85	0xbf288a28	-0.6583581
86	0xbfa9d9c3	-1.3269581
87	0xbf7584aa	-0.95905554
88	0xbf6f7604	-0.9353945
89	0xbf5f1865	-0.871466
90	0xbfe6c435	-1.8028628
91	0xc01f9ba5	-2.4938748
92	0xc01424af	-2.314739
93	0xc013ab49	-2.3073294
94	0xc0180883	-2.3755195
95	0xbfe36ef7	-1.7768239
96	0xc0160f56	-2.344686
97	0xbfec37b9	-1.8454505
98	0xbf669d16	-0.90083444
99	0xbf24e16d	-0.6440647
100	0xc01ea75e	-2.4789653
101	0xc0165170	-2.3487206
102	0xbffdbe14	-1.9823632
103	0xc016f254	-2.3585405
104	0xc0055ee4	-2.0839167
105	0xbfe4d6f3	-1.7878097
106	0xc01d0d3b	-2.4539325
107	0xbfd7fa8f	-1.687334
108	0xc0059406	-2.0871596
109	0xc013c3a8	-2.308817
110	0xbfec5d93	-1.8466057
111	0xc01fff68	-2.4999638
112	0xc01f118a	-2.4854455
113	0xbffd2bc5	-1.9778982
114	0xc01016c0	-2.2513885
115	0xbfe1fe6d	-1.765577
116	0xc013738e	-2.303928
117	0xc006b50b	-2.1048
118	0xbf79df7f	-0.9760665
119	0x3e92227f	0.28541943
120	0xbe981fdb	-0.29711804
121	0xbe7f0e70	-0.24907851
122	0xbf22ab46	-0.6354259
123	0xbe3337fa	-0.17501822
124	0xbfcd0b69	-1.6019107
125	0xbfcea5b0	-1.6144314
126	0xbf0432d6	-0.5164007
127	0xbf19987b	-0.5999829
128	0xbe685a38	-0.22690666
129	0xbe57d8e9	-0.21078838
130	0xbd64f7a9	-0.05590025
