temp/best_modelrole_1.model (torch, 326381 bytes, 14 tensors)

word_embeds.weight f4 [3918, 5]
0	0x3f29f32c	0.66386676
1	0x3da3eba2	0.08003928
2	0xbf8ceda7	-1.1010026
3	0xbf7efe4e	-0.9960679
4	0xbf2c3a37	-0.6727633
5	0xbe0d0d90	-0.13774705
6	0xbe23c1f6	-0.15991959
7	0x3f2f6fda	0.68530047
8	0xbfad0327	-1.3516587
9	0xbf08e302	-0.53471386
10	0xbf24a5bb	-0.64315385
11	0xbf0fe4ae	-0.5620831
12	0x3f8f6a9e	1.1204412
13	0xbf9a18d5	-1.2038828
14	0x3f978867	1.1838502
15	0xbf32e2e4	-0.6987746
16	0xbfa8dcf0	-1.3192425
17	0xbf05d206	-0.52273595
18	0xbf5c5ef5	-0.8608239
19	0xbf47f2d2	-0.7810489
20	0xbe7c5ab4	-0.24643975
21	0x3ddc6582	0.107615486
22	0x3f946ede	1.1596334
23	0xbed85043	-0.42248735
24	0xbeb54926	-0.3540737
25	0x3f6ba051	0.920415
26	0x3e009da0	0.12560129
27	0xbec4dfd7	-0.38452026
28	0x3f6a3974	0.91493917
29	0x3f631260	0.88699913
30	0x3e47cfc3	0.19512849
31	0xbece22ad	-0.4026083
32	0xbf6db463	-0.92853373
33	0xbfedb289	-1.857011
34	0x3fa40a3f	1.2815627
35	0xbf0b20dd	-0.5434702
36	0x3ec50d71	0.38486817
37	0x3ebe9435	0.37222448
38	0xbf3fd6ea	-0.7493731
39	0x3f0b241e	0.54351985
40	0xbfc85a85	-1.5652624
41	0xbf579ffc	-0.8422849
42	0x3fc0a62d	1.5050713
43	0xc0150398	-2.3283443
44	0x3f06693e	0.52504337
45	0xbf948531	-1.1603147
46	0xbf27fde8	-0.65621805
47	0x3f6baa3b	0.92056626
48	0xbf015c6b	-0.50531644
49	0x3e902e24	0.28160203
50	0xbffd2bc0	-1.9778976
51	0x3e0f75bd	0.14009757
52	0xbfa71079	-1.3051902
53	0xbfe3105b	-1.7739366
54	0x3efae75c	0.49004638
55	0x3d828a05	0.063739814
56	0x3f2025c0	0.625576
57	0xbf5c06bf	-0.85947794
58	0x3ec13b81	0.3774071
59	0x3e441458	0.19148386
60	0xbeb9c482	-0.36282736
61	0x3f62eeee	0.8864583
62	0xbde4e02f	-0.11175572
63	0xbea8b74b	-0.3295234
64	0x3f376f68	0.7165437
65	0xbf2cd5d5	-0.6751378
66	0xbf18c93e	-0.5968207
67	0x3f31b4d3	0.6941654
68	0xbd8ae4e0	-0.06781936
69	0xbe55802b	-0.20849673
70	0x3f55ccee	0.8351582
71	0x3fbcd47b	1.4752344
72	0xbd8327e8	-0.06404096
73	0xbfcc1eec	-1.5946937
74	0x3faab844	1.3337483
75	0xbf210141	-0.6289254
76	0x3f2dd5a7	0.6790413
77	0xc033b65b	-2.808005
78	0xbe034838	-0.12820518
79	0x3ef1a078	0.4719274
80	0xbf6363b9	-0.8882404
81	0xbd2ab519	-0.041676614
82	0xbfd33e5d	-1.6503407
83	0x3f92e52c	1.1476188
84	0xbf21a4eb	-0.6314227
85	0x3f55d94b	0.8353469
86	0xbf169e98	-0.58835745
87	0xbfc2ce78	-1.5219259
88	0xbfc8322e	-1.5640314
89	0xbef7f4dc	-0.48429
90	0xbf60e49a	-0.8784882
91	0x3fd25330	1.6431637
92	0x3fb5aea3	1.419392
93	0xbe8c7f98	-0.27441096
94	0x3f0099d5	0.5023473
95	0xbf920035	-1.1406313
96	0x3f8c9c52	1.0985205
97	0xbc982342	-0.0185715
98	0x3f17294f	0.59047407
99	0xbdbe6dae	-0.092982635
100	0x3f6fa6f4	0.93614125
101	0xbf328e44	-0.6974833
102	0xbf6c233e	-0.92241275
103	0x3feb46d2	1.8380988
104	0x3f9d9091	1.2309743
105	0x3f427869	0.7596498
106	0x3f46feea	0.7773272
107	0x3f19438d	0.598687
108	0xbeacdda8	-0.3376286
109	0x3ee2c994	0.44294417
110	0x3d6eee52	0.05833275
111	0xbf548348	-0.8301282
112	0x3f9c9264	1.2232175
113	0x3e4eb399	0.20185699
114	0x3f0cf2fe	0.55058277
115	0x3dd05db5	0.10174123
116	0x3f0ab442	0.541813
117	0xc03970e6	-2.8975158
118	0xbf119571	-0.56868654
119	0xbed2766b	-0.4110597
120	0xbeb45e34	-0.3522812
121	0xbf92bf82	-1.1464694
122	0x3e96d798	0.2946136
123	0x3f9d0b31	1.226904
124	0xbf8fdc0c	-1.1239028
125	0x3e82464f	0.25444266
126	0x3fa91ad4	1.3211312
127	0x3ec212e0	0.37905025
128	0xbd163366	-0.03667011
129	0x3f365e40	0.71237564
130	0x3e9409b7	0.28913662
131	0x3f9082a5	1.128987
132	0x3edefe71	0.43553498
133	0xbeeb3d08	-0.45945
134	0x3d7ebcdf	0.06219184
135	0x3f9c0cb0	1.2191372
136	0xbfe22263	-1.7666744
137	0xbed8051c	-0.42191398
138	0x3f227a9d	0.63468343
139	0x3e42cbfa	0.19023123
140	0xbf676241	-0.903843
141	0x39d910d4	0.00041402003
142	0x3ec6fd0e	0.3886494
143	0x3ed1cf23	0.40978345
144	0xbeb52dfa	-0.3538664
145	0xbf29e2ce	-0.663617
146	0xbf985827	-1.1901902
147	0xbec644c4	-0.3872434
148	0x3edc3d60	0.43015575
149	0x3f25a0b1	0.6469832
150	0x3f61dce5	0.88227683
151	0x3fad7422	1.3551066
152	0x3f351f0e	0.7075051
153	0xbd240601	-0.04004479
154	0xbdfa9adc	-0.12236568
155	0xbe72bf0b	-0.2370569
156	0xbee03a64	-0.4379455
157	0x3e8ec6c1	0.27886012
158	0x3f02a862	0.5103818
159	0x3ecc6cb8	0.39926696
160	0x3f8895f1	1.0670758
161	0xbf779cee	-0.9672383
162	0x400efbb4	2.2341127
163	0x3f671a27	0.9027428
164	0x3f6987be	0.9122275
165	0x3f4b39bf	0.7938499
166	0x3ec9409b	0.39307103
167	0xbfccca1d	-1.599918
168	0xbfc720b3	-1.5556854
169	0x3fe1f139	1.765174
170	0x3f4c6056	0.79834497
171	0x3f60f6fe	0.8787688
172	0x3f0b9987	0.5453114
173	0x3f26ff8d	0.6523369
174	0xbe1faf6c	-0.15594262
175	0x3f033be9	0.5126329
176	0xbf7b3505	-0.98127776
177	0x3fd40cbe	1.6566389
178	0x3cedc91c	0.02902656
179	0xbf4f1637	-0.8089327
180	0xbf5e847d	-0.8692091
181	0x3d238b83	0.03992797
182	0x3cd7a32e	0.026322927
183	0x3f8c45fa	1.0958855
184	0x3f8675e0	1.0504723
185	0x3fd7f63a	1.6872017
186	0xbed36444	-0.41287434
187	0x3f4f234f	0.8091325
188	0x3dd42798	0.103591144
189	0x3dfff0a7	0.12497073
190	0x3f4e07ad	0.8048046
191	0xbc1b868a	-0.009492526
192	0xbcbaf9f4	-0.022824265
193	0x3f981707	1.1882027
194	0xbf3c7a19	-0.73623806
195	0x3e9bed5b	0.30454525
196	0xbf0534e3	-0.52033824
197	0xbfa64851	-1.2990819
198	0xbf90a0dd	-1.1299092
199	0xbf620b13	-0.8829815
200	0x402171b4	2.522565
201	0xbf6e70d1	-0.93140894
202	0x3fb3fa23	1.4060711
203	0x3ea22531	0.31669
204	0x3f388ddb	0.72091454
205	0x3eefde36	0.4684922
206	0xbe1ca706	-0.1529809
207	0xbfa6a21a	-1.301822
208	0x3fa495cd	1.2858216
209	0xbf6f25ab	-0.9341685
210	0xbe5fbdc3	-0.21849732
211	0x3f18b688	0.5965352
212	0x3ea1fd97	0.31638786
213	0x3f8e3102	1.1108706
214	0xbf11830b	-0.5684058
215	0x3e9dc383	0.30813226
216	0x3da1b5a7	0.078959756
217	0x3fd4b564	1.6617856
218	0xbd234b1c	-0.03986655
219	0x3e74b528	0.2389723
220	0xbdbc9d2f	-0.09209668
221	0x3fe11d8b	1.7587141
222	0xbfa265ef	-1.2687358
223	0xbfb4071c	-1.406467
224	0xbfa34f92	-1.2758658
225	0x3f06faa6	0.5272621
226	0xbf07c162	-0.53029454
227	0x3ef4df94	0.47826827
228	0x3f26a000	0.6508789
229	0x3e9e4a0c	0.30915868
230	0x3f80d5d0	1.006525
231	0xbf9eeae7	-1.2415437
232	0x3ef1ad64	0.472026
233	0x3e8d0e9d	0.27550212
234	0xbf5a0801	-0.85168463
235	0x3f1e8c5e	0.61932933
236	0x3e5bf387	0.21479617
237	0x3fc8ced3	1.5688118
238	0x3e9a1bcf	0.3009934
239	0x3eca6b92	0.39535195
240	0x3f5e966b	0.8694827
241	0xbf50faf5	-0.8163293
242	0x3e60b664	0.21944577
243	0x3ed09790	0.40740633
244	0x3e657dcc	0.22411269
245	0x3fd42f5a	1.657695
246	0xbe875cb8	-0.26437926
247	0xbe957a66	-0.29194945
248	0xbf8db221	-1.1069986
249	0xbecb1a71	-0.3966861
250	0x3f76df77	0.9643473
251	0xbe018259	-0.1264738
252	0x4002b855	2.0425007
253	0xbe8662b7	-0.26247188
254	0x3f56a465	0.83844596
255	0xbeead08b	-0.4586223

lstm.weight_ih_l0 f4 [8, 5]
0	0x3e817b17	0.25289223
1	0x3f282e85	0.65695983
2	0xbed31487	-0.412266
3	0xbf084932	-0.5323669
4	0x3e449ccf	0.19200443
5	0x3f1549ad	0.58315545
6	0x3f08720e	0.53299034
7	0xbf2311ab	-0.63698834
8	0x3d8526f1	0.06501568
9	0x3f2a7fc8	0.6660123
10	0x3e466a37	0.19376455
11	0xbdd4bc75	-0.10387508
12	0x3f145103	0.57936114
13	0x3eb08ee9	0.34484032
14	0x3f12e376	0.5737833
15	0xbed757be	-0.4205913
16	0x3e7a8842	0.2446604
17	0xbecb06d1	-0.39653638
18	0x3e3c111e	0.18365905
19	0x3f0f98ab	0.5609233
20	0x3e3b02fe	0.1826286
21	0x3e8f1edd	0.27953234
22	0x3d6e46e5	0.05817308
23	0x3ecde349	0.40212467
24	0x3e8b62f4	0.27223933
25	0xbf0158aa	-0.50525916
26	0xbe1610d8	-0.14654863
27	0x3f073e01	0.52828985
28	0x3e211be1	0.15733291
29	0xbf213ec3	-0.6298639
30	0x3f0d62b2	0.5522872
31	0xbe2766a2	-0.16347745
32	0xbe085265	-0.13312681
33	0x3edba439	0.4289873
34	0xbec718f5	-0.38886228
35	0x3f24345f	0.6414241
36	0xbed04b22	-0.40682322
37	0xbeb6c818	-0.35699534
38	0x3d8bfdfc	0.06835553
39	0x3e33d788	0.17562687

lstm.weight_hh_l0 f4 [8, 2]
0	0x3ed191a2	0.40931422
1	0x3eebe845	0.46075645
2	0xbef9cd02	-0.4878922
3	0x3dc3bcb9	0.0955748
4	0x3eac3216	0.33631963
5	0xbe902364	-0.28152
6	0xbeac80e3	-0.33692083
7	0x3eb92917	0.36164162
8	0x3eb0c412	0.3452459
9	0xbeb5f643	-0.35539445
10	0xbf27602a	-0.6538111
11	0x3f270aaf	0.65250677
12	0xbebd1f6c	-0.36938035
13	0x3ea71a8b	0.32637438
14	0x3efa1f9c	0.4885224
15	0x3e05deac	0.13073224

lstm.bias_ih_l0 f4 [8]
0	0x3f2c894d	0.67397004
1	0xbf30a681	-0.69004065
2	0xbbe0e144	-0.0068627913
3	0xbedacd3b	-0.42734703
4	0xbeda60b5	-0.42651907
5	0x3e87f8b8	0.26556945
6	0xbc9bd459	-0.019022154
7	0xbe8c5a2a	-0.2741254

lstm.bias_hh_l0 f4 [8]
0	0x3f2067ce	0.62658393
1	0xbf0673a7	-0.5252022
2	0x3e941de2	0.2892905
3	0x3f294968	0.66127634
4	0x3e5bda47	0.21469985
5	0x3edd87ea	0.43267757
6	0x3f21291d	0.6295336
7	0xbf0442db	-0.51664513

lstm.weight_ih_l0_reverse f4 [8, 5]
0	0x3f30c258	0.69046545
1	0xbeadbf50	-0.33935022
2	0x3e984f87	0.29748175
3	0xbea8b89e	-0.32953352
4	0xbe629113	-0.22125654
5	0xbde91667	-0.11381226
6	0x3e95aa01	0.29231265
7	0xbf0c1c20	-0.54730415
8	0xbf26418f	-0.64943784
9	0x3f0a55dc	0.5403726
10	0x3e41598f	0.1888182
11	0x3e8e7381	0.27822497
12	0x3e590faa	0.21197382
13	0x3f0c928f	0.5491113
14	0xbeea0657	-0.45707962
15	0xbe673fd6	-0.22582945
16	0xbf2a7812	-0.6658946
17	0x3f0e060d	0.5547798
18	0xbe87d92b	-0.26532874
19	0xbf325f0c	-0.6967628
20	0xbe93ea37	-0.2888963
21	0x3ec18c08	0.37802148
22	0xbf233f46	-0.6376842
23	0x3f2d8bb9	0.67791325
24	0xbf15c46e	-0.5850285
25	0x3eb81ce4	0.35959542
26	0x3ee34850	0.44391108
27	0x3f145169	0.5793672
28	0xbe190a32	-0.14945295
29	0xbe5d39a4	-0.2160402
30	0x3f0bf7c9	0.54674965
31	0x3f118e96	0.56858194
32	0x3edb57b5	0.42840353
33	0xbeb757ac	-0.35809076
34	0x3d80cee1	0.06289459
35	0x3e23e961	0.16006996
36	0xbea07b45	-0.31344047
37	0xbf11a1a5	-0.56887275
38	0x3f29b525	0.6629203
39	0x3e40b215	0.18817933

lstm.weight_hh_l0_reverse f4 [8, 2]
0	0xbd0baad8	-0.034098476
1	0xbec10408	-0.37698388
2	0x3f17a906	0.59242284
3	0xbddde7d2	-0.10835232
4	0xbe3ec564	-0.18629986
5	0x3f152dc3	0.5827295
6	0x3cd314a0	0.02576667
7	0xbeefb0fd	-0.4681472
8	0xbe36b4e6	-0.17842445
9	0x3f1d88bd	0.6153677
10	0xbf00ac2a	-0.502627
11	0x3e4726ca	0.1944839
12	0xbd99efdf	-0.07516455
13	0x3df7d7ba	0.121016935
14	0x3eb980ff	0.3623123
15	0xbd5fdf2e	-0.0546562

lstm.bias_ih_l0_reverse f4 [8]
0	0x3e3b4364	0.18287426
1	0x3dae0dbd	0.08498714
2	0xbf161b06	-0.58634984
3	0xbe73c1a4	-0.23804337
4	0xbd91edc1	-0.07125426
5	0x3e3db8e9	0.18527569
6	0x3e0d1aa5	0.13779695
7	0xbcfd980b	-0.030956289

lstm.bias_hh_l0_reverse f4 [8]
0	0xbf19647e	-0.59918964
1	0x3e99de7a	0.3005255
2	0x3edbb80d	0.42913857
3	0xbec9dc22	-0.3942576
4	0xbf0ff258	-0.5622916
5	0x3e5dd2ce	0.21662447
6	0xbe375d7b	-0.17906754
7	0x3dda550e	0.10660754

crf.start_transitions f4 [243]
0	0xbd743dd7	-0.059629288
1	0x3d5befcc	0.053695485
2	0x3d3189db	0.04334436
3	0x3d4e56dd	0.050375808
4	0xbd4b4582	-0.049626835
5	0xbd816190	-0.06317437
6	0x3d8b7710	0.06809819
7	0xbc10512c	-0.008808415
8	0xbda016da	-0.078168586
9	0x3d20333a	0.039111353
10	0x3d7ce364	0.061740294
11	0xbd1e5155	-0.038651783
12	0x3d16dad1	0.036829773
13	0xbcd5bb49	-0.026090281
14	0x3d6498ba	0.055809714
15	0x3d4544a5	0.048161168
16	0x3d85335b	0.06503936
17	0xbdba8185	-0.09106735
18	0xbdb6a8ee	-0.089189395
19	0x3cb5356c	0.0221202
20	0x3d5f09dd	0.054452766
21	0xbc31ce6d	-0.010852438
22	0x3da5b02a	0.08090241
23	0x3d624e52	0.055250473
24	0x3d4808f6	0.04883667
25	0x3d5ef28d	0.054430533
26	0xbd691e06	-0.0569134
27	0x3da48aa2	0.080342546
28	0x3d91cb58	0.07118863
29	0xbd3a0c41	-0.045421842
30	0xbcee9eef	-0.02912852
31	0x3d4893d4	0.048969105
32	0xbdca7bde	-0.09886907
33	0xbda03f21	-0.07824541
34	0xbdbc666f	-0.09199225
35	0x3bc574ca	0.006025885
36	0x3d133eb6	0.035948478
37	0xbd3cf0b2	-0.046127982
38	0xbdbb095d	-0.09132645
39	0x3daba585	0.0838118
40	0x3d35bcce	0.04436951
41	0xbda82fd1	-0.08212245
42	0x3d1b8b06	0.03797438
43	0xbc83b6ba	-0.016078342
44	0xbdcb3634	-0.09922448
45	0xbd86d1d1	-0.06582988
46	0x3d3f50e5	0.046708006
47	0x3db12197	0.08648985
48	0xbd867766	-0.06565742
49	0x3d14a651	0.036291424
50	0x3ce03c14	0.027372397
51	0x3da71904	0.08159068
52	0x3d286631	0.041113082
53	0x3dc6e5f9	0.097118326
54	0xbdb0d06a	-0.08633502
55	0xbc55f646	-0.013059204
56	0x3d5ebcc7	0.05437925
57	0x3d24d297	0.040239897
58	0xbc36bda9	-0.011153617
59	0xbd51bd20	-0.051205754
60	0xbdc2a315	-0.09503762
61	0xbd863092	-0.06552233
62	0xbbad60ed	-0.0052910955
63	0xbda6e1cd	-0.08148537
64	0x3d07ea8a	0.03318266
65	0x3d974a06	0.07387166
66	0xbd9bc5da	-0.076060966
67	0x3d7dd995	0.06197508
68	0xbd0ffcfe	-0.03515338
69	0xb9f22136	-0.0004618258
70	0xbd42b3cc	-0.04753475
71	0xbda23294	-0.07919803
72	0x3c8bf05a	0.017082382
73	0xbdb4a4d2	-0.088204995
74	0xbd129f37	-0.03579637
75	0xbc5501ef	-0.013000949
76	0x3bf2fec7	0.0074156257
77	0x3da97441	0.08274127
78	0x3d5f26b1	0.05448026
79	0x3da78b8f	0.081809156
80	0xbdb6a66f	-0.089184634
81	0xbcbabdf7	-0.02279566
82	0xbc02934a	-0.007969687
83	0x3d393193	0.045213293
84	0xbd03f160	-0.032212615
85	0x3cb2ae76	0.021811705
86	0x3d88ba34	0.066761404
87	0xbc8462ac	-0.016160332
88	0xbd8fa8cd	-0.07014618
89	0x3d895260	0.06705165
90	0x3dae85de	0.08521627
91	0xbdb47342	-0.08811046
92	0x3da74fdd	0.081695296
93	0x3d67a54b	0.05655412
94	0xbd90a703	-0.07063105
95	0xbc00f1c4	-0.007870141
96	0x3b87d865	0.0041456693
97	0x3dca60aa	0.098817185
98	0x3d7a73aa	0.061145462
99	0x3d67e3cb	0.056613725
100	0xbd023586	-0.031789325
101	0xbcaae691	-0.020861896
102	0xbceed84f	-0.029155878
103	0xbd946ce0	-0.07247329
104	0x3c811d4e	0.015761044
105	0xbbc0eec0	-0.005887836
106	0xbdb6d7ae	-0.089278564
107	0xbd49c01f	-0.049255487
108	0xbb665c8c	-0.0035150377
109	0x3dc1cb49	0.09462602
110	0x3cb98f7c	0.022651426
111	0x3ce5f394	0.028070249
112	0xbdb4e8e4	-0.08833483
113	0x3dbd889c	0.09254572
114	0xbd11ae8f	-0.035566863
115	0x3c98e707	0.01866485
116	0xbcfe1aa1	-0.031018557
117	0xbd8f11af	-0.06985795
118	0x3a623b45	0.00086300477
119	0x3bbe34cb	0.0058046333
120	0xbd4c52d1	-0.049883667
121	0xbd48c093	-0.049011778
122	0xbdcc4fb9	-0.099761434
123	0xbcf97ea5	-0.030455897
124	0xbc602c96	-0.013682505
125	0xbcb55ff8	-0.022140488
126	0xbd5cd079	-0.053909753
127	0xbdbb489d	-0.09144709
128	0xbca03314	-0.019555606
129	0x3d96f263	0.0737045
130	0x3dcbf415	0.09958664
131	0x3dbac449	0.0911947
132	0xbd5e1f00	-0.054228783
133	0x3d85e46f	0.06537711
134	0xbdcd115d	-0.100130774
135	0xbc9345d1	-0.017977627
136	0x3cf9ca32	0.030491922
137	0x3dcb09ed	0.099140026
138	0x3d922e41	0.071377285
139	0xbd95048d	-0.072762586
140	0x3dc21c45	0.09478048
141	0xbdcd02d5	-0.10010306
142	0xbd08eeb7	-0.03343078
143	0x3d47e694	0.04880388
144	0xbdb507cf	-0.0883938
145	0xbdc481e6	-0.09595089
146	0x3db13175	0.08652011
147	0x3d737eb1	0.059446994
148	0xbd49edee	-0.049299173
149	0x3d04501e	0.03230297
150	0x3d80f167	0.06296044
151	0xbd08ec52	-0.033428498
152	0xbb637bc0	-0.0034711212
153	0xbaa9e39c	-0.001296151
154	0x3d35a486	0.044346355
155	0xbd698daa	-0.057019867
156	0xbca0b457	-0.019617243
157	0x3cb38db7	0.02191816
158	0xbd472d45	-0.048627157
159	0x3cfa3247	0.030541552
160	0xbd94a7c0	-0.07258558
161	0xbcc52854	-0.024067082
162	0xbcbfc1a6	-0.023407768
163	0x3d56b010	0.052414
164	0x3cbf39b2	0.023342941
165	0xbd20ce4d	-0.039259244
166	0x3d4d724c	0.05015783
167	0x3bb80ee9	0.005617012
168	0xbd7c2baf	-0.061565097
169	0x3d88d70d	0.06681643
170	0xbca8bfc6	-0.020599257
171	0xbd39ef15	-0.045394022
172	0xbced9f82	-0.029006723
173	0x3d4631f9	0.0483875
174	0xbdcc4987	-0.09974962
175	0x3bb4014b	0.005493318
176	0x3da4ceb9	0.08047242
177	0xbbf587e3	-0.0074930056
178	0xbd76a1dd	-0.06021296
179	0xbbef2df0	-0.0072991773
180	0xbdcce667	-0.10004883
181	0x3db23769	0.08701975
182	0xbdaf1bdc	-0.08550236
183	0x3da0683d	0.07832382
184	0x3db7d8d0	0.089769006
185	0x3d9b754d	0.07590733
186	0x3caa37f2	0.02077863
187	0x3d94eaa7	0.07271319
188	0x3d3651cd	0.044511605
189	0xbdb0e56f	-0.08637511
190	0xbd96a483	-0.07355597
191	0x3d964a26	0.073383614
192	0x3dc851f8	0.09781259
193	0x3d343613	0.04399688
194	0x3da91b76	0.08257191
195	0xbda5ef08	-0.08102232
196	0xbd9b92d2	-0.07596363
197	0x3dc71d17	0.09722345
198	0xbd81c3c3	-0.06336167
199	0xbd5da618	-0.054113477
200	0x3d933d26	0.071893975
201	0x3d08efea	0.033431925
202	0x3d4f4a64	0.050608054
203	0xbdba27de	-0.09089635
204	0x3dc81971	0.097704776
205	0xbd848b2c	-0.064718574
206	0xbc7f7a9c	-0.015593197
207	0x3d4a04f1	0.04932112
208	0x3bac7088	0.005262438
209	0xbd218473	-0.039432954
210	0x3ce46cbc	0.02788388
211	0xbce7b64b	-0.028285166
212	0xbd20a273	-0.039217424
213	0x3da3e091	0.08001817
214	0xbd29d027	-0.041458275
215	0x3c1ed8f9	0.009695285
216	0x3dce3807	0.1006928
217	0xbae54338	-0.0017491346
218	0xbcd94cc6	-0.026525866
219	0xbccbfcd9	-0.02490084
220	0x3d0bca57	0.034128513
221	0xbd531459	-0.051533077
222	0x3d7763b5	0.060397822
223	0x3c9f4b27	0.019445015
224	0xbbf76f3c	-0.007551102
225	0xbd8a47f3	-0.067520045
226	0x3dc5ebd7	0.096641235
227	0x3d13cfd5	0.036086876
228	0xbd0f8aa1	-0.035044316
229	0x3da64260	0.08118129
230	0x3dce2e56	0.10067432
231	0x3d897e92	0.067135945
232	0x3d9b53b7	0.07584327
233	0xbd64b43a	-0.05583594
234	0xbc8f4e8e	-0.017493512
235	0x3d0f264f	0.034948643
236	0xbd9a6b31	-0.075399764
237	0x3d2579cf	0.04039937
238	0x3d4829f2	0.048868127
239	0xbc8715f5	-0.016489962
240	0x3d1174a8	0.035511643
241	0x3d055978	0.032556027
242	0x3e0d5cb3	0.13804893

crf.end_transitions f4 [243]
0	0x3ca0918e	0.019600656
1	0xbcaa27bd	-0.020770902
2	0x3d9289ed	0.071552135
3	0x3d966c3b	0.07344862
4	0xbd96e33a	-0.07367559
5	0x3c533d9d	0.012893108
6	0x3c4d1923	0.0125182
7	0x3d3a5201	0.04548836
8	0x3d505396	0.050860964
9	0x3db0124a	0.08597238
10	0x3d240941	0.040047888
11	0x3d9e5984	0.077319175
12	0xbd82a42a	-0.06378968
13	0xbd6fe488	-0.058567554
14	0x3ccd3576	0.025049906
15	0xbc17a833	-0.00925641
16	0xbda305f7	-0.07960122
17	0xbdb50d58	-0.08840436
18	0xbdaa7a6f	-0.083241336
19	0x3dc6ba29	0.09703476
20	0x3c9a6b3a	0.018849958
21	0x3cd4859b	0.025942614
22	0xbd436fce	-0.047714047
23	0xbb2388b9	-0.002495332
24	0x3d0ec407	0.034854915
25	0x3dba405d	0.090943076
26	0xbd6d1250	-0.057878792
27	0xbd7eb789	-0.06218675
28	0x3db5217a	0.08844276
29	0xbd95fe30	-0.07323873
30	0xbcb095c5	-0.02155579
31	0xbd92d5ef	-0.07169711
32	0xbc800eaf	-0.015632002
33	0x3d4c559c	0.04988633
34	0xbdaedd99	-0.0853836
35	0x3c0ded70	0.008662567
36	0x3d8ee30a	0.06976898
37	0x3db555c3	0.088542484
38	0x3c4cc0cb	0.012497137
39	0xbc5bb9ea	-0.013411025
40	0x3db20561	0.08692432
41	0xbd156ea8	-0.036482483
42	0x3cbdf0fd	0.023186201
43	0x3d6205b4	0.05518122
44	0x39b345f3	0.00034193657
45	0xbd4aa8dd	-0.049477447
46	0xbd804d08	-0.062646925
47	0x3d23f166	0.040025137
48	0x3c220dcb	0.009890984
49	0xbd6bbbfe	-0.05755233
50	0xbc68a207	-0.014198787
51	0x3cc35d86	0.023848306
52	0x3d44082d	0.04785936
53	0xbd37cbca	-0.044872083
54	0xbc4aa042	-0.01236731
55	0x3d80204c	0.0625616
56	0x3c836a4c	0.016041897
57	0x3d6827a0	0.056678414
58	0xbd8d0b8c	-0.06886968
59	0x3cc6683c	0.024219625
60	0xbc46f699	-0.012143754
61	0xbcb3a3f1	-0.02192876
62	0x3bcd5bd0	0.0062670484
63	0xbd38efe2	-0.045150645
64	0x3d00da97	0.031458464
65	0x3ccf891f	0.02533394
66	0xbc13361f	-0.008985071
67	0x3cf4af04	0.02986861
68	0x3da16e44	0.078823596
69	0x3c64bb87	0.013960726
70	0x3d406a24	0.046976224
71	0x3dad11cf	0.08450662
72	0xbd5e9c1e	-0.054348104
73	0x3bb31d65	0.0054661506
74	0xbd4b6aad	-0.04966228
75	0xbb91399d	-0.004431917
76	0x3c5ebb79	0.013594502
77	0xbc7d7a16	-0.015471002
78	0xbc1bfdc9	-0.009520956
79	0x3da2ad99	0.079432674
80	0xb9c53e9a	-0.0003762141
81	0xbd3d2b4b	-0.046183866
82	0xbd853328	-0.06503898
83	0x3dbc4daf	0.091945045
84	0x3d88b019	0.06674213
85	0x3d67be71	0.056578103
86	0xbd293cf1	-0.041317884
87	0x3dcb565d	0.09928582
88	0xbdc4029b	-0.095708095
89	0x3d2460b8	0.0401313
90	0x3cd8d866	0.026470374
91	0x3d8a43c5	0.06751207
92	0x3c9b2a88	0.018941179
93	0x3b9dc28e	0.0048144525
94	0xbc8d624a	-0.017258782
95	0xbd86e0a5	-0.06585816
96	0xbcfe84be	-0.031069156
97	0x3b5bf890	0.0033564903
98	0xbdb15976	-0.086596414
99	0x3d30b2fe	0.04313945
100	0x3d92785e	0.071518645
101	0x3d2142d9	0.03937039
102	0xbd375088	-0.044754535
103	0xbd04876d	-0.032355715
104	0xbc41a310	-0.011818662
105	0x3db23437	0.087013654
106	0x3d83e87a	0.06440826
107	0x3d305090	0.04304558
108	0xbdcb8826	-0.09938078
109	0x3dbc6ed2	0.09200825
110	0xbda75f7f	-0.08172511
111	0xbd2ed095	-0.042679388
112	0x3db5d067	0.0887764
113	0x3c38a2fa	0.011269325
114	0x3d278dc2	0.040906675
115	0x3d0bee4f	0.034162816
116	0x3a8502f0	0.001014797
117	0xbc495e48	-0.012290545
118	0x3dbd8bc0	0.09255171
119	0x3d85ef03	0.065397285
120	0xbd21c4fa	-0.039494492
121	0xbd3553fb	-0.044269543
122	0xbd08f508	-0.033436805
123	0x3d10027a	0.03515861
124	0x3d8f233e	0.06989144
125	0xbce39150	-0.027779251
126	0x3ceb43d8	0.028718874
127	0xbca91853	-0.020641482
128	0xbda05d63	-0.07830312
129	0xbd8b6035	-0.068054594
130	0x3d595e48	0.05306843
131	0x3d780795	0.060554106
132	0x3d122a72	0.03568501
133	0x3daed2b9	0.08536286
134	0xbd9bb9a1	-0.07603765
135	0x3d8dd15f	0.069247
136	0xbb9216af	-0.0044582705
137	0xbdcc6641	-0.09980441
138	0xbd5abf97	-0.05340537
139	0x3d894218	0.067020595
140	0xbdaf2d57	-0.0855357
141	0x3dc6b632	0.0970272
142	0xbd1f27f4	-0.03885646
143	0xbd460932	-0.048348613
144	0x3cbb53c5	0.022867093
145	0x3d75cd11	0.06001002
146	0x3d2b0c05	0.04175951
147	0x3d8652dd	0.06558774
148	0x3d66753a	0.05626414
149	0xbda00069	-0.07812578
150	0x3db643f2	0.08899678
151	0xbcaf43f6	-0.021394711
152	0x3db76fad	0.08956847
153	0xbd8a9ea5	-0.0676854
154	0xbd4d4998	-0.050119013
155	0x3c04a562	0.008096071
156	0x3d02defb	0.031950932
157	0x3d3e806c	0.04650919
158	0x3d7426ac	0.059607193
159	0x3d7aaddb	0.061200958
160	0xbd607cbb	-0.054806452
161	0xbd85efe0	-0.06539893
162	0x3c9eec6e	0.019399848
163	0x3dc21805	0.094772376
164	0xbdace448	-0.08441979
165	0xbd60fa9e	-0.054926507
166	0x3dc207a7	0.09474116
167	0xbd93ac91	-0.07210649
168	0x3b35952b	0.002770732
169	0xbd9e4e8b	-0.07729825
170	0xbd919841	-0.07109118
171	0x3cfb5e19	0.030684518
172	0x3d13fef2	0.036131807
173	0x3dacb2dc	0.08432552
174	0x3d100cbe	0.035168402
175	0xbc3a39f2	-0.011366354
176	0xbd8cb6ac	-0.068707794
177	0x3d492b33	0.049113464
178	0xbdbff810	-0.09373486
179	0xbd5c7fab	-0.05383269
180	0xbdc814f7	-0.09769624
181	0x3d3cfa3f	0.04613709
182	0xbd9162b0	-0.07098901
183	0xbd1f1107	-0.038834598
184	0x3cb5b9de	0.022183355
185	0xbc3e320b	-0.011608611
186	0xbd1ccf5f	-0.038283702
187	0xbd3d9502	-0.046284683
188	0x3d5b72cb	0.053576272
189	0x3b7df982	0.0038753455
190	0x3b283520	0.002566643
191	0x3d41bab6	0.047297202
192	0xbd8f18ed	-0.06987176
193	0xbd91a3fe	-0.07111357
194	0x3d9405a3	0.072276376
195	0x3d15da2c	0.036585018
196	0x3d8b3f15	0.06799141
197	0x3ca291a2	0.019844834
198	0x3d86aeb1	0.065762885
199	0xbd921a7a	-0.07133956
200	0x3d95ec9f	0.073205225
201	0xbdb304f5	-0.0874118
202	0x3d9af6bf	0.07566594
203	0x3d61d405	0.05513384
204	0x3d0db071	0.034592096
205	0x3da9775f	0.08274721
206	0xbda03b67	-0.0782383
207	0x3cb27016	0.021781962
208	0xbd921030	-0.07131994
209	0x3d8bf3c8	0.06833607
210	0x3cb91814	0.02259449
211	0xbdbd2818	-0.09236163
212	0xbd84dfdb	-0.064880095
213	0xbb06d5fc	-0.0020574322
214	0xbbd1ec6b	-0.006406357
215	0xbda5edfc	-0.081020325
216	0x3d91e13a	0.07123037
217	0x3d942b49	0.072348185
218	0x3c666b79	0.014063709
219	0x3dc72565	0.09723929
220	0x3d2f4aee	0.042796068
221	0xbda76bba	-0.08174844
222	0xbd03c210	-0.032167494
223	0xbdc7f31e	-0.09763168
224	0xbc4ab780	-0.012372851
225	0xbc875335	-0.016519168
226	0x3d96451f	0.073374026
227	0x3d2241c4	0.0396135
228	0xbdb3589a	-0.08757134
229	0x3d3edc68	0.046596915
230	0xbcbdada9	-0.023154097
231	0x3da05e38	0.07830471
232	0x3d3dff46	0.046386026
233	0xbda98bad	-0.08278594
234	0x3db718d9	0.08940286
235	0x3cae7f83	0.021301037
236	0x3d914163	0.0709255
237	0xbd8d9e4c	-0.06914958
238	0xbcff79af	-0.031185953
239	0x3d586618	0.05283174
240	0x3d43439c	0.0476719
241	0xbd183dd1	-0.037168328
242	0x3dacc99c	0.084368914

crf.transitions f4 [243, 243]
0	0x3d406354	0.046969727
1	0xbd1a12d7	-0.037615623
2	0xbd61561e	-0.05501377
3	0xbbfaf454	-0.0076585207
4	0xbd75aed0	-0.059981167
5	0xbc919670	-0.01777193
6	0x3d72242b	0.059116524
7	0xbc9d220b	-0.019181272
8	0xbdcbfb04	-0.09959987
9	0x3d980830	0.07423437
10	0x3d97dcd3	0.07415166
11	0x3d33cb80	0.043895245
12	0xbd977ed8	-0.073972404
13	0xbdc4dbaf	-0.09612214
14	0x3d678e12	0.056531973
15	0x3d951247	0.07278877
16	0x3d435e33	0.047697257
17	0xbd599289	-0.053118262
18	0xbcfa0c54	-0.030523457
19	0x3d5d609c	0.054047212
20	0xbd848389	-0.06470401
21	0xbdb90c36	-0.09035532
22	0xbdc37bd7	-0.09545105
23	0xbd979d35	-0.07403032
24	0x3dabe91b	0.08394071
25	0x3d0a53a1	0.03377116
26	0xbdb3ef00	-0.0878582
27	0x3dc98335	0.09839479
28	0x3d5aa578	0.05338046
29	0x3d0565a7	0.032567646
30	0xbc49201a	-0.01227572
31	0xbc0991f6	-0.008396616
32	0x3d7867e2	0.060645945
33	0x3c855da5	0.016280005
34	0x3d5904d3	0.052983116
35	0x3d1ce0b9	0.03830025
36	0xbd81f159	-0.063448615
37	0x3daf02d6	0.08545463
38	0x3bb4ad9a	0.005513859
39	0xbd4b5569	-0.049642
40	0xbd681b52	-0.05666668
41	0xbdbf3205	-0.09335712
42	0xbd1757f2	-0.036949106
43	0xbdb0e715	-0.086378254
44	0xbc2e85de	-0.010652034
45	0x3c52cf06	0.012866741
46	0x3ce64d04	0.028112896
47	0x3d019fa6	0.031646393
48	0x3d56a5fb	0.052404385
49	0x3db8f5d6	0.090312645
50	0x3d8b5889	0.06803996
51	0xbd8e10f9	-0.06936831
52	0xbd821dc6	-0.06353335
53	0xbca6dac9	-0.020367997
54	0x3c77e0fa	0.015129322
55	0x3d017d18	0.03161344
56	0xbd80b315	-0.06284157
57	0x3d95ef59	0.073210426
58	0xbd4522c9	-0.048128877
59	0x3daa07f1	0.08302296
60	0xbd81b3c1	-0.063331135
61	0xbc820572	-0.015871737
62	0xbd73a7a6	-0.059486054
63	0x3dbdd543	0.09269192
64	0xbc5ef126	-0.013607299
65	0x3db9db8d	0.09075079
66	0xbd19b04e	-0.037521653
67	0xbd94a299	-0.072575755
68	0xbdbb4aa8	-0.09145099
69	0xbd8f5bd8	-0.0699994
70	0x3da34265	0.07971648
71	0x3c965506	0.01835109
72	0xbdb7d214	-0.08975616
73	0x3c397f5d	0.01132187
74	0x3d80b44a	0.062843874
75	0x3d5c46ce	0.053778462
76	0xbd8e5ffd	-0.06951902
77	0xbc80f504	-0.015741833
78	0x3d675866	0.056480788
79	0xbdbe73fc	-0.09299466
80	0xbd7fc98d	-0.062448073
81	0x3c62f6e1	0.013852806
82	0xbdba76f3	-0.09104719
83	0xbdcb0046	-0.099121615
84	0xbce5633e	-0.028001424
85	0x3d72f9c9	0.059320245
86	0xbdab88c9	-0.08375699
87	0xbd2a3ac4	-0.04155995
88	0x3d4bdaab	0.049769085
89	0xbcf4b60d	-0.029871965
90	0x3dba49d7	0.09096115
91	0xbdcc7047	-0.09982353
92	0xbd957df0	-0.07299411
93	0xbdb4bec5	-0.08825449
94	0xbdb46ccc	-0.08809814
95	0xbcc3bf9b	-0.023895076
96	0xbc2f108a	-0.010685096
97	0xbd511405	-0.051044483
98	0xbd7ffa15	-0.062494356
99	0xbc421de4	-0.011847947
100	0xbd34d2ee	-0.04414647
101	0xbd1d9aa0	-0.03847754
102	0x3bda68a1	0.006665305
103	0x3d4f1230	0.050554454
104	0x3dcb4949	0.099260874
105	0xbdc0af62	-0.094084516
106	0x3d25ff08	0.04052642
107	0xbd94721d	-0.07248328
108	0xbd19de51	-0.037565533
109	0x3d9191f1	0.07107914
110	0x3d367aac	0.044550583
111	0xbd0929aa	-0.033487
112	0x3daf2e08	0.08553702
113	0x3bcf665b	0.0063293404
114	0xbd948c33	-0.072533034
115	0x3dc1be85	0.09460167
116	0x3d48798e	0.04894405
117	0x3cd81975	0.026379326
118	0xbda550dd	-0.08072064
119	0x3c732723	0.014840874
120	0xbb2bee1b	-0.0026234451
121	0x3bfd47bb	0.007729498
122	0xbd5ab314	-0.05339344
123	0xbdc06153	-0.09393563
124	0x3d022bca	0.03178004
125	0xbcb3ea7f	-0.021962402
126	0xbd21c56c	-0.039494917
127	0x3cd9691e	0.026539382
128	0xbcabc1b6	-0.020966392
129	0xbd9f369e	-0.07774089
130	0xbd8f1d37	-0.06987994
131	0x3d92d3a8	0.071692765
132	0x3db5cc1f	0.08876824
133	0xbd6281cf	-0.055299576
134	0xbdcc69df	-0.09981131
135	0xbda94cb2	-0.082665816
136	0x3d50cde7	0.050977614
137	0x3dcc6dc8	0.099818766
138	0x3d2746d0	0.040839016
139	0x3d32f9cb	0.043695252
140	0x3ce3504e	0.027748253
141	0x3d9e998d	0.07744131
142	0x3dc601a2	0.0966828
143	0x3d8f2915	0.06990258
144	0xbd14a979	-0.036294434
145	0x3cff6563	0.031176275
146	0xbc086e76	-0.008327117
147	0x3ca392ea	0.019967515
148	0xbd97f369	-0.07419474
149	0x3c8117a2	0.01575834
150	0x399863ef	0.00029066156
151	0xbdc2c319	-0.09509868
152	0x3d813a3d	0.06309936
153	0xbd308b5e	-0.04310166
154	0x3dab476c	0.08363232
155	0x3cfa3ed5	0.030547539
156	0xbd186479	-0.037205193
157	0x3d19abf4	0.037517503
158	0xbcc5685b	-0.024097612
159	0xbcb26c7c	-0.021780245
160	0x3d6ceb36	0.057841502
161	0x3d697251	0.056993786
162	0xbcbd40ce	-0.02310219
163	0x3bb60c9e	0.0055557033
164	0xbd364cc8	-0.044506818
165	0xbdc03194	-0.09384456
166	0xbd899841	-0.06718493
167	0xbd5e2341	-0.05423284
168	0x3d861d40	0.06548548
169	0xbd40c0f4	-0.047059014
170	0xbc242634	-0.010018874
171	0xbdbcfdc4	-0.092280895
172	0xbdbc90ca	-0.09207304
173	0x3a261bc1	0.0006336533
174	0x3dc87ab1	0.097890265
175	0xbb3df834	-0.0028987052
176	0x3cb1137e	0.02161574
177	0x3d947470	0.07248771
178	0xbd6b4a2e	-0.05744379
179	0x3d69fcdd	0.057125915
180	0xbd7e86d3	-0.062140297
181	0xbc40f6b4	-0.011777569
182	0x3c738a54	0.014864523
183	0xbd67355f	-0.056447383
184	0x3b12a44e	0.0022375765
185	0xbd6ee8a1	-0.05832732
186	0xbd842f25	-0.064543046
187	0xb80e2fff	-3.3900138e-05
188	0x3d288c66	0.04114952
189	0x3c812915	0.01576666
190	0xbd9db4a6	-0.077004716
191	0x3b9fffe8	0.0048828013
192	0xbd4cd414	-0.05000694
193	0xbca2c582	-0.01986957
194	0x3cb94c1d	0.022619301
195	0x3d0b7d62	0.03405512
196	0xbd9d7714	-0.07688728
197	0xbdb18e2a	-0.08669694
198	0xbda47648	-0.08030373
199	0x3da0d496	0.078530475
200	0xbda5788d	-0.08079634
201	0x3cb94a60	0.022618473
202	0x3ce710c1	0.028206231
203	0xbb05b785	-0.0020403576
204	0x3c0f7278	0.008755319
205	0x3d87131b	0.06595441
206	0xbd9d86e6	-0.076917455
207	0xbc7ea757	-0.015542827
208	0x3dc60b0c	0.09670076
209	0xbdaf7b8b	-0.08568486
210	0x3dcb7a66	0.09935455
211	0x3dab3785	0.08360199
212	0xbb8a7214	-0.004225025
213	0x3d04bbf0	0.032405794
214	0xbc8f360a	-0.017481823
215	0xbd9f4396	-0.07776563
216	0xbd9d2f5d	-0.076750495
217	0xbd9223e4	-0.07135752
218	0xbd69fd24	-0.05712618
219	0x3a86ab82	0.0010274502
220	0x3c106b5a	0.008814657
221	0xbc61847e	-0.013764499
222	0xbda7165b	-0.08158561
223	0xbda578b0	-0.0807966
224	0xbdadbc4a	-0.08483179
225	0xbcf52c07	-0.02992822
226	0x3d75b0fd	0.059983242
227	0x3d9a7a80	0.07542896
228	0xbd4ab5b8	-0.049489707
229	0x3d80d0fb	0.0628986
230	0xbc9ac571	-0.018892976
231	0xbc9a50ae	-0.0188373
232	0x3bc7bc7d	0.0060954676
233	0x3c37b6cb	0.011213015
234	0xbd20f4e8	-0.03929606
235	0xbd77cb42	-0.060496576
236	0xbd68a2ec	-0.056796
237	0x3d440c15	0.047863085
238	0xbd146d34	-0.036236957
239	0x3dacafcd	0.08431969
240	0x3c95e4c1	0.018297555
241	0xbd8ba7c3	-0.068191074
242	0xbdb56447	-0.08857017
243	0x3d3b8ba6	0.045787476
244	0x3d4591b2	0.04823465
245	0x3d53d17a	0.051713444
246	0x3d8afa0c	0.06785974
247	0x3d9d9369	0.07694132
248	0xbd6f7421	-0.05846036
249	0x3d5b0043	0.053467046
250	0x3cf6d4fc	0.030130856
251	0x3d0deafc	0.034647927
252	0x3dc4d943	0.09611752
253	0x3c7b48e1	0.0153372
254	0x3daa7735	0.08323518
255	0xbaef5380	-0.0018259138

hidden2tag.weight f4 [243, 4]
0	0xbcc080d0	-0.023498923
1	0x3e6d5ea6	0.23180637
2	0xbec9e7de	-0.39434713
3	0xbe996d35	-0.2996613
4	0xbe2733ed	-0.16328402
5	0xbeff7d5d	-0.49900332
6	0xbef01401	-0.46890262
7	0xbe60afca	-0.21942058
8	0xbc8305ce	-0.015993979
9	0xbef09868	-0.46991277
10	0x3eb4372c	0.35198343
11	0xbeb84691	-0.35991338
12	0xbe126f66	-0.14300308
13	0xbe9d7616	-0.30754155
14	0x3e2b4523	0.16725592
15	0x3ee9922e	0.4561934
16	0x3ef580b9	0.4794977
17	0x3df83a00	0.121204376
18	0xbdafa387	-0.08576112
19	0xbee90b72	-0.45516545
20	0x3bf1753f	0.007368713
21	0x3e29572a	0.16537157
22	0xbd498662	-0.049200423
23	0xbeb0b78c	-0.34515035
24	0x3e335aba	0.17515078
25	0xbe8e8c01	-0.2784119
26	0x3ef46ed7	0.47740814
27	0x3e3109bf	0.17288874
28	0x3ee42392	0.44558388
29	0x3e808450	0.25100946
30	0xbe4bf137	-0.19916235
31	0x3e6d55ad	0.23177214
32	0x3c4664da	0.012109006
33	0x3e975a22	0.29560953
34	0xbeb01268	-0.34389043
35	0xbdb4a22e	-0.08819996
36	0xbdad0c50	-0.08449614
37	0xbd340f53	-0.043959927
38	0x3e91d51b	0.284829
39	0xbec89423	-0.3917552
40	0x3e9fd2da	0.31215554
41	0xbda8273f	-0.082106106
42	0xbefa06c9	-0.48833302
43	0xbe7050d4	-0.23468333
44	0xbedef656	-0.43547314
45	0xbe22afcc	-0.15887374
46	0xbea9eaf0	-0.33187056
47	0x3e129184	0.14313322
48	0x3d14b6b2	0.036307044
49	0x3e23e5fa	0.16005698
50	0xbe623dd6	-0.22093901
51	0xbe092785	-0.13393982
52	0x3efbcbf4	0.4917904
53	0x3ec7b51e	0.3900537
54	0xbea0a5e1	-0.31376556
55	0x3e03e4c0	0.1288023
56	0xbeca9424	-0.39566147
57	0x3e8c2846	0.27374476
58	0x3dd27be1	0.10277534
59	0x3ef8a142	0.4856053
60	0x3e1c4b40	0.1526308
61	0xbeacd033	-0.33752593
62	0x3ecf73b2	0.40517956
63	0xbe8f68c6	-0.28009623
64	0xbd95ee51	-0.07320846
65	0xbdd70926	-0.10499792
66	0xbeab191b	-0.3341759
67	0x3ca52c56	0.020162743
68	0x3e121914	0.14267379
69	0xbeb81d35	-0.35959783
70	0x3eedde95	0.4645888
71	0x3e0330a0	0.12811518
72	0x3ebbb575	0.36661878
73	0x3ee50857	0.44732925
74	0x3dd6451c	0.104624
75	0xbe28e8b0	-0.16495013
76	0x3ee32c6c	0.4436983
77	0xbeaa69fa	-0.3328398
78	0x3dd68b74	0.10475817
79	0x3c6fcff5	0.014636983
80	0x3e8dd94c	0.27704847
81	0x3e1fbfeb	0.15600555
82	0xbe4002b0	-0.18751025
83	0x3e22437e	0.15846059
84	0x3e197d28	0.1498915
85	0xbe9e14d3	-0.30875263
86	0x3ef4bcfa	0.47800428
87	0xbe8d829d	-0.27638713
88	0x3c96cd59	0.018408464
89	0x3e9d159a	0.30680543
90	0xbd4fca03	-0.050729763
91	0xbe83fbc9	-0.25778034
92	0x3e7b0194	0.24512321
93	0xbe6a4d68	-0.2288109
94	0xbd2a3d91	-0.04156262
95	0xbec81a44	-0.3908254
96	0x3e2dcf07	0.16973506
97	0x3db09c50	0.08623564
98	0x3df7c5b5	0.120982565
99	0xbecf4c7f	-0.4048805
100	0xbe7437ca	-0.23849407
101	0xbe0180c1	-0.12646772
102	0x3ceceb69	0.028920846
103	0xbe6a0eed	-0.22857256
104	0x3e6467ba	0.22305194
105	0x3dba7cb6	0.09105818
106	0x3e927fa3	0.28613004
107	0xbe99aa67	-0.3001282
108	0xbeb936b7	-0.36174557
109	0xbeea6aef	-0.4578471
110	0x3df6c464	0.12049177
111	0xbe348574	-0.17629033
112	0xbe6f7bdb	-0.23387091
113	0x3eefcf2b	0.46837744
114	0x3e87053b	0.26371178
115	0x3eb56466	0.3542816
116	0xbe55c6ee	-0.20876667
117	0x3e4cdaf4	0.20005399
118	0xbcf1c03a	-0.029510606
119	0x3ed5d784	0.41765988
120	0x3ac21fad	0.0014810466
121	0xbde77bd1	-0.11302913
122	0xbd49520d	-0.049150515
123	0x3e4a8ee0	0.19781065
124	0x3e8c329f	0.2738237
125	0x3ecf7a5d	0.40523043
126	0xbe87594e	-0.26435322
127	0x3eef7084	0.4676553
128	0x3e743a78	0.23850429
129	0x3e48c1c7	0.1960517
130	0xbe534550	-0.2063191
131	0x3d74f1d0	0.059800923
132	0xbdec0756	-0.11524837
133	0xbc8f6561	-0.017504396
134	0x3ed61428	0.41812253
135	0xbeede53d	-0.46463957
136	0xbed18ba6	-0.40926856
137	0x3dcfb2bb	0.10141512
138	0xbd5616d8	-0.05226788
139	0x3ea4325b	0.32069668
140	0xbef69337	-0.4815919
141	0xbe751e07	-0.23937236
142	0x3ecb5a98	0.39717555
143	0xbedf20ac	-0.43579614
144	0x3cdee85f	0.027210413
145	0x3e8f54c6	0.27994365
146	0x3e632756	0.22182974
147	0x3eccab62	0.39974505
148	0x3ef50f20	0.47863102
149	0xbe8a0151	-0.2695413
150	0x3dac6301	0.08417321
151	0x3e294aaa	0.16532388
152	0xbc880681	-0.016604664
153	0xbe38d737	-0.18050848
154	0xbe52ac91	-0.20573641
155	0x3ea6e642	0.32597548
156	0xbeb22515	-0.34793916
157	0xbe679a4b	-0.22617452
158	0x3d097257	0.03355631
159	0xbde7f94d	-0.11326847
160	0x3ec0aa1c	0.37629783
161	0x3eba8088	0.36426187
162	0x3ef79277	0.4835393
163	0x3dbb8d9b	0.091578685
164	0xbccdab31	-0.025106044
165	0x3ee748c9	0.45172718
166	0x3d7f613c	0.06234859
167	0x3e36bdb0	0.17845798
168	0xbe892b36	-0.2679078
169	0xbebca039	-0.3684099
170	0xbeb8ecd8	-0.36118197
171	0x3ed67e16	0.4189307
172	0x3ce529a1	0.027973952
173	0xbd2c28e2	-0.042031176
174	0xbe1c1173	-0.15241031
175	0xbeb164e2	-0.3464728
176	0x3e3fa0c2	0.18713668
177	0x3eb16014	0.34643614
178	0x3ed931ed	0.42420903
179	0x3ea4e61f	0.32206818
180	0x3eb2bf1e	0.34911436
181	0xbe16e51f	-0.1473584
182	0x3e658f68	0.22417986
183	0x3e48cc9a	0.196093
184	0x3eff7505	0.49893966
185	0x3eb99eae	0.36253875
186	0x3e41aec2	0.18914321
187	0x3e8256fb	0.25456986
188	0xbe90ae62	-0.28258044
189	0xbe69668e	-0.22793028
190	0x3efcb6ca	0.49358207
191	0xbe0effcc	-0.13964766
192	0xbe0e0029	-0.13867249
193	0x3e5f9e55	0.21837743
194	0xbc55962e	-0.013036294
195	0x3e7c74db	0.24653952
196	0xbe85663b	-0.26054558
197	0xbbed1e98	-0.007236313
198	0x3eccda4c	0.40010297
199	0x3ef7b095	0.4837691
200	0xbef8a49a	-0.4856308
201	0xbd93b896	-0.07212941
202	0xbed2ef22	-0.4119807
203	0x3e3b9da0	0.18321848
204	0xbe7bd49f	-0.24592827
205	0xbea2e0be	-0.3181209
206	0xbedddaee	-0.43331093
207	0xbef62d0a	-0.48081237
208	0x3eed0996	0.46296376
209	0xbea8fd00	-0.33005524
210	0xbdd9f503	-0.106424354
211	0x3ed32d1c	0.41245353
212	0xbea1db56	-0.31612653
213	0xbd5c3bd7	-0.053768005
214	0xbeb6a1d1	-0.3567033
215	0x3efa0237	0.48829815
216	0xbd9143b2	-0.0709299
217	0x3e407311	0.18793894
218	0x3b560c6b	0.003266121
219	0x3dc1f719	0.09470958
220	0xbe2477d3	-0.16061334
221	0xbee0d483	-0.43912134
222	0xbefa80e3	-0.48926458
223	0xbcd63a43	-0.026150828
224	0xbef81693	-0.48454723
225	0x3e895be9	0.26827934
226	0x3e2d248b	0.16908471
227	0xbeb41512	-0.35172325
228	0x3e837558	0.25675464
229	0x3ee6f49b	0.45108494
230	0x3ed48a9b	0.41511998
231	0x3dcd35c3	0.1002002
232	0xbcdf4ae3	-0.027257388
233	0xbed37ed4	-0.413077
234	0x3e8cb6eb	0.27483305
235	0xbe6feedf	-0.23430966
236	0xbec9e3fa	-0.39431745
237	0xbef323fe	-0.47488397
238	0xbeae9eeb	-0.3410562
239	0x3ef48cbe	0.47763628
240	0xbedfda25	-0.4372112
241	0x3dd0610b	0.101747595
242	0xbe73a0e6	-0.23791847
243	0xbd9608e8	-0.073259175
244	0x3ece5ea7	0.4030659
245	0x3e48cd6a	0.19609609
246	0xbea37353	-0.31923923
247	0xbe6eb28f	-0.23310302
248	0xbdeb0b39	-0.1147675
249	0x3cc07488	0.023493066
250	0x3c12afab	0.008953015
251	0xbec5e425	-0.38650623
252	0x3c477623	0.012174162
253	0x3cc51db1	0.02406201
254	0x3effa138	0.49927688
255	0x3e2cc29d	0.16871114

hidden2tag.bias f4 [243]
0	0xbe360445	-0.17775066
1	0xbee6ca6b	-0.45076308
2	0xbe4d5d17	-0.20055042
3	0xbed5030d	-0.4160389
4	0xbd1f3abc	-0.038874373
5	0x3d4a7ad2	0.049433537
6	0xbe87d82f	-0.26532122
7	0xbe8c7e5f	-0.27440163
8	0x3dea193f	0.114305966
9	0xbd87341f	-0.06601738
10	0xbe9438ee	-0.28949684
11	0xbce8e98c	-0.028431676
12	0xbdc83051	-0.097748406
13	0x3e55ea81	0.20890237
14	0x3e9f0d90	0.31065035
15	0x3dceb991	0.10093988
16	0x3e8c73ab	0.27431998
17	0xbe2b1aad	-0.16709395
18	0xbef2b920	-0.47406864
19	0xbed00aaa	-0.40633136
20	0xbe97999b	-0.2960938
21	0xbec2e8d7	-0.38068268
22	0xbd2254f4	-0.0396318
23	0x3ef7f036	0.48425454
24	0x3ee2a255	0.44264475
25	0xbe93a665	-0.28837886
26	0xbede2ef2	-0.4339519
27	0x3edfc984	0.43708432
28	0x3d73d52c	0.05952947
29	0x3e873829	0.26410034
30	0x3dac266f	0.08405768
31	0x3ec117f5	0.3771359
32	0xbc8433f5	-0.016138056
33	0x3ec2bfe6	0.38037032
34	0x3ecea1db	0.4035786
35	0x3e2af1bc	0.16693777
36	0x3e01da69	0.12680973
37	0x3e7ea622	0.24868062
38	0x3d827579	0.063700624
39	0xbeac699e	-0.3367433
40	0xbc9ca8da	-0.019123483
41	0xbeb360c7	-0.35034773
42	0x3ef325b4	0.47489703
43	0xbea308e7	-0.3184273
44	0xbeca8db2	-0.3956123
45	0xbe753f5e	-0.23949954
46	0xbed035ff	-0.40666196
47	0xbe016007	-0.12634288
48	0xbee921fa	-0.45533735
49	0x3e8fce94	0.28087294
50	0xbd803319	-0.06259746
51	0xbda013e4	-0.07816294
52	0xbe6f6660	-0.23378897
53	0x3ea1da17	0.31611702
54	0x3dc535f7	0.096294336
55	0xbea8602d	-0.32885876
56	0x3ed712e1	0.4200659
57	0xbd06cb4f	-0.032908734
58	0x3ee79bd7	0.45236084
59	0xbe41ebe2	-0.18937638
60	0x3ea78773	0.32720527
61	0xbe4156a1	-0.18880703
62	0xbee48a7d	-0.44636908
63	0xbee46c3f	-0.44613835
64	0x3e93e1c8	0.28883195
65	0x3eebf381	0.46084216
66	0xbe47eaf3	-0.1952322
67	0x3e82b1c2	0.25526243
68	0x3d0688aa	0.032845177
69	0xbef12e38	-0.47105575
70	0x3cc8bc8f	0.024503974
71	0xbd9f5ffd	-0.0778198
72	0xbea458e8	-0.3209908
73	0xbecfad27	-0.40561792
74	0xbe8e728c	-0.27821767
75	0x3eacf0e9	0.3377755
76	0x3e7094b4	0.23494226
77	0xbd25030b	-0.040286105
78	0x3cb5fd42	0.02221549
79	0xbe527738	-0.20553291
80	0xbc7f2ea1	-0.015575082
81	0x3db56993	0.08858027
82	0x3ea1d036	0.31604165
83	0xbebdcdf2	-0.37071186
84	0xbec2bf2b	-0.38036475
85	0x3e505e34	0.20348436
86	0xbe8a48b9	-0.27008608
87	0x3ed36cea	0.41294032
88	0xbe508cab	-0.2036616
89	0xbdbe8384	-0.09302428
90	0x3c79bd80	0.015242934
91	0x3eef2313	0.46706447
92	0x3d8d7d71	0.06908692
93	0x3e1b119e	0.15143439
94	0xbe73d86e	-0.2381303
95	0xbcdeaf66	-0.027183246
96	0x3e653689	0.22384085
97	0x3d8efce8	0.06981832
98	0xbe94f61d	-0.2909402
99	0x3d8c93a4	0.06864098
100	0x3aa78970	0.0012782048
101	0x3d2e2dc5	0.042524118
102	0x3e2a978f	0.16659378
103	0x3e610fae	0.21978638
104	0xbe8520be	-0.26001543
105	0x3dac75c1	0.08420897
106	0x3e8030bb	0.25037178
107	0x3e9183be	0.28420824
108	0x3e80e7a9	0.25176743
109	0xbe01eb04	-0.12687308
110	0x3e961f1d	0.29320613
111	0xbef3dcc0	-0.47629356
112	0x3dee3366	0.11630897
113	0xbd88e5ce	-0.06684457
114	0xbdac6833	-0.08418312
115	0xbe07552f	-0.13216089
116	0xbe3872ca	-0.18012539
117	0x3ec1b714	0.3783499
118	0x3eb359b9	0.3502939
119	0x3e9ca9fd	0.3059844
120	0x3eb4b47f	0.35293958
121	0xbea4d5ec	-0.3219446
122	0xbe03a6a4	-0.12856537
123	0x3ed6ade1	0.41929534
124	0xbe7833a1	-0.24238445
125	0xbec41959	-0.3830059
126	0xbead1c87	-0.33810827
127	0xbecac0d5	-0.39600244
128	0xbd965b40	-0.07341623
129	0x3d2aa1dd	0.04165827
130	0xbe18cb14	-0.14921218
131	0x3ddbf078	0.10739225
132	0xbe17b1e5	-0.14813955
133	0x3e3a1965	0.1817375
134	0xbea43760	-0.32073498
135	0xbe377736	-0.17916569
136	0xbeb8f337	-0.36123058
137	0xbe663124	-0.22479683
138	0x3e5b5d09	0.21422209
139	0x3e57f5c4	0.21089846
140	0xbec614a0	-0.3868761
141	0xbe2592e8	-0.16169322
142	0x3eba3b6c	0.3637346
143	0x3d02d0a2	0.03193725
144	0xbe781a63	-0.24228816
145	0xbefc9a30	-0.49336386
146	0xbde02bc4	-0.10945848
147	0xbe919377	-0.2843282
148	0xbe96a1c5	-0.29420295
149	0x3e525229	0.20539154
150	0xbdd41bc5	-0.10356859
151	0x3e26ccad	0.16289015
152	0xbd2e1ade	-0.04250609
153	0x3e8c81bb	0.27442726
154	0xbe19e744	-0.15029627
155	0x3ec72f34	0.389032
156	0xbe49a077	-0.19690119
157	0x3dc035fd	0.093852974
158	0x3ed56121	0.41675666
159	0x3dd8159a	0.10550995
160	0xbec1132a	-0.37709934
161	0xbd509952	-0.050927468
162	0x3ea76b12	0.32698876
163	0xbed57c8f	-0.41696593
164	0xbe65afe7	-0.22430383
165	0x3edb42ac	0.42824304
166	0x3c52b129	0.012859621
167	0x3bcafb54	0.0061945114
168	0x3d84190f	0.06450092
169	0xbe926c12	-0.28598076
170	0x3eaec5c1	0.3413525
171	0x3e062920	0.13101625
172	0xbeb1e935	-0.34748235
173	0x3e6d48fd	0.23172374
174	0xbd7facd4	-0.06242068
175	0xbeea2b23	-0.45736036
176	0xbdeae30b	-0.11469086
177	0x3d91b6b3	0.07114925
178	0x3e3425f8	0.17592609
179	0x3d8ac1a0	0.06775212
180	0xbd526f5d	-0.051375736
181	0xbe3faddf	-0.1871867
182	0x3eab7da4	0.33494294
183	0xbe4b8ce3	-0.19877963
184	0xbe577e7f	-0.21044348
185	0x3eeb2197	0.45924065
186	0x3e446f47	0.19183074
187	0x3ec01250	0.3751397
188	0x3e15087d	0.1455402
189	0x3e409b9c	0.1880936
190	0x3eadf873	0.33978614
191	0xbebffac8	-0.37496018
192	0xbea6463b	-0.32475457
193	0x3ef4e2bb	0.47829232
194	0x3ec92add	0.39290515
195	0x3ebbc86b	0.36676344
196	0xbde743dd	-0.11292241
197	0x3e2a9f0b	0.16662233
198	0xbd84df87	-0.06487947
199	0x3e1cad19	0.15300407
200	0xbe6212b8	-0.22077453
201	0xbec8c0ee	-0.39209694
202	0x3efef7b0	0.49798346
203	0xbc1b5b11	-0.009482161
204	0xbdf2a3c2	-0.118476406
205	0x3d856b68	0.06514627
206	0xbde291ba	-0.110629514
207	0xbea5f9a7	-0.32417032
208	0x3eb3ec75	0.3514134
209	0x3e3e9b05	0.18613823
210	0xbe5f360b	-0.2179796
211	0xbe62a9b1	-0.22135045
212	0x3ee25210	0.44203234
213	0xbec39f8a	-0.38207656
214	0xbec801dc	-0.3906392
215	0xbdec7208	-0.11545187
216	0xbe7f44a3	-0.24928527
217	0xbdcdb96d	-0.10045133
218	0xbee514b4	-0.44742358
219	0x3e949b2b	0.29024634
220	0x3e8d5848	0.27606416
221	0xbeae4a08	-0.34040856
222	0x3dfafe64	0.122555524
223	0x3ef56c67	0.47934267
224	0x3e1b5878	0.15170467
225	0xbebfb028	-0.37439084
226	0x3eaf26de	0.3420934
227	0x3e9030ad	0.28162137
228	0xbeb95cc6	-0.36203593
229	0xbedacff0	-0.4273677
230	0x3de85b55	0.11345545
231	0xbd03b17d	-0.032151688
232	0xbe544797	-0.20730434
233	0x3ece2554	0.40262854
234	0xbe88fa1e	-0.26753324
235	0x3ea6dc06	0.3258974
236	0x3ede8f88	0.4346888
237	0xbed8eacd	-0.4236664
238	0x3ec8285b	0.3909329
239	0x3ed552e2	0.41664797
240	0xbe898e38	-0.26866317
241	0xbc99e536	-0.018786054
242	0x3f859adc	1.0437884
