temp/best_modellr=0.20_1.model (torch, 155693 bytes, 14 tensors)

word_embeds.weight f4 [3918, 5]
0.3990883 0.57275546 -1.816143 -1.239911 -1.3541197 -0.818292 -2.88251 -3.3963215
2.1551545 -0.5443819 -1.4319031 -0.87335426 -2.6724977 0.09567779 -2.7221866 -0.5843676
-0.82953686 -1.9566354 -0.650796 -4.885562 1.3704892 -1.8893769 -2.0505877 -0.7895688
-0.5590149 -0.40122107 1.9988846 -1.7267144 -3.2855854 0.5749379 -0.1910041 -0.81371975
0.4658254 -1.8487476 -0.038364626 -0.68721706 -2.2512054 -1.1551062 -0.64447063 -0.43175626
1.2691722 0.33022943 -2.10377 1.9126766 0.22241649 0.6223618 -2.9295971 -2.5187209
-1.1788999 0.53947 -2.0178115 -0.5377877 -1.9154301 -0.8022682 -2.2471347 -0.40395242
-0.7665993 -1.9321969 0.05308315 -1.3411806 0.89941245 -0.6626365 -1.0085434 -0.49460894
-0.6208433 -0.30584145 -1.9179358 -0.098483235 1.0351208 3.4986053 1.9355373 -0.77621967
-2.8897052 -1.0540352 -0.09760305 1.7302594 -1.3105111 -1.640716 0.82608736 -3.426461
1.7692088 -0.028852552 -0.52447057 -2.3223145 1.2904416 0.42642736 -0.5718265 -2.537245
1.13598 -3.1536355 -2.55939 -2.3110504 -0.94607174 -1.0694602 -2.4031336 -0.83627105
-0.6937284 -0.5512569 1.6122892 -0.13152136 -3.4564352 3.76852 -1.6962805 0.30697194
4.239418 -2.1541471 -0.8195894 -1.1874729 -1.8343527 -1.1681483 -0.31837052 -3.2311716
-0.7839298 0.69048584 -2.883252 -1.7855783 0.03065893 -1.4636967 1.7469139 1.2613307
-1.7051536 3.327646 -3.5639303 0.44569573 4.0023713 0.25622106 0.7383323 0.9712692
-0.10016778 0.23572871 -1.1961546 -0.49399045 -2.0535734 -0.33352384 -3.24973 -0.10579415
-0.49905518 -2.1629286 -0.014047625 -1.4966975 -0.85844505 -2.0115938 0.92816865 -2.1180065
0.78811044 -2.0125272 -1.3529952 -0.7955448 -1.4803212 -1.3780178 -2.2876675 -2.3481107
-1.1272955 -0.37907785 -2.103122 -0.2151662 -0.6792176 -1.8888636 -0.93280727 -1.8293109
-0.5001654 -2.8765626 -0.9606713 -0.37030244 -1.3785312 0.34409285 -0.30258718 2.1240208
-1.3081433 -0.7499277 0.28500187 -1.8626269 -0.8944346 -1.0823138 -0.3127393 -0.67354286
-6.0787153 1.8889973 -2.6755857 -0.2076289 -1.206619 -1.8648341 -0.51171345 -0.2514994
-2.682225 1.3420686 -0.34670767 -2.1400084 -1.409612 -0.47515243 -0.6890098 -1.3254404
-1.5247904 -1.1262013 -1.0795543 0.15661828 0.8344525 -0.50261885 -3.8095555 0.39562282
-0.097879216 -0.38411403 0.8931511 -0.8116262 1.581775 0.42290205 -0.94368804 -0.9128306
-0.9168671 -1.5895758 -0.43872178 3.9923146 1.0188028 -0.62636137 3.173152 -1.5600939
-0.8826993 -0.08561209 0.40534383 -0.19579278 0.31380585 -0.5996537 4.594573 -0.14865278
0.3599618 -1.603963 -1.6760604 -1.7584953 0.48376098 -0.92574346 -0.8910342 1.1420213
-1.7913909 -3.3359442 3.6896155 -0.34458366 -1.7655213 2.7678797 -2.6257327 -0.98218876
0.672475 -2.1280746 -2.1979313 -0.97667485 -2.3196173 -3.4268951 -0.5450024 -2.0178697
-2.3479233 -1.5623573 0.15896998 -0.50477743 -0.11567016 0.3979978 -0.28634194 -0.51746964
00000000: 4d55 cc3e 1aa0 123f 6077 e8bf 67b5 9ebf
00000010: cb53 adbf 967b 51bf 0b7b 38c0 555d 59c0
00000020: 0dee 0940 9d5c 0bbf 9a48 b7bf 2594 5fbf
00000030: 340a 2bc0 b8f2 c33d 4e38 2ec0 1d99 15bf
00000040: 875c 54bf 0773 fabf 919a 26bf 8656 9cc0
00000050: 316c af3f 1ad7 f1bf d43c 03c0 2e21 4abf
00000060: 9a1b 0fbf d96c cdbe 73db ff3f fa04 ddbf
00000070: 0847 52c0 212f 133f 9496 43be f04f 50bf
00000080: ab80 ee3e c3a3 ecbf 3a24 1dbd 75ed 2fbf
00000090: c013 10c0 85da 93bf 07fc 24bf 280f ddbe
000000a0: 3c74 a23f d513 a93e 2ba4 06c0 96d2 f43f
000000b0: 26c1 633e 1a53 1f3f 857e 3bc0 b932 21c0
000000c0: 31e6 96bf b51a 0a3f d323 01c0 74ac 09bf
000000d0: d02c f5bf 7361 4dbf 0ed1 0fc0 dad2 cebe
000000e0: da3f 44bf 3a52 f7bf b86d 593d ceab abbf
000000f0: e53f 663f 8ca2 29bf f317 81bf 623d fdbe
00000100: 96ef 1ebf 4097 9cbe ec7e f5bf 94b1 c9bd
00000110: d77e 843f 26e9 5f40 b0bf f73f 55b6 46bf
00000120: eef0 38c0 a0ea 86bf 1ce4 c7bd 2479 dd3f
00000130: d4be a7bf fb02 d2bf 767a 533f 234b 5bc0
00000140: 6f75 e23f 305c ecbc b443 06bf cda0 14c0
00000150: 312d a53f b054 da3e 3963 12bf 3962 22c0
00000160: cb67 913f 2ad5 49c0 0ccd 23c0 40e8 13c0
00000170: c231 72bf 12e4 88bf f1cc 19c0 dc15 56bf
00000180: 2f98 31bf 2c1f 0dbf 7e5f ce3f 89ad 06be
00000190: 3c36 5dc0 6f2f 7140 b81f d9bf 6d2b 9d3e
000001a0: 50a9 8740 8cdd 09c0 9cd0 51bf 1dff 97bf
000001b0: 12cc eabf e285 95bf 7601 a3be 84cb 4ec0
000001c0: a0af 48bf aec3 303f 3387 38c0 d48d e4bf
000001d0: 7028 fb3c 6a5a bbbf e09a df3f 4973 a13f
000001e0: 7942 dabf 27f8 5440 6f17 64c0 3b32 e43e
000001f0: 6d13 8040 682f 833e 5803 3d3f 19a5 783f
00000200: c424 cdbd de62 713e 981b 99bf 51ec fcbe
00000210: bf6d 03c0 a3c3 aabe 94fb 4fc0 9aaa d8bd
00000220: 2984 ffbe 6c6d 0ac0 0228 66bc c993 bfbf
00000230: 0ec3 5bbf f4bd 00c0 769c 6d3f 6b8d 07c0
00000240: 9bc1 493f 3fcd 00c0 f22e adbf d3a8 4bbf
00000250: 2a7b bdbf e362 b0bf 2569 12c0 7247 16c0
00000260: 384b 90bf 7e16 c2be 8d99 06c0 8754 5cbe
00000270: 34e1 2dbf 48c6 f1bf 75cc 6ebf dc26 eabf
00000280: d70a 00bf 9a19 38c0 8eee 75bf 4898 bdbe
00000290: b673 b0bf f02c b03e b5ec 9abe f5ef 0740
000002a0: 3d71 a7bf 43fb 3fbf c4eb 913e 8f6a eebf
000002b0: aaf9 64bf 4289 8abf 5e1f a0be 4e6d 2cbf
000002c0: d684 c2c0 aaca f13f cc3c 2bc0 ac9c 54be
000002d0: 7e72 9abf e2b2 eebf a7ff 02bf 88c4 80be
000002e0: 93a9 2bc0 e7c8 ab3f ab83 b1be e6f5 08c0
000002f0: 2b6e b4bf 2e47 f3be f262 30bf 08a8 a9bf
00000300: 552c c3bf 5d27 90bf d62e 8abf 8b60 203e
00000310: ae9e 553f a1ab 00bf c2cf 73c0 138f ca3e
00000320: e674 c8bd 98aa c4be 8da5 643f bcc6 4fbf
00000330: 9a77 ca3f 9e86 d83e 8a95 71bf 44af 69bf
00000340: cdb7 6abf 3877 cbbf 24a0 e0be 1582 7f40
00000350: 2168 823f 3859 20bf ec14 4b40 28b1 c7bf
00000360: 95f8 61bf 6455 afbd 3a89 cf3e e77d 48be
00000370: 29ab a03e e882 19bf be06 9340 6f38 18be
00000380: ea4c b83e a94e cdbf 2689 d6bf 6016 e1bf
00000390: 85af f73e 86fd 6cbf d11a 64bf c12d 923f
000003a0: 4c4c e5bf 1c80 55c0 a922 6c40 456d b0be
000003b0: 9afc e1bf f124 3140 010c 28c0 b970 7bbf
000003c0: 5227 2c3f 6032 08c0 e8aa 0cc0 5d07 7abf
000003d0: 9c74 14c0 4052 5bc0 4785 0bbf c724 01c0
000003e0: 6044 16c0 53fb c7bf 07c9 223e 1839 01bf
000003f0: 7ae4 ecbd 5ec6 cb3e 699b 92be e478 04bf

lstm.weight_ih_l0 f4 [8, 5]
-1.0217813 -0.64498484 -2.21354 -0.8434851 -0.50541115 1.3792588 0.4100749 3.720791
-1.972672 0.40147603 0.3998598 -0.9833825 1.488229 -2.312861 -2.9624603 -1.2634082
-0.5856589 3.4210289 0.82930785 -0.82718885 -0.0434795 -0.9332655 -1.2214944 -0.48832303
0.08274534 2.2621195 1.2279749 -1.3686467 2.231336 -2.262218 -1.2095522 -2.577176
-4.6718497 -0.13909069 1.0183764 1.3044466 -0.7254405 2.9631271 0.061901137 -2.3835378
00000000: bbc9 82bf ba1d 25bf a4aa 0dc0 a4ee 57bf
00000010: a062 01bf 8d8b b03f 56f5 d13e 7121 6e40
00000020: 8480 fcbf 448e cd3e 6cba cc3e f5be 7bbf
00000030: 4a7e be3f ea05 14c0 f398 3dc0 5cb7 a1bf
00000040: beed 15bf 23f2 5a40 854d 543f a6c2 53bf
00000050: 8f17 32bd 7dea 6ebf ee59 9cbf 7a05 fabe
00000060: 6476 a93d 91c6 1040 482e 9d3f d12f afbf
00000070: 36ce 0e40 2ec8 10c0 9bd2 9abf 74f0 24c0
00000080: cb7f 95c0 ca6d 0ebe 285a 823f 1bf8 a63f
00000090: 78b6 39bf e0a3 3d40 0c8c 7d3d e28b 18c0

lstm.weight_hh_l0 f4 [8, 2]
0.74288917 -0.33435258 0.53422785 0.6182758 1.7710954 -2.5669281 -2.056706 -0.8211863
0.53593755 -0.77749926 -0.22971874 0.43689224 0.73595786 -3.180603 -0.9466988 -0.013737142
00000000: fc2d 3e3f 4330 abbe 28c3 083f 5347 1e3f
00000010: 41b3 e23f 8d48 24c0 12a1 03c0 4439 52bf
00000020: 3433 093f 310a 47bf 643b 6bbe 57b0 df3e
00000030: bc67 3c3f 008f 4bc0 da5a 72bf c011 61bc

lstm.bias_ih_l0 f4 [8]
2.2185245 -0.788185 -0.43190163 -0.53875625 2.2233255 -0.11634232 0.6582694 -0.59578997
00000000: 4efc 0d40 7ec6 49bf 3622 ddbe eeeb 09bf
00000010: f74a 0e40 e244 eebd 5884 283f b185 18bf

lstm.bias_hh_l0 f4 [8]
2.2243443 -1.3504137 0.3113959 0.08779007 2.610234 0.5502295 1.2570736 -0.8048009
00000000: a85b 0e40 5bda acbf 496f 9f3e 48cb b33d
00000010: 130e 2740 d7db 0c3f cae7 a03f 6f07 4ebf

lstm.weight_ih_l0_reverse f4 [8, 5]
-1.2424165 2.766084 -1.0373795 -2.4270992 -0.064757496 -1.0845395 -1.3278071 -4.9529414
-0.20370644 -0.96688914 1.108504 4.338592 -1.0946443 -1.4516946 1.1327995 1.9746056
-0.25245923 3.2315912 1.0358384 -2.79696 -1.4968858 -0.31570464 2.3065846 -0.06625869
-2.7916698 -1.1978633 1.3905976 0.5306094 1.1229427 4.087191 -2.5339897 -0.44750136
-1.7284365 1.2608538 1.146754 -0.5545851 -1.7156086 -2.0303452 -2.8348055 -1.7957758
00000000: 8107 9fbf 8507 3140 dac8 84bf 9855 1bc0
00000010: 949f 84bd 31d2 8abf 95f5 a9bf 7f7e 9ec0
00000020: 6c98 50be 0c86 77bf 76e3 8d3f bfd5 8a40
00000030: 4e1d 8cbf 21d1 b9bf 93ff 903f e0bf fc3f
00000040: 5642 81be 64d2 4e40 5a96 843f 6501 33c0
00000050: f499 bfbf 0aa4 a1be 159f 1340 a3b2 87bd
00000060: b8aa 32c0 9653 99bf 1aff b13f 05d6 073f
00000070: 96bc 8f3f 45ca 8240 e32c 22c0 e61e e5be
00000080: 683d ddbf a863 a13f d6c8 923f 4af9 0dbf
00000090: 1099 dbbf 2df1 01c0 746d 35c0 fbdb e5bf

lstm.weight_hh_l0_reverse f4 [8, 2]
-0.7878256 0.17136204 -1.169554 -1.4318765 2.046307 -1.2094479 2.7429013 -0.7849865
-1.9302329 -3.8423994 -1.1350863 0.10828679 0.49294192 1.3857455 -0.04699489 0.86065215
00000000: f0ae 49bf 8879 2f3e f2b3 95bf bb47 b7bf
00000010: b2f6 0240 30cf 9abf b28b 2f40 e0f4 48bf
00000020: df11 f7bf dfe9 75c0 824a 91bf 77c5 dd3d
00000030: e262 fc3e 1c60 b13f b77d 40bd b353 5c3f

lstm.bias_ih_l0_reverse f4 [8]
-1.9531536 -3.067766 -1.7717719 -0.43297106 0.13777561 -1.074521 -1.6481262 -0.9160132
00000000: f000 fabf 4756 44c0 6cc9 e2bf 62ae ddbe
00000010: 0d15 0d3e e789 89bf cdf5 d2bf d77f 6abf

lstm.bias_hh_l0_reverse f4 [8]
-1.7034286 -2.292953 -1.380903 -0.530709 -0.52787554 -1.4257159 -1.8801234 -1.5560408
00000000: f309 dabf bebf 12c0 6ec1 b0bf 8cdc 07bf
00000010: da22 07bf dc7d b6bf e2a7 f0bf 582c c7bf

crf.start_transitions f4 [131]
-2.7794948 -2.6992035 0.90757066 -5.7139378 -3.2109184 -5.2378235 -2.5371187 -2.7250032
-3.7275727 -5.3100014 -2.6676037 -2.7032604 -3.2922404 -5.3346667 -4.571753 -5.8323574
-4.530802 -6.6068053 -3.725434 -6.0950427 -2.5538855 -2.7331364 -2.576928 -2.6887856
-3.7161837 -5.3229675 -2.754104 -2.818562 -2.9777043 -3.321023 -2.6859014 -2.9787726
-2.707702 -2.5207825 -2.8487523 -2.6065397 -2.7311034 -2.6291912 -3.7300758 -3.365518
-2.7377524 -2.7168736 -4.020168 -5.3596177 -2.7466052 -2.4624605 -2.7059538 -2.7418091
-2.5878394 -2.8095424 0.80167854 -5.4674263 -4.2525735 -6.9399834 -3.6023824 -5.7144446
-4.830473 -5.583301 -3.0318592 -3.5717597 -4.081754 -5.218752 -2.5587504 -2.632884
-2.6053817 -2.668902 -2.6934693 -2.6047254 1.0984769 -5.8538218 -2.6062682 -3.1191337
-2.8154294 -3.4400792 -4.029752 -5.6430154 -2.42911 -3.0390356 -4.193337 -5.558613
-2.4443917 -2.8462584 -4.7940297 -5.9133086 -2.7622979 -5.305651 -4.071356 -4.1063676
-3.4710457 -5.6018734 -2.65507 -2.68704 -2.5188391 -2.6660705 -2.7807806 -2.610503
-2.50625 -2.4887245 -3.4602888 -5.290393 -2.808029 -2.645117 -2.6381297 -2.7203693
-2.7003992 -2.4770515 -2.587349 -2.6291115 -2.5095577 -2.6892736 -2.5808082 -2.6068382
-2.715141 -2.788662 -2.5332458 -2.6795583 -2.7661498 -2.5776017 -4.642235 -5.2930365
1.6459358 -5.73046 -3.561453 -5.7080183 -2.8212576 -2.6907477 -4.1185274 -5.6376395
-4.686329 -5.790997 1.6338935
00000000: 3ee3 31c0 c0bf 2cc0 8d56 683f 94d8 b6c0
00000010: b07f 4dc0 409c a7c0 2760 22c0 7466 2ec0
00000020: 8d90 6ec0 88eb a9c0 05ba 2ac0 3802 2dc0
00000030: 11b4 52c0 97b5 aac0 cd4b 92c0 aca2 bac0
00000040: 54fc 90c0 f36a d3c0 836d 6ec0 970a c3c0
00000050: dc72 23c0 b5eb 2ec0 63ec 24c0 1015 2cc0
00000060: f4d5 6dc0 c055 aac0 3d43 30c0 5263 34c0
00000070: b592 3ec0 a48b 54c0 cfe5 2bc0 36a4 3ec0
00000080: fd4a 2dc0 8054 21c0 f551 36c0 8cd1 26c0
00000090: 66ca 2ec0 ab44 28c0 90b9 6ec0 a664 57c0
000000a0: 5637 2fc0 42e1 2dc0 37a5 80c0 fd81 abc0
000000b0: 61c8 2fc0 f498 1dc0 592e 2dc0 cd79 2fc0
000000c0: 299f 25c0 8bcf 33c0 ce3a 4d3f 28f5 aec0
000000d0: 1515 88c0 5814 dec0 6f8d 66c0 bbdc b6c0
000000e0: 3c93 9ac0 67aa b2c0 fb09 42c0 b697 64c0
000000f0: bb9d 82c0 0400 a7c0 91c2 23c0 2c81 28c0
00000100: 93be 26c0 4acf 2ac0 cd61 2cc0 d2b3 26c0
00000110: e49a 8c3f 8252 bbc0 19cd 26c0 e39f 47c0
00000120: ff2f 34c0 422a 5cc0 baf3 80c0 9593 b4c0
00000130: 8a76 1bc0 8f7f 42c0 d12f 86c0 28e0 b1c0
00000140: ea70 1cc0 1929 36c0 b168 99c0 d339 bdc0
00000150: 7dc9 30c0 e5c7 a9c0 8c48 82c0 5d67 83c0
00000160: 9d25 5ec0 8c42 b3c0 abec 29c0 77f8 2bc0
00000170: a934 21c0 e6a0 2ac0 4ff8 31c0 7b12 27c0
00000180: 6666 20c0 4347 1fc0 5f75 5dc0 e64a a9c0
00000190: bfb6 33c0 9949 29c0 1ed7 28c0 881a 2ec0
000001a0: 57d3 2cc0 0388 1ec0 2097 25c0 5d43 28c0
000001b0: 989c 20c0 0f1d 2cc0 f62b 25c0 70d6 26c0
000001c0: dfc4 2dc0 7079 32c0 b320 22c0 e27d 2bc0
000001d0: 9908 31c0 6df7 24c0 308d 94c0 8e60 a9c0
000001e0: 06ae d23f ee5f b7c0 d9ee 63c0 16a8 b6c0
000001f0: 7c8f 34c0 3635 2cc0 faca 83c0 8b67 b4c0
00000200: 68f6 95c0 d94f b9c0 6c23 d13f

crf.end_transitions f4 [131]
-2.966898 -2.8583412 -5.757489 -0.09375401 -4.9931746 1.1382676 -3.062699 -3.1763165
-6.2562127 1.7113931 -3.1128213 -2.9573107 -5.3034134 -5.411064 -5.7053227 -0.8922049
-7.0129104 -5.2897506 -6.7083445 -4.181457 -2.9383779 -3.055552 -2.8563073 -3.187532
-6.4343715 -4.5446525 -3.018373 -2.7936614 -5.3451247 -0.042111754 -5.3860884 0.29895762
-2.9328508 -3.009712 -2.9157288 -2.7611434 -3.1617405 -3.0360975 -6.9156647 -0.053489774
-5.9036984 0.841743 -5.8872495 -4.745585 -2.9101624 -2.8812408 -2.9816 -3.0216894
-2.9987006 -2.9449143 -4.6208916 -3.848766 -5.6542196 -5.3660307 -5.921999 -5.020299
-6.2487316 -4.985249 -5.8534875 0.93107545 -7.2043686 -0.228758 -2.9656966 -2.9976754
-2.9314992 -3.0685189 -2.9685447 -3.0080073 -4.4484015 -4.142977 -4.664378 0.7821987
-5.419536 1.207667 -6.1854773 -4.9911385 -6.275254 0.92522943 -5.418449 -1.3986335
-6.0452304 1.0008157 -6.0463314 -5.6423945 -6.111473 -0.26380065 -5.3458824 -0.10181941
-6.1484146 -4.02869 -3.059633 -3.0044878 -2.9557343 -2.7156346 -2.7080252 -3.0143485
-2.9682887 -2.9305985 -5.82036 -0.07349939 -3.0031867 -3.1572335 -2.9462905 -2.870783
-2.817275 -3.1171515 -2.9862094 -3.2742345 -2.9514074 -2.9513266 -2.8730223 -2.9677172
-2.8634758 -3.0702803 -2.9445257 -2.9881656 -3.0463617 -2.9847677 -5.8515525 0.29152516
-4.5688205 -3.7216532 -5.981973 -4.746015 -3.04173 -2.9642324 -6.4261756 -5.149343
-6.6989264 -5.3105655 -1.0832351
00000000: a8e1 3dc0 10ef 36c0 5a3d b8c0 1a02 c0bd
00000010: 16c8 9fc0 c1b2 913f 4303 44c0 c548 4bc0
00000020: e532 c8c0 ee0e db3f 7738 47c0 9444 3dc0
00000030: 90b5 a9c0 7027 adc0 0192 b6c0 8a67 64bf
00000040: c369 e0c0 a345 a9c0 c2aa d6c0 7fce 85c0
00000050: 620e 3cc0 2a8e 43c0 bdcd 36c0 8600 4cc0
00000060: 5fe6 cdc0 cb6d 91c0 062d 41c0 59cb 32c0
00000070: 430b abc0 607d 2cbd d65a acc0 f910 993e
00000080: d4b3 3bc0 1f9f 40c0 4d9b 3ac0 93b6 30c0
00000090: f559 4ac0 6c4f 42c0 204d ddc0 1818 5bbd
000000a0: 19eb bcc0 787c 573f 5964 bcc0 d5db 97c0
000000b0: 1a40 3ac0 4066 38c0 89d2 3ec0 5c63 41c0
000000c0: b6ea 3fc0 7a79 3cc0 58de 93c0 2f52 76c0
000000d0: 5eef b4c0 86b6 abc0 0481 bdc0 4aa6 a0c0
000000e0: 9cf5 c7c0 2987 9fc0 c54f bbc0 f65a 6e3f
000000f0: 308a e6c0 8a3f 6abe f9cd 3dc0 ead9 3fc0
00000100: af9d 3bc0 9d62 44c0 a3fc 3dc0 3183 40c0
00000110: 4e59 8ec0 4593 84c0 9642 95c0 2d3e 483f
00000120: d76c adc0 d594 9a3f 6eef c5c0 68b7 9fc0
00000130: e1ce c8c0 d6db 6c3f ef63 adc0 6c06 b3bf
00000140: 8772 c1c0 bb1a 803f 8c7b c1c0 7f8e b4c0
00000150: 3091 c3c0 e110 87be 7811 abc0 b286 d0bd
00000160: d0bf c4c0 07eb 80c0 07d1 43c0 8749 40c0
00000170: c02a 3dc0 f5cc 2dc0 4950 2dc0 16eb 40c0
00000180: 71f8 3dc0 ed8e 3bc0 6440 bac0 d986 96bd
00000190: 3634 40c0 1d10 4ac0 0690 3cc0 e9ba 37c0
000001a0: 3c4e 34c0 697f 47c0 0e1e 3fc0 0f8d 51c0
000001b0: dce3 3cc0 89e2 3cc0 99df 37c0 14ef 3dc0
000001c0: 3043 37c0 797f 44c0 1c73 3cc0 1b3e 3fc0
000001d0: 97f7 42c0 6f06 3fc0 eb3f bbc0 c942 953e
000001e0: c733 92c0 912f 6ec0 536c bfc0 5bdf 97c0
000001f0: b4ab 42c0 fcb5 3dc0 3ba3 cdc0 6bc7 a4c0
00000200: 9b5d d6c0 27f0 a9c0 73a7 8abf

crf.transitions f4 [131, 131]
-1.2111216 -1.269675 -2.660042 -4.181296 -1.7675514 -3.4937305 -1.2717316 -1.1660397
-2.7330914 -3.3007283 -1.3062488 -1.1281861 -1.7880521 -3.0803535 -2.219878 -3.694726
-2.0433319 -3.8815246 -2.031044 -2.7599373 -1.2388316 -1.2908676 -1.2670237 -1.2967
-2.1780164 -2.5115077 -1.1278722 -1.0984821 -1.8532869 -2.9101815 -1.7422397 -2.354204
-1.0675955 -1.2390411 -1.1312139 -1.1063228 -1.2228353 -1.3195568 -2.093292 -2.318951
-2.0214913 -2.814983 -2.1088834 -3.064016 -1.2636739 -1.190819 -1.1382756 -1.2057106
-1.1634618 -1.0779873 -2.9747758 -2.7122452 -2.2939632 -3.5022826 -1.8468925 -2.5686214
-1.8023335 -3.2296848 -1.7268424 -2.9847503 -1.8931226 -2.7913074 -1.1851882 -1.0774844
-1.1188896 -1.2347661 -1.0648277 -1.3152319 -2.7303195 -3.3045974 -1.728742 -2.4858615
-1.5092208 -3.0451224 -2.2151144 -3.1006384 -2.1153276 -3.3377185 -2.9256253 -4.1762023
-1.7386333 -2.7228405 -1.7399478 -3.9079616 -1.7064104 -3.0585048 -2.571265 -3.1310885
-1.623296 -2.6090124 -1.2729725 -1.3301542 -1.1343615 -1.0528014 -1.2369064 -1.1123235
-1.3078829 -1.1390266 -1.801629 -3.3467815 -1.2845281 -1.250585 -1.1566981 -1.196461
-1.0839627 -1.1767408 -1.259755 -1.2126087 -1.2444671 -1.0809261 -1.2531487 -1.2556348
-1.2370472 -1.277272 -1.2637186 -1.2568455 -1.27057 -1.2541335 -3.5171993 -3.5294058
-2.5528991 -2.469398 -2.2809613 -2.9944782 -1.2196589 -1.2944654 -2.3118234 -3.1316674
-1.7870617 -3.138297 -5.300242 -1.2691156 -1.1371021 -2.5868587 -4.0987806 -1.7898529
-3.4360003 -1.2145207 -1.2798976 -2.6053631 -3.2447674 -1.2731243 -1.1955749 -1.8810579
-3.0811486 -2.0698671 -3.660793 -1.9936494 -3.6913748 -1.9520223 -2.7608917 -1.2161356
-1.241256 -1.2847755 -1.222788 -2.1615422 -2.4840703 -1.2580713 -1.1594104 -1.8860879
-2.8106506 -1.8120756 -2.1785066 -1.1995457 -1.261548 -1.2687769 -1.2396234 -1.1908005
-1.1895 -1.8896146 -2.250148 -1.8850019 -2.6612868 -2.113349 -3.1518397 -1.2797467
-1.2784344 -1.2467796 -1.2337694 -1.2175795 -1.1325549 -2.904313 -2.6702614 -2.3880575
-3.4061246 -1.7386639 -2.5662835 -1.833921 -3.2664135 -1.7062192 -3.0725644 -2.0467777
-2.6684182 -1.223735 -1.2258584 -1.2131971 -1.2107873 -1.1984098 -1.2544523 -2.6502244
-3.4298844 -1.8405102 -2.3886633 -1.5205103 -3.166234 -2.1174 -2.9992154 -2.145248
-3.356696 -2.9249365 -4.2754064 -1.7271382 -2.6875577 -1.8483166 -3.962283 -1.6214788
-2.9714425 -2.678785 -3.0773969 -1.7284453 -2.6322248 -1.1915302 -1.2650887 -1.2917118
-1.1117727 -1.1096811 -1.123218 -1.1849809 -1.215817 -1.7133193 -3.501337 -1.2006793
-1.2811637 -1.31237 -1.1556569 -1.128959 -1.3254354 -1.1366882 -1.3159596 -1.2954327
-1.1023453 -1.1201121 -1.264395 -1.2365824 -1.2263374 -1.1655316 -1.3195164 -1.1405766
-1.243617 -3.5482717 -3.377808 -2.434508 -2.4546494 -2.3560662 -3.100591 -1.2033116
00000000: 0806 9bbf b684 a2bf 213e 2ac0 2dcd 85c0
00000010: 203f e2bf 4899 5fc0 1ac8 a2bf ca40 95bf
00000020: f8ea 2ec0 223f 53c0 2933 a7bf 6768 90bf
00000030: e4de e4bf 8324 45c0 7b12 0ec0 6476 6cc0
00000040: f3c5 02c0 e66a 78c0 a0fc 01c0 d0a2 30c0
00000050: 0992 9ebf 263b a5bf d52d a2bf 44fa a5bf
00000060: 9f64 0bc0 8bbc 20c0 1e5e 90bf 109b 8cbf
00000070: 8138 edbf 6a40 3ac0 b601 dfbf 47ab 16c0
00000080: f8a6 88bf e698 9ebf 9ecb 90bf fc9b 8dbf
00000090: de85 9cbf 3de7 a8bf 7ff8 05c0 b169 14c0
000000a0: 1d60 01c0 ae28 34c0 f2f7 06c0 d718 44c0
000000b0: 11c0 a1bf c26c 98bf 04b3 91bf ba54 9abf
000000c0: 51ec 94bf 7dfb 89bf ba62 3ec0 6d95 2dc0
000000d0: 4bd0 12c0 6625 60c0 f966 ecbf 4b64 24c0
000000e0: ddb2 e6bf 28b3 4ec0 2c09 ddbf 2606 3fc0
000000f0: d751 f2bf c8a4 32c0 3fb4 97bf 02eb 89bf
00000100: c637 8fbf d10c 9ebf 464c 88bf 8559 a8bf
00000110: 8ebd 2ec0 867e 53c0 6b47 ddbf 5b18 1fc0
00000120: 262e c1bf 49e3 42c0 6fc4 0dc0 dc70 46c0
00000130: 8761 07c0 2e9d 55c0 723d 3bc0 73a3 85c0
00000140: 898b debf 0543 2ec0 9cb6 debf 0b1c 7ac0
00000150: a86b dabf 8bbe 43c0 9b8f 24c0 c163 48c0
00000160: 2ac8 cfbf 0ffa 26c0 c3f0 a2bf 7e42 aabf
00000170: c232 91bf 32c2 86bf f352 9ebf 9e60 8ebf
00000180: b568 a7bf a0cb 91bf c79b e6bf ab31 56c0
00000190: 6b6b a4bf 2b13 a0bf af0e 94bf a225 99bf
000001a0: 4abf 8abf 719f 96bf a73f a1bf c336 9bbf
000001b0: b34a 9fbf c95b 8abf 2d67 a0bf a4b8 a0bf
000001c0: 9057 9ebf a67d a3bf 88c1 a1bf 50e0 a0bf
000001d0: 0aa2 a2bf 7287 a0bf cb19 61c0 c9e1 61c0
000001e0: b362 23c0 9e0a 1ec0 45fb 11c0 88a5 3fc0
000001f0: c81d 9cbf 0bb1 a5bf eaf4 13c0 3d6d 48c0
00000200: 70be e4bf dcd9 48c0 959b a9c0 6172 a2bf
00000210: 908c 91bf 188f 25c0 3629 83c0 e619 e5bf
00000220: 6ee7 5bc0 6a75 9bbf afd3 a3bf 45be 26c0
00000230: 45aa 4fc0 bdf5 a2bf 9908 99bf 81c6 f0bf
00000240: 8a31 45c0 b478 04c0 6f4a 6ac0 e72f ffbf
00000250: 7c3f 6cc0 dedb f9bf 73b2 30c0 55aa 9bbf
00000260: 7ae1 9ebf 8673 a4bf 5184 9cbf b556 0ac0
00000270: 02fb 1ec0 7b08 a1bf 8f67 94bf 546b f1bf
00000280: b3e1 33c0 18f2 e7bf a76c 0bc0 b78a 99bf
00000290: 687a a1bf 4867 a2bf fbab 9ebf 276c 98bf
000002a0: 8941 98bf e4de f1bf 6d02 10c0 be47 f1bf
000002b0: 8652 2ac0 1c41 07c0 beb7 49c0 bdce a3bf
000002c0: bda3 a3bf 7996 9fbf 28ec 9dbf a5d9 9bbf
000002d0: 8ff7 90bf 44e0 39c0 90e5 2ac0 efd5 18c0
000002e0: f2fd 59c0 8a8c debf fd3d 24c0 ecbd eabf
000002f0: eb0c 51c0 6465 dabf e5a4 44c0 68fe 02c0
00000300: 5dc7 2ac0 59a3 9cbf eee8 9cbf 0b4a 9bbf
00000310: 14fb 9abf 7e65 99bf e591 a0bf 479d 29c0
00000320: 3a83 5bc0 d795 ebbf dcdf 18c0 15a0 c2bf
00000330: 94a3 4ac0 7b83 07c0 25f3 3fc0 be4b 09c0
00000340: 1bd4 56c0 2932 3bc0 21d0 88c0 dd12 ddbf
00000350: f200 2cc0 a395 ecbf 0b96 7dc0 9e8c cfbf
00000360: 1d2c 3ec0 3771 2bc0 12f4 44c0 b23d ddbf
00000370: 5f76 28c0 1084 98bf 6dee a1bf d056 a5bf
00000380: 914e 8ebf 080a 8ebf 9cc5 8fbf 74ad 97bf
00000390: e49f 9bbf 0c4e dbbf e815 60c0 dcaf 99bf
000003a0: 2cfd a3bf bdfb a7bf 91ec 93bf ba81 90bf
000003b0: dea7 a9bf 007f 91bf 5d71 a8bf bdd0 a5bf
000003c0: a719 8dbf d55f 8fbf b2d7 a1bf 5548 9ebf
000003d0: a0f8 9cbf 2430 95bf eae5 a8bf 6afe 91bf
000003e0: d82e 9fbf e216 63c0 022e 58c0 fbce 1bc0
000003f0: fa18 1dc0 cac9 16c0 1570 46c0 1d06 9abf

hidden2tag.weight f4 [131, 4]
-2.8999152 -0.031695187 0.17511988 1.7369875 -2.549223 0.077402845 0.30122167 1.5593724
-1.7724594 -1.5256269 -1.3883705 1.9313232 -0.94027126 -1.3179309 -2.819991 1.6890545
-2.394067 -1.7926809 2.6709428 1.6943349 -3.6006758 -2.3583546 0.90184355 -3.3572776
-2.057809 0.069657326 -0.08205649 1.4536952 -2.6843708 0.18663946 0.06794097 0.8036645
0.36884063 -1.3897316 0.81677085 2.8190384 -3.322277 -2.3122199 3.4589162 3.3928907
-2.3062816 0.11705357 0.23669934 0.7467465 -2.7806158 -0.084800646 -0.07933698 1.6344295
-0.060251683 -0.4213835 -1.3425689 1.2806644 -0.83648163 0.49245209 1.7121831 1.1507096
-1.5546844 -0.026845708 3.8000736 1.5821882 0.8137498 0.11500661 2.806688 1.7337071
-2.1280904 -1.9967924 2.6348958 -0.15508868 -1.9919845 2.2459123 0.3463673 -1.4663655
0.60308945 -1.2981437 3.7713132 1.5436066 -2.9764104 0.81564105 1.4748644 2.6927643
-2.187473 0.18542759 0.103328556 1.4362117 -2.270312 -0.015064355 -0.16749665 0.6058386
-2.5431817 0.112871334 0.16144681 1.2471911 -2.2603436 0.16314824 0.055825923 1.5781119
0.24861556 1.5330168 1.9195468 0.8255618 -2.392445 0.35187 1.0118228 1.092683
-2.9352875 0.020442367 -0.108242474 1.7366928 -2.932672 -0.037778288 0.09375001 1.5157908
-1.5066581 0.5617707 2.4156501 1.8678106 -0.82507676 0.32631922 3.2831101 -0.6296753
-1.753201 -2.1349201 2.6581182 1.4108568 -0.0044008363 -0.5519243 -0.9647745 0.56674
-2.9995809 -0.09500203 0.19680665 1.7525846 -2.1690133 0.039924294 -0.0014418717 1.4930379
-2.968041 0.0028968733 -0.07172452 1.5193439 -2.384419 -0.061056588 0.32720795 1.4032462
-2.3058584 -0.07847138 -0.2158401 0.5809676 -2.4371843 0.15905896 0.008717562 1.5298907
-1.7083192 2.9310627 2.172996 -2.4259703 -2.0377905 2.8013892 1.2634566 0.62908626
-2.646733 -3.9708683 1.8218513 -2.132736 0.3337299 -0.8006753 1.9868985 2.1299388
-2.5920215 1.8322881 2.4558332 0.34706768 -0.00010187924 0.762604 1.260096 2.2020924
-2.9289014 -0.09497915 -0.016612772 1.6833308 -2.3277524 -0.104481556 0.15927123 1.520448
-2.4042463 -0.0847471 -0.1289364 1.5617108 -3.0864925 -0.060625996 -0.14909504 1.7458167
-2.557174 -0.001140058 0.039382398 1.6175488 -2.930248 -0.009712096 -0.08275744 1.4627151
0.65287906 -0.970097 -3.3600924 3.375185 -2.6147997 1.821985 1.4669222 1.1866426
0.09008796 -0.28811893 -5.0400367 -0.008762002 -5.1848087 2.7487924 3.2595172 1.2233049
-0.11793336 -1.418874 2.1224117 1.8247328 -3.4054 -0.4670076 2.3820875 1.3369899
-3.5537932 0.6823892 2.3009653 1.1934923 0.17959522 -0.26597416 0.92529184 1.8294959
-1.7698833 0.89549375 3.2921786 2.8452492 -3.1403058 1.9673256 2.2725573 2.3047507
-2.9699984 -3.328812 2.1264582 -0.83117414 -4.5875945 2.2340915 2.073098 1.9148668
-2.202538 0.012374801 -0.1105314 1.4799354 -2.931705 -0.074689366 0.060516108 1.6276507
00000000: 3698 39c0 d0d2 01bd a052 333e 9b55 de3f
00000010: 7826 23c0 6285 9e3d ba39 9a3e 8499 c73f
00000020: f3df e2bf be47 c3bf 20b6 b1bf 9935 f73f
00000030: 9eb5 70bf f6b1 a8bf bc7a 34c0 f032 d83f
00000040: 6538 19c0 9176 e5bf baf0 2a40 f7df d83f
00000050: 7971 66c0 48ef 16c0 38df 663f a3dd 56c0
00000060: 25b3 03c0 80a8 8e3d 3c0d a8bd af12 ba3f
00000070: bbcc 2bc0 6a1e 3f3e a324 8b3d f5bc 4d3f
00000080: aed8 bc3e bae2 b1bf e517 513f 206b 3440
00000090: 30a0 54c0 69fb 13c0 e25e 5d40 1f25 5940
000000a0: 1e9a 13c0 c8b9 ef3d 5061 723e c72a 3f3f
000000b0: 9cf5 31c0 f6ab adbd 6d7b a2bd fc34 d13f
000000c0: 78ca 76bd 94bf d7be 4cd9 abbf d0ec a33f
000000d0: a923 56bf ae22 fc3e d128 db3f 744a 933f
000000e0: e6ff c6bf 88eb dbbc 6834 7340 2585 ca3f
000000f0: e851 503f 9688 eb3d c7a0 3340 1dea dd3f
00000100: a232 08c0 e596 ffbf 22a2 2840 91cf 1ebe
00000110: 59f9 febf 07bd 0f40 0e57 b13e ddb1 bbbf
00000120: 1264 1a3f 9329 a6bf 325d 7140 e794 c53f
00000130: 827d 3ec0 dacd 503f 5bc8 bc3f 4056 2c40
00000140: 8fff 0bc0 bbe0 3d3e ec9d d33d c9d5 b73f
00000150: cb4c 11c0 7cd0 76bc 3e84 2bbe 3d18 1b3f
00000160: 7dc3 22c0 1629 e73d 5052 253e f5a3 9f3f
00000170: 78a9 10c0 5510 273e b9a9 643d 92ff c93f
00000180: 1495 7e3e e539 c43f b6b3 f53f 0558 533f
00000190: d21d 19c0 4e28 b43e 6983 813f 09dd 8b3f
000001a0: c0db 3bc0 c076 a73c 3bae ddbd f34b de3f
000001b0: e6b0 3bc0 68bd 1abd 0100 c03d 6f05 c23f
000001c0: 2cda c0bf 34d0 0f3f 039a 1a40 6b14 ef3f
000001d0: 3b38 53bf 5013 a73e 7a1e 5240 6732 21bf
000001e0: e468 e0bf 88a2 08c0 9c1e 2a40 f596 b43f
000001f0: e434 90bb e94a 0dbf 76fb 76bf df15 113f
00000200: 22f9 3fc0 6d90 c2bd af87 493e b154 e03f
00000210: 1dd1 0ac0 a887 233d 30fd bcba de1b bf3f
00000220: 62f4 3dc0 78d9 3d3b 4ee4 92bd dc79 c23f
00000230: 529a 18c0 7916 7abd cd87 a73e 929d b33f
00000240: 2f93 13c0 9ab5 a0bd 3005 5dbe 4bba 143f
00000250: d4fa 1bc0 5ae0 223e 1bd4 0e3c 75d3 c33f
00000260: 34aa dabf 8896 3b40 5e12 0b40 1943 1bc0
00000270: 296b 02c0 f649 3340 f2b8 a13f cc0b 213f
00000280: 1364 29c0 b522 7ec0 6c32 e93f bf7e 08c0
00000290: a5de aa3e 0ef9 4cbf b152 fe3f eb50 0840
000002a0: aee3 25c0 6b88 ea3f 5f2c 1d40 dbb2 b13e
000002b0: 00a8 d5b8 043a 433f d34a a13f 15ef 0c40
000002c0: 1f73 3bc0 6e84 c2bd 8217 88bc 6277 d73f
000002d0: e5f9 14c0 6dfa d5bd ff17 233e 0a9e c23f
000002e0: 2cdf 19c0 e38f adbd e707 04be 24e6 c73f
000002f0: 1889 45c0 f752 78bd 5fac 18be ec76 df3f
00000300: bda8 23c0 006e 95ba 704f 213d d70b cf3f
00000310: 2f89 3bc0 7c1f 1fbc bc7c a9bd 403a bb3f
00000320: 1523 273f 4758 78bf c10b 57c0 0803 5840
00000330: e158 27c0 ce36 e93f 1bc4 bb3f e8e3 973f
00000340: 0980 b83d 5384 93be fb47 a1c0 808e 0fbc
00000350: f4e9 a5c0 37ec 2f40 ee9b 5040 4195 9c3f
00000360: 0c87 f1bd aa9d b5bf 98d5 0740 d890 e93f
00000370: 13f2 59c0 9f1b efbe 1f74 1840 7c22 ab3f
00000380: 5971 63c0 0fb1 2e3f 0443 1340 5bc4 983f
00000390: cfe7 373e c42d 88be eddf 6c3f ec2c ea3f
000003a0: 898b e2bf 143f 653f 0eb3 5240 9018 3640
000003b0: c5fa 48c0 53d1 fb3f 9471 1140 0981 1340
000003c0: 7414 3ec0 410b 55c0 e417 0840 d4c7 54bf
000003d0: 93cd 92c0 5bfb 0e40 a3ad 0440 5b1a f53f
000003e0: 62f6 0cc0 adbf 4a3c 495e e2bd 866e bd3f
000003f0: 0ea1 3bc0 bdf6 98bd bddf 773d dc56 d03f

hidden2tag.bias f4 [131]
-2.6722236 -2.3759358 -0.39376342 -0.559698 -0.45485866 -0.35145655 -2.6306465 -2.7028544
0.5963647 0.5111298 -2.3960972 -1.9153665 -0.43430835 0.25614512 -0.57743955 0.62965757
-0.38101488 -0.26797608 -0.7370415 -0.5805281 -2.232726 -1.9623394 -2.1176124 -2.8563638
-0.052523345 0.30724832 -2.202397 -2.148516 -0.9885842 -0.28279182 -0.42799008 -0.17922992
-2.817402 -2.3394122 -2.340145 -2.1801114 -2.3744323 -2.6310153 -0.92360294 -0.93983495
-1.5823588 -0.98873484 -0.15914673 -0.37853128 -2.0670245 -2.3993344 -2.1911693 -2.846359
-2.0574527 -2.786596 -0.3548052 -0.5587098 -0.7565422 -0.15666284 0.42341703 0.6147531
0.14215109 -0.9133618 0.029326443 0.14167048 0.3613605 0.6200665 -2.2041554 -2.312267
-2.6564028 -2.0497136 -1.9661269 -2.6507125 0.41565362 0.16449146 -0.39616475 -0.5136419
0.36826158 0.20176902 0.06412692 -0.031626433 -0.64279085 -0.15168042 -0.12679663 1.696675
-0.07187241 -0.076804325 -0.27155533 -0.39915404 -0.21293145 0.22826189 -1.400347 -0.82774305
-0.7294441 -0.5627693 -2.541679 -2.502222 -2.0720487 -2.0843775 -2.6459236 -2.745892
-2.198267 -2.4733286 -0.30077478 -0.09846613 -2.586341 -2.3007932 -2.85494 -2.3172455
-2.151775 -2.7286005 -2.2713082 -2.3083844 -2.522689 -2.754035 -2.5174856 -2.7593837
-2.0537305 -1.9747766 -1.9518161 -2.1344802 -1.9785849 -2.1399615 -0.5014219 1.511828
0.77254033 0.8551544 -0.038981162 0.084046625 -2.497373 -2.8685675 -0.34971768 -0.35396466
0.04536642 0.12771158 0.4453529
00000000: b605 2bc0 550f 18c0 5c9b c9be 5e48 0fbf
00000010: 3ce3 e8be 1df2 b3be 835c 28c0 91fb 2cc0
00000020: 5bab 183f 67d9 023f a859 19c0 bb2a f5bf
00000030: aa5d debe 7425 833e 14d3 13bf 3d31 213f
00000040: 6214 c3be 2934 89be c0ae 3cbf 7d9d 14bf
00000050: fce4 0ec0 f02d fbbf f686 07c0 aace 36c0
00000060: b822 57bd a74f 9d3e 13f4 0cc0 4981 09c0
00000070: db13 7dbf 17ca 90be 8421 dbbe 0c88 37be
00000080: 5050 34c0 eeb8 15c0 f0c4 15c0 f286 0bc0
00000090: b3f6 17c0 8e62 28c0 3e71 6cbf 0699 70bf
000000a0: bc8a cabf ba1d 7dbf 5cf7 22be dace c1be
000000b0: 214a 04c0 b28e 19c0 1e3c 0cc0 bf2a 36c0
000000c0: 4ead 03c0 9757 32c0 07a9 b5be 9b07 0fbf
000000d0: c0ac 41bf 396c 20be 1eca d83e 7660 1d3f
000000e0: 0e90 113e 14d2 69bf 023e f03c 1112 113e
000000f0: 3e04 b93e aebc 1e3f e210 0dc0 2ffc 13c0
00000100: 8102 2ac0 822e 03c0 0caa fbbf 46a5 29c0
00000110: 8dd0 d43e 7370 283e 1bd6 cabe 097e 03bf
00000120: c88c bc3e 8a9c 4e3e fa54 833d b88a 01bd
00000130: f18d 24bf 1d52 1bbe fad6 01be a52c d93f
00000140: d831 93bd 964b 9dbd 4d09 8bbe eb5d ccbe
00000150: b40a 5abe 7cbd 693e 923e b3bf f8e6 53bf
00000160: d9bc 3abf a611 10bf deaa 22c0 6824 20c0
00000170: 729c 04c0 7166 05c0 d056 29c0 b2bc 2fc0
00000180: 68b0 0cc0 044b 1ec0 27ff 99be 9ca8 c9bd
00000190: 9c86 25c0 3240 13c0 56b7 36c0 c04d 14c0
000001a0: aeb6 09c0 64a1 2ec0 1d5d 11c0 92bc 13c0
000001b0: bd73 21c0 1c42 30c0 7c1e 21c0 be99 30c0
000001c0: 5270 03c0 7bc5 fcbf 1cd5 f9bf 539b 08c0
000001d0: 4542 fdbf 21f5 08c0 305d 00bf 9483 c13f
000001e0: 34c5 453f 66eb 5a3f b6aa 1fbd a320 ac3d
000001f0: f6d4 1fc0 9c96 37c0 320e b3be db3a b5be
00000200: 24d2 393d d3c6 023e 4c05 e43e
