temp/best_modeltrigger_sgd_1.model (torch, 155693 bytes, 14 tensors)

word_embeds.weight f4 [3918, 5]
-1.2421148 0.16547862 -0.74412006 0.9871633 -2.362987 0.6945739 -0.20117092 -0.2895497
0.881685 0.2045927 -0.38478905 -0.8974356 -0.4292311 0.28818917 1.2177393 1.3883665
-2.1328633 0.5442592 0.7752471 -1.1966019 1.1615614 -0.7990518 2.2330685 0.12095829
-0.21496548 -1.6620604 -1.0668117 -0.4731299 0.9485547 0.25063923 -1.4379658 1.1516694
-0.34137213 -0.22523865 -0.9316239 0.70829576 0.27966866 -0.83475375 -0.12036332 -0.5397671
-0.557787 0.71561587 1.7683488 0.76352406 -1.5217308 -0.05450154 0.94462824 0.5501497
-0.5684242 -0.55379015 -0.4475189 0.82829034 -0.16010259 -0.49420312 0.24738267 1.0500016
0.32589763 -0.5345177 -0.11957 -1.1309106 -0.3583483 0.8390617 0.621464 1.3160895
-1.2364997 1.2434424 0.9542168 -0.18640316 0.04888272 0.9380879 -0.012498694 -0.39869395
-1.1407961 -1.6448091 -0.9036764 -0.8826861 0.32977596 -0.666421 -0.14846538 0.052318268
1.885719 -1.455778 0.101942524 1.1506408 0.55611384 0.1825549 -0.9693419 0.20687886
-2.139015 -0.5200301 2.321894 -0.43843776 0.31041583 -1.5877545 -0.2943054 0.088033736
-0.4627337 -1.1014934 0.52471775 0.89355105 0.8020338 -0.05703899 0.13673398 -1.3771592
0.19936807 0.722785 1.2046489 0.44977784 0.56220424 0.26951376 -1.5358229 -1.5746778
1.5147378 0.36404544 -1.5406159 -0.35575473 0.023099791 0.7016513 0.30895627 -1.9493636
-0.46852344 -0.4925316 -0.23387519 -1.5483185 -1.0774753 -0.19833516 0.33146587 0.16931298
-0.10349286 -0.041849736 0.4630816 0.5463262 -0.35087678 -0.665883 0.09772399 -0.46546122
-1.3920349 -0.57531655 0.56606984 -0.9573414 0.50570154 -1.1580288 0.9698931 -1.8156424
-0.5895293 0.6005621 0.66503394 -1.2998749 0.39674154 -1.2689165 1.678555 -1.3392266
0.6798018 -0.08319765 1.0947444 0.34328917 0.32522452 -1.1234603 1.5835772 -0.946086
1.0884267 0.91945755 3.1028192 -0.49626127 -1.5151461 -0.11310321 1.2464008 0.1293654
0.5984029 -0.9276589 0.10388693 -0.31743813 -0.3148804 -0.6704733 0.22233847 0.7839212
1.0067145 -0.4058901 0.43555754 -0.84497994 -0.20923807 0.20056179 2.0032928 -0.412764
-0.33599272 2.0916483 -0.3694597 -0.56975245 0.080613375 -0.47642303 2.51799 -0.80303484
0.16576906 -0.29405227 1.6377013 1.2445091 -0.8546383 -0.20969053 -0.11432026 -1.8211364
-0.53880525 -0.09895572 -0.53371894 -0.8927724 -0.08575494 0.8067012 1.3379822 -1.4731134
1.0698407 -1.0102278 0.7472725 -0.6352838 -0.8747218 1.0083712 0.3792792 0.31021997
-1.0916436 -0.302256 -0.25929493 -0.12245402 0.18046522 2.4464064 1.4704278 1.9840271
-2.4644074 0.7742878 -0.14265789 0.32512197 -0.52409965 -0.059323896 0.61833274 -0.027380638
-0.115503944 0.049010918 -0.98493415 0.16278484 -0.11337088 0.6289619 -1.0863539 0.83352405
0.4435907 0.44098872 1.1200516 -0.045604613 1.4663303 0.48654768 1.4196188 0.7998809
1.542401 1.597294 -0.015639381 -0.7418897 -0.19117415 0.08421196 0.057051975 -1.4150385
00000000: 9efd 9ebf 3a73 293e a77e 3ebf bcb6 7c3f
00000010: 2e3b 17c0 98cf 313f c0ff 4dbe dc3f 94be
00000020: 1cb6 613f c080 513e 1203 c5be 57be 65bf
00000030: 2ec4 dbbe 888d 933e e2de 9b3f feb5 b13f
00000040: d580 08c0 9254 0b3f 9876 463f 402a 99bf
00000050: 0bae 943f a98e 4cbf 98ea 0e40 fbb8 f73d
00000060: e91f 5cbe 65be d4bf 498d 88bf 153e f2be
00000070: 7bd4 723f c953 803e 430f b8bf e769 933f
00000080: 54c8 aebe f6a4 66be e77e 6ebf df52 353f
00000090: bb30 8f3e 6cb2 55bf 0b81 f6bd 2d2e 0abf
000000a0: 21cb 0ebf 9a32 373f 4159 e23f 5076 433f
000000b0: 13c8 c2bf 023d 5fbd 28d3 713f 9cd6 0c3f
000000c0: 4084 11bf 31c5 0dbf 3221 e5be d60a 543f
000000d0: eff1 23be 3108 fdbe e251 7d3e 7466 863f
000000e0: 0edc a63e 27d6 08bf 1ee1 f4bd aec1 90bf
000000f0: 6e79 b7be bfcc 563f 4418 1f3f 9f75 a83f
00000100: 9f45 9ebf 1f29 9f3f 8d47 743f 78e0 3ebe
00000110: 3f39 483d 8726 703f 52c7 4cbc 9d21 ccbe
00000120: 9b05 92bf 1b89 d2bf 5657 67bf b7f7 61bf
00000130: 65d8 a83e 919a 2abf 4f07 18be ae4b 563d
00000140: 3d5f f13f ef56 babf 3ec7 d03d 3348 933f
00000150: 7a5d 0e3f acef 3a3e ca26 78bf 0dd8 533e
00000160: 9fe5 08c0 b120 05bf e999 1440 ea7a e0be
00000170: d3ee 9e3e 8a3b cbbf 33af 96be 084b b43d
00000180: 6eeb ecbe bcfd 8cbf e753 063f c3bf 643f
00000190: 1652 4d3f b7a1 69bd fe03 0c3e c146 b0bf
000001a0: 2527 4c3e 7008 393f ef31 9a3f 4849 e63e
000001b0: 9eec 0f3f b5fd 893e d895 c4bf 0b8f c9bf
000001c0: eee2 c13f 2a64 ba3e e732 c5bf 7c25 b6be
000001d0: c63b bd3c 6b9f 333f 842f 9e3e bf84 f9bf
000001e0: 4ee2 efbe 1a2d fcbe fa7c 6fbe 4d2f c6bf
000001f0: b6ea 89bf 5f18 4bbe e5b5 a93e 6260 2d3e
00000200: 11f4 d3bd a16a 2bbd 0819 ed3e 09dc 0b3f
00000210: 1fa6 b3be 4f77 2abf 8423 c83d ef50 eebe
00000220: 332e b2bf f247 13bf f4e9 103f 5314 75bf
00000230: a875 013f 4a3a 94bf ea4a 783f f866 e8bf
00000240: 64eb 16bf 70be 193f aa3f 2a3f 4d62 a6bf
00000250: b521 cb3e db6b a2bf e4da d63f c76b abbf
00000260: 7e07 2e3f 8863 aabd 9620 8c3f 99c3 af3e
00000270: d483 a63e 8ccd 8fbf a8b2 ca3f b132 72bf
00000280: 9151 8b3f 9261 6b3f 9794 4640 f515 febe
00000290: 4ff0 c1bf a8a2 e7bd 108a 9f3f 5d78 043e
000002a0: ef30 193f 0e7b 6dbf acc2 d43d 4087 a2be
000002b0: 0138 a1be 23a4 2bbf b2ac 633e 0faf 483f
000002c0: 05dc 803f d4d0 cfbe 6601 df3e 9b50 58bf
000002d0: 8142 56be 1260 4d3e f335 0040 ce55 d3be
000002e0: 3d07 acbe 91dd 0540 d229 bdbe 4cdb 11bf
000002f0: a018 a53d b8ed f3be c026 2140 b193 4dbf
00000300: 5dbf 293e 058e 96be 32a0 d13f 134c 9f3f
00000310: 93c9 5abf 1db9 56be be20 eabd ff1a e9bf
00000320: 24ef 09bf 4ca9 cabd cea1 08bf bb8c 64bf
00000330: 49a0 afbd f883 4e3f 0043 ab3f fb8e bcbf
00000340: 8af0 883f 254f 81bf 404d 3f3f f6a1 22bf
00000350: c5ed 5fbf 4f12 813f e230 c23e 27d5 9e3e
00000360: faba 8bbf 4cc1 9abe 4ec2 84be 2cc9 fabd
00000370: e0cb 383e ec91 1c40 fa36 bc3f 9af4 fd3f
00000380: dab8 1dc0 ba37 463f e914 12be 6376 a63e
00000390: 652b 06bf 9dfd 72bd 0e4b 1e3f 5c4d e0bc
000003a0: 558d ecbd acbf 483d a524 7cbf 12b1 263e
000003b0: fe2e e8bd a603 213f a50d 8bbf d561 553f
000003c0: 521e e33e 46c9 e13e da5d 8f3f e7cb 3abd
000003d0: b6b0 bb3f c71c f93e 12b6 b53f ffc4 4c3f
000003e0: 656d c53f 2174 cc3f 291e 80bc 7cec 3dbf
000003f0: 28c3 43be 5277 ac3d 55af 693d fb1f b5bf

lstm.weight_ih_l0 f4 [8, 5]
-0.3535819 -0.120819785 0.4520373 -0.43308243 0.51435316 0.07906093 -0.54869246 0.27037814
0.38725615 -0.36992103 -0.06755816 0.47496837 0.6582337 0.039055552 0.69992685 0.30545625
-0.053006418 0.39212096 0.31127536 0.639013 -0.5573451 0.060132787 -0.32093412 0.39668068
0.115864955 0.6354788 0.17049102 0.16080107 0.44518983 -0.17292464 0.6877616 -0.46545073
-0.13767862 0.63815993 0.014816615 -0.3358106 -0.41039678 -0.1383907 0.48163167 -0.33286276
00000000: b008 b5be 5d70 f7bd 6f71 e73e fbbc ddbe
00000010: a6ac 033f b2ea a13d 1c77 0cbf 016f 8a3e
00000020: 7046 c63e 4a66 bdbe ef5b 8abd 0e2f f33e
00000030: 0182 283f b7f8 1f3d 682e 333f c364 9c3e
00000040: 421d 59bd 14c4 c83e 7c5f 9f3e 5b96 233f
00000050: 2bae 0ebf cc4d 763d 7a51 a4be bb19 cb3e
00000060: 9b4a ed3d bdae 223f 3395 2e3e 09a9 243e
00000070: ecef e33e 2813 31be 2511 303f 8f4f eebe
00000080: a0fb 0cbe 735e 233f 63c1 723c 5eef abbe
00000090: 871f d2be 4bb6 0dbe 6d98 f63e fd6c aabe

lstm.weight_hh_l0 f4 [8, 2]
-0.648682 0.45285589 -0.44504982 0.34002134 0.43102708 0.6703615 0.44092354 0.6100166
0.65937895 0.46450433 -0.10172235 0.10425257 0.4159506 0.09470915 -0.14728929 -0.33325496
00000000: 0610 26bf badc e73e 92dd e3be 4717 ae3e
00000010: 95af dc3e d09c 2b3f bbc0 e13e 0c2a 1c3f
00000020: 0fcd 283f 83d3 ed3e cf53 d0bd 5f82 d53d
00000030: 7af7 d43e dff6 c13d 01d3 16be 65a0 aabe

lstm.bias_ih_l0 f4 [8]
-0.5105629 -0.52324164 -0.15658619 -0.54776216 -0.58213913 -0.009100179 -0.0785962 -0.415858
00000000: 40b4 02bf 2af3 05bf 2158 20be 243a 0cbf
00000010: 1207 15bf eb18 15bc 0bf7 a0bd 57eb d4be

lstm.bias_hh_l0 f4 [8]
0.5900732 0.41786182 0.5774155 -0.51507366 -0.44854045 -0.39060357 -0.2491579 -0.3998417
00000000: 0a0f 173f fcf1 d53e 81d1 133f dedb 03bf
00000010: 18a7 e5be 31fd c7be 4023 7fbe 0db8 ccbe

lstm.weight_ih_l0_reverse f4 [8, 5]
0.27806103 -0.5750356 0.6332654 -0.6836688 -0.68511677 -0.36021632 -0.2804725 -0.6784622
0.3264957 -0.20060277 0.15726268 -0.34030703 0.1617 0.16465524 -0.58891547 0.53242195
-0.4396881 0.049449436 0.08214715 0.21391457 -0.31295586 -0.6808209 0.004239518 0.51260597
0.19256145 0.57660645 -0.43624973 -0.16332027 0.4728541 0.30339554 0.12763341 -0.13216536
-0.46345347 0.07410924 -0.008372695 -0.7210372 -0.02005056 -0.19187285 -0.4240188 -0.17500864
00000000: 045e 8e3e 8835 13bf ae1d 223f eb04 2fbf
00000010: d063 2fbf 466e b8be 179a 8fbe b3af 2dbf
00000020: 722a a73e d06a 4dbe 7809 213e b93c aebe
00000030: af94 253e 629b 283e 2ac3 16bf ce4c 083f
00000040: cc1e e1be 7e8b 4a3d c43c a83d 6c0c 5b3e
00000050: c03b a0be 474a 2ebf a8eb 8a3b 253a 033f
00000060: d42e 453e 7b9c 133f 205c dfbe 6e3d 27be
00000070: ef19 f23e a956 9b3e 55b2 023e 5b56 07be
00000080: c649 edbe 96c6 973d a12d 09bc e595 38bf
00000090: 1241 a4bc 517a 44be fe18 d9be 7735 33be

lstm.weight_hh_l0_reverse f4 [8, 2]
-0.4994654 -0.3793358 -0.4756736 0.4745833 -0.6479338 0.38450855 -0.51582825 -0.004553337
0.52473915 -0.34706986 0.36321944 -0.5296096 0.27174813 -0.34855884 0.43320897 0.03483085
00000000: eeb9 ffbe 4d38 c2be 7d8b f3be 95fc f23e
00000010: fdde 25bf 4ede c43e 520d 04bf 2934 95bb
00000020: 4e55 063f 24b3 b1be e6f7 b93e 7f94 07bf
00000030: 9222 8b3e 4e76 b2be 91cd dd3e cbaa 0e3d

lstm.bias_ih_l0_reverse f4 [8]
-0.06536484 -0.480543 0.1805025 -0.3899297 -0.4994644 0.82381237 -0.5581154 0.43598738
00000000: 00de 85bd bb09 f6be a6d5 383e dea4 c7be
00000010: ccb9 ffbe 5ee5 523f a7e0 0ebf bd39 df3e

lstm.bias_hh_l0_reverse f4 [8]
0.6345924 -0.45844176 -0.22285438 -0.056951676 0.52445644 -0.2856213 -0.47249973 0.15298757
00000000: a674 223f e1b8 eabe f033 64be 2946 69bd
00000010: c742 063f f43c 92be 7ceb f1be c6a8 1c3e

crf.start_transitions f4 [131]
-0.04733864 0.03131834 0.02105293 -0.040204685 0.074990205 -0.08255649 0.0059707584 0.06940352
-0.014511293 -0.035638247 -0.025669718 -0.03532222 0.041012447 -0.070203945 0.010666652 0.056570042
0.019033698 -0.09172674 -0.08062464 -0.08248201 -0.08660646 0.072291285 -0.10612091 0.022651585
-0.08594616 -0.10220128 -0.08231449 -0.03561377 -0.003822462 -0.01768901 0.029445743 -0.10529538
0.03660006 -0.014712506 0.08847028 -0.10679813 -0.10161199 0.059290048 -0.0141637735 -0.034211528
-0.06514861 -0.01451164 0.011572271 -0.07699733 0.032064475 -0.029132763 0.014096008 -0.020260444
-0.02987259 -0.10356635 0.15002465 0.027719697 0.011948374 0.030439386 0.079163745 -0.08981761
0.027721278 0.016303161 0.031707216 -0.07673349 0.06870124 0.025894314 0.024512116 -0.1006317
0.02188891 -0.053460084 -0.061984163 0.046432354 -0.04230652 -0.018778529 -0.07542127 -0.057829272
0.0431024 -0.07600665 0.0439744 -0.044736307 0.07233958 -0.08835885 0.06842949 -0.07108977
0.061525147 -0.10386458 -0.07842247 0.012840998 0.059529908 -0.0040788585 -0.019281574 0.058834273
0.005333112 -0.026357966 -0.027480667 -0.067048006 -0.06134297 -0.004421406 -0.05879187 -0.06865286
-0.089300215 -0.054362833 0.024463855 -0.054627467 -0.06376861 0.06742792 -0.116596535 -0.012490963
0.035850763 -0.10467518 -0.08143944 0.010725252 -0.09268404 -0.074531525 -0.023269832 -0.006297466
0.029990565 -0.018111503 0.062802784 0.04097109 0.07839328 -0.10410441 -0.031880356 -0.03853959
0.011075431 -0.07860792 0.034626402 -0.04663287 0.079104155 -0.08847729 -0.103863 0.010834912
-0.004790471 0.015377019 1.4057727
00000000: 29e6 41bd a947 003d 3277 ac3c abad 24bd
00000010: 7794 993d 6113 a9bd 5aa6 c33b 6f23 8e3d
00000020: c6c0 6dbc 69f9 11bd 4d49 d2bc 08ae 10bd
00000030: abfc 273d 16c7 8fbd 2ec3 2e3c fdb5 673d
00000040: 8fec 9b3c 3bdb bbbd 881e a5bd 54ec a8bd
00000050: ba5e b1bd 740d 943d eb55 d9bd d18f b93c
00000060: 8a04 b0bd e84e d1bd 8094 a8bd bfdf 11bd
00000070: 4582 7abb 8be8 90bc 3338 f13c 1ba5 d7bd
00000080: f2e9 153d b90c 71bc e82f b53d fab8 dabd
00000090: f219 d0bd 1fda 723d 2c0f 68bc 6321 0cbd
000000a0: a26c 85bd 3bc2 6dbc 9f99 3d3c c7b0 9dbd
000000b0: 0a56 033d d5a7 eebc f1f2 663c 3bf9 a5bc
000000c0: 5db7 f4bc 981a d4bd 10a0 193e 6b14 e33c
000000d0: 1dc3 433c 055c f93c 9a20 a23d 4cf2 b7bd
000000e0: bc17 e33c 358e 853c 6ddf 013d 7326 9dbd
000000f0: 3cb3 8c3d 5020 d43c a2cd c83c fe17 cebd
00000100: 5f50 b33c f6f8 5abd 1be3 7dbd da2f 3e3d
00000110: 9a49 2dbd 6ed5 99bc 7876 9abd 63de 6cbd
00000120: 248c 303d 60a9 9bbd 801e 343d 6b3d 37bd
00000130: c626 943d 7cf5 b4bd c324 8c3d 8397 91bd
00000140: cb01 7c3d f4b6 d4bd f69b a0bd 0d63 523c
00000150: a2d5 733d f2a7 85bb 64f4 9dbc 35fc 703d
00000160: 63c1 ae3b a9ec d7bc 231f e1bc 7750 89bd
00000170: c442 7bbd 71e1 90bb becf 70bd df99 8cbd
00000180: 08e3 b6bd 90ab 5ebd 6c68 c83c 0dc1 5fbd
00000190: 1e99 82bd a617 8a3d 2aca eebd e5a6 4cbc
000001a0: 40d8 123d f15f d6bd b9c9 a6bd f8b8 2f3c
000001b0: 21d1 bdbd fca3 98bd 60a0 bebc f95a cebb
000001c0: c6ae f53c 935e 94bc bf9e 803d 4dd1 273d
000001d0: a88c a03d b134 d5bd fa94 02bd b0db 1dbd
000001e0: b975 353c 30fd a0bd 6ad4 0d3d 1c02 3fbd
000001f0: 5c01 a23d 9533 b5bd 20b6 d4bd ea84 313c
00000200: 62f9 9cbb e4ef 7b3c 5cf0 b33f

crf.end_transitions f4 [131]
-0.12243983 -0.05692926 -0.038657296 -0.0075603887 -0.043205034 0.1945389 -0.09780129 -0.11899276
-0.07002333 0.27804065 0.063034415 0.02675927 0.011782011 -0.09171528 0.013774257 0.04967144
-0.10616608 -0.10345721 0.055092763 0.042856112 -0.08815428 -0.10677025 0.044425122 0.05240829
-0.10978746 0.05816753 0.014770699 0.020565148 -0.068946645 0.0659692 -0.111754216 0.08459674
-0.07426993 -0.027945075 -0.030806916 0.07334571 0.0045694266 0.07842202 -0.05518335 0.24799733
0.040482875 0.032467026 -0.036241524 -0.091457985 -0.015147781 0.06395429 -0.085514 0.073702134
0.05338426 0.031406168 -0.020166188 -0.027109344 -0.029672025 -0.001013847 0.035008047 -0.007540425
0.039832253 -0.077325925 0.05493122 0.04285729 -0.09654903 -0.033876516 -0.06527798 0.054446407
0.0040778103 0.071511604 -0.10582076 -0.10814446 -0.059303578 0.0043279296 0.045369208 0.10212248
-0.06813849 0.04538984 0.056994732 -0.098697975 -0.08838209 0.17347859 -0.09684163 0.10666144
0.07020566 0.12361324 0.012272939 -0.06734433 -0.071136825 0.069374144 -0.008212012 0.07978247
-0.058572628 -0.080812424 -0.09531602 0.026574811 0.0691939 -0.098654516 -0.012202608 0.057501897
0.05274135 0.020116575 0.025782995 0.026828364 0.056955256 -0.011237536 -0.070997074 -0.04604696
-0.043441236 0.009960781 0.06426324 0.017220914 0.063447505 0.030531973 -0.121627755 -0.015619699
-0.11395995 -0.042962823 0.030938141 0.06478061 -0.065677576 -0.10146441 0.031285074 0.31626692
-0.032068424 0.010704752 -0.11531956 0.047219142 -0.02702743 0.038191594 -0.10021899 0.03532249
-0.04686628 0.047095258 0.1508563
00000000: bcc1 fabd a82e 69bd 1d57 1ebd 23bd f7bb
00000010: c3f7 30bd 3535 473e 0b4c c8bd 7ab2 f3bd
00000020: 6468 8fbd 585b 8e3e 3018 813d 4236 db3c
00000030: 5609 413c 39d5 bbbd 6cad 613c 4874 4b3d
00000040: 9a6d d9bd 60e1 d3bd f3a8 613d e489 2f3d
00000050: 3b8a b4bd 5caa dabd 1ef7 353d 13aa 563d
00000060: 3fd8 e0bd 1341 6e3d cd00 723c 3e78 a83c
00000070: e633 8dbd dc1a 873d 65df e4bd 0e41 ad3d
00000080: d51a 98bd 12ed e4bc c95e fcbc 4736 963d
00000090: 21bb 953b b99b a03d f007 62bd 03f3 7d3e
000000a0: 5fd1 253d 25fc 043d fe71 14bd 534e bbbd
000000b0: 662e 78bc 77fa 823d f721 afbd 25f1 963d
000000c0: 74a9 5a3d c1a3 003d 9033 a5bc 6a14 debc
000000d0: bf12 f3bc 0fe3 84ba 9964 0f3d ab15 f7bb
000000e0: 2527 233d 0e5d 9ebd 8fff 603d 208b 2f3d
000000f0: 7fbb c5bd 1ac2 0abd 76b0 85bd 3203 5f3d
00000100: 279f 853b ad74 923d 8eb8 d8bd d87a ddbd
00000110: 4fe8 72bd 4ed1 8d3b 10d5 393d 9725 d13d
00000120: 318c 8bbd b2ea 393d 4f73 693d 2a22 cabd
00000130: ab01 b5bd 5fa4 313e e854 c6bd 5071 da3d
00000140: fcc7 8f3d f028 fd3d 7014 493c d3eb 89bd
00000150: 2fb0 91bd 0814 8e3d ad8b 06bc fe64 a33d
00000160: dae9 6fbd fc80 a5bd 0c35 c3bd 6bb3 d93c
00000170: 88b5 8d3d 610b cabd 73ed 47bc 1c87 6b3d
00000180: 5007 583d 84cb a43c dc36 d33c 28c7 db3c
00000190: ea49 693d a41d 38bc ea66 91bd bd9b 3cbd
000001a0: 70ef 31bd 8b32 233c 729c 833d e012 8d3c
000001b0: c4f0 813d 301e fa3c f917 f9bd c4e9 7fbc
000001c0: d663 e9bd c9f9 2fbd fc71 fd3c b2ab 843d
000001d0: f781 86bd 93cc cfbd c724 003d bded a13e
000001e0: 2e5a 03bd fc62 2f3c a92c ecbd dc68 413d
000001f0: a168 ddbc ca6e 1c3d 9d3f cdbd 51ae 103d
00000200: dbf6 3fbd f5e6 403d 137a 1a3e

crf.transitions f4 [131, 131]
0.03809324 -0.033078693 0.035303846 0.06090192 0.0079294555 0.04458128 0.0037873264 -0.07727064
-0.08464957 0.089299865 0.013803527 -0.051986434 -0.04874255 0.09882679 0.061091732 0.08895577
0.05919737 0.05439485 0.022052268 0.07810786 0.09776127 0.0046760994 0.061344635 -0.013104615
0.035150126 -0.056464568 0.03063816 0.026885329 0.09644688 0.031274486 0.058847595 -0.08077462
0.027962856 -0.07841096 -0.05676075 0.041648973 -0.077878945 -0.0025478115 -0.015108346 -0.01686396
0.059381824 -0.050675966 -0.06641054 -0.097852334 0.015353558 -0.09802501 0.07458875 0.076744005
-0.07546872 -0.09529877 -0.0047711227 0.07074514 0.054222696 0.07372798 0.09669464 0.063831374
0.08316116 0.02789993 0.0988522 0.03612366 0.024944484 0.082529746 0.05032606 -0.07891198
-0.03188695 0.088710666 -0.037115157 -0.09616416 0.046902284 0.004357734 0.08026559 -0.044621356
0.009034901 -0.06954359 0.008409529 0.0031592534 0.08293131 -0.056044072 -0.05053762 0.08109875
-0.025981946 0.035263926 0.07975025 -0.048511207 -0.009012527 0.0416377 -0.037492633 0.0734883
-0.028406736 -0.0502283 0.05006726 -0.09328562 0.063464254 -0.05147075 -0.018218866 0.051566966
0.093865566 0.033805784 0.02104607 0.079105034 -0.089487955 0.06302947 0.036428496 -0.059442185
0.05042469 0.058608595 0.0146897165 0.086122975 0.048730537 0.037941605 0.029591536 0.05954439
0.08148478 0.004866837 0.07054227 0.05163074 0.059264805 -0.030459845 0.037872367 -0.014381486
0.05396203 -0.076414995 0.058618493 -0.015556286 -0.071172595 -0.09893794 0.08448849 -0.076589145
-0.005554988 -0.07189736 -0.021788197 -0.031659458 0.073658206 -0.083109304 0.09898566 0.028624678
-0.05479703 -0.08769276 0.08525941 0.040441796 -0.05675158 0.05275746 -0.03668353 -0.07357986
-0.039824378 0.07048947 -0.03920143 -0.0014483763 -0.032402683 -0.08598094 -0.015663112 -0.06166709
-0.022709344 -0.06689619 0.07183626 -0.06329672 0.01240892 0.06107427 -0.08888489 -0.012865302
-0.048564542 -0.03691443 -0.05060773 0.059091736 -0.0920251 0.08346777 0.061931465 0.094392315
0.04299301 0.06485774 -0.0146945445 -0.07694601 -0.06883117 0.008200011 0.09088815 0.034685183
0.026384482 0.0032004134 -0.06340596 -0.091634504 -0.036363546 -0.002258358 0.06384761 -0.027755933
-0.057970192 0.03424404 0.09122529 0.029885668 -0.09279684 0.08911199 -0.08620751 -0.0530514
-0.05733107 0.044788472 0.050911523 0.037416376 -0.06384693 -0.0080105895 0.070185296 -0.07190892
-0.09604086 -0.08612926 -0.09249414 0.07196596 0.028640475 0.0878249 0.042484153 -0.09561493
-0.08649095 0.09243957 -0.0057383114 -0.06622903 -0.060269088 -0.036476944 -0.0106358845 0.041832946
-0.09442739 -0.091945134 0.092750706 0.016511176 -0.093732126 0.0059475 0.02214043 -0.0022865287
0.081238054 -0.055256803 0.07670427 0.04428323 -0.03797365 0.04380638 -0.08874641 0.0064995564
-0.02652703 0.08100279 0.08127343 0.04914632 0.017597266 -0.089583606 0.08563053 0.0720886
-0.054790914 -0.06490636 -0.055556934 -0.057297226 0.039228667 -0.003514448 -0.07452853 0.010561338
-0.009768069 -0.07134871 0.06482747 0.026921824 0.051880524 0.049551606 -0.08678435 -0.07976984
00000000: a807 1c3d 867d 07bd c49a 103d 4b74 793d
00000010: 8cea 013c dc9a 363d cb34 783b 1240 9ebd
00000020: c15c adbd d9e2 b63d 3028 623c baef 54bd
00000030: 45a6 47bd b365 ca3d 533b 7a3d 712e b63d
00000040: f178 723d 22cd 5e3d f5a6 b43c 04f7 9f3d
00000050: 1037 c83d f739 993b 8344 7b3d bdb4 56bc
00000060: 94f9 0f3d 6447 67bd e1fc fa3c 9f3e dc3c
00000070: f185 c53d ad19 003d 2d0a 713d 2a6d a5bd
00000080: 5c12 e53c ed95 a0bd f67d 68bd 1d98 2a3d
00000090: ff7e 9fbd 2ff9 26bb ff88 77bc 4a26 8abc
000000a0: 5b3a 733d 9a91 4fbd 4002 88bd ce66 c8bd
000000b0: 7d8d 7b3c 56c1 c8bd fdc1 983d f62b 9d3d
000000c0: 588f 9abd 002c c3bd 1457 9cbb d4e2 903d
000000d0: 9e18 5e3d b2fe 963d d707 c63d 06ba 823d
000000e0: 6650 aa3d 658e e43c 0673 ca3d 67f6 133d
000000f0: 6058 cc3c 5b05 a93d b322 4e3d 9b9c a1bd
00000100: e49b 02bd f0ad b53d 1006 18bd b7f1 c4bd
00000110: 9c1c 403d 53cb 8e3b 4962 a43d e2c4 36bd
00000120: 1f07 143c df6c 8ebd 1fc8 093c 7a0b 4f3b
00000130: e4d7 a93d 788e 65bd 8900 4fbd 1a17 a63d
00000140: 17d8 d4bc e870 103d 1954 a33d b0b3 46bd
00000150: 47a9 13bc 4b8c 2a3d e091 19bd 0981 963d
00000160: 3eb5 e8bc 31bc 4dbd 5413 4d3d 880c bfbd
00000170: 8cf9 813d fed2 52bd bb3f 95bc e237 533d
00000180: 973c c03d ef77 0a3d cf68 ac3c d201 a23d
00000190: 7645 b7bd 9815 813d 0c36 153d a679 73bd
000001a0: 1f8a 4e3d 910f 703d 23ad 703c 3e61 b03d
000001b0: ac99 473d a868 1b3d f369 f23c d1e4 733d
000001c0: 7ee1 a63d fd79 9f3b 7778 903d c17a 533d
000001d0: a7bf 723d ed86 f9bc 0e20 1b3d 53a0 6bbc
000001e0: 4a07 5d3d 777f 9cbd f219 703d cbdf 7ebc
000001f0: f0c2 91bd fa9f cabd 4d08 ad3d c5da 9cbd
00000200: 9e06 b6bb ec3e 93bd 297d b2bc 59ad 01bd
00000210: 1dda 963d 3635 aabd feb8 ca3d 4d7e ea3c
00000220: da72 60bd 4398 b3bd 7c9c ae3d 4ca6 253d
00000230: 5874 68bd 3518 583d 7841 16bd 0ab1 96bd
00000240: e31e 23bd c95c 903d ae91 20bd 72d7 bdba
00000250: adb8 04bd c616 b0bd ed4f 80bc a196 7cbd
00000260: f208 babc df00 89bd e41e 933d b6a1 81bd
00000270: c84e 4b3c 0429 7a3d 4809 b6bd fdc8 52bc
00000280: 9deb 46bd 9633 17bd 0d4a 4fbd 2d0a 723d
00000290: a877 bcbd 26f1 aa3d d9ab 7d3d c250 c13d
000002a0: 7019 303d 23d4 843d 63c1 70bc df95 9dbd
000002b0: 5bf7 8cbd 5759 063c 9123 ba3d 0d12 0e3d
000002c0: 4524 d83c 07be 513b fcda 81bd dfaa bbbd
000002d0: f1f1 14bd f600 14bb 89c2 823d 6960 e3bc
000002e0: 2772 6dbd 7a43 0c3d 53d4 ba3d cad2 f43c
000002f0: 450c bebd 5980 b63d 908d b0bd 6d4c 59bd
00000300: fcd3 6abd 1e74 373d 9a88 503d ea41 193d
00000310: 2ec2 82bd d93e 03bc 4fbd 8f3d fc44 93bd
00000320: 12b1 c4bd 8a64 b0bd 916d bdbd e462 933d
00000330: 6e9f ea3c 8bdd b33d dd03 2e3d c3d1 c3bd
00000340: 2b22 b1bd f550 bd3d 7208 bcbb 16a3 87bd
00000350: b8dc 76bd d968 15bd 2242 2ebc 0659 2b3d
00000360: 2663 c1bd bb4d bcbd 15f4 bd3d 7242 873c
00000370: a1f6 bfbd 3fe3 c23b d95f b53c 96d9 15bb
00000380: 2360 a63d f554 62bd 2117 9d3d 5562 353d
00000390: 428a 1bbd 526e 333d aec0 b5bd 3bfa d43b
000003a0: 374f d9bc cae4 a53d af72 a63d a74d 493d
000003b0: 2428 903c 9c77 b7bd 0f5f af3d 30a3 933d
000003c0: 706c 60bd a0ed 84bd ab8f 63bd 7fb0 6abd
000003d0: 3dae 203d a752 66bb 6aa2 98bd 7609 2d3c
000003e0: 400a 20bc 461f 92bd 44c4 843d 288b dc3c
000003f0: ac80 543d a0f6 4a3d febb b1bd 5f5e a3bd

hidden2tag.weight f4 [131, 4]
0.28323275 0.17644477 0.23748969 0.116485074 0.27487838 0.084097594 -0.33714783 -0.42068446
0.009550605 0.26243797 0.31713673 -0.003753167 -0.061518624 0.30463454 0.009147016 0.4099069
0.2594767 -0.20096123 0.10657183 -0.2963044 0.11110182 -0.21125312 -0.42288914 0.05707041
-0.2147415 0.22453618 -0.123831235 0.048959013 -0.34543577 -0.29894668 -0.20952694 0.21167143
0.4424345 -0.11555655 0.156281 -0.34948644 -0.016753675 0.1864076 -0.15394741 0.4170706
0.054447908 -0.21496053 0.28838024 0.19268328 -0.18363173 0.2888537 0.028384032 -0.35421383
-0.2823572 0.44358492 -0.08718555 -0.34489366 -0.41729194 0.4937884 -0.4252017 -0.03954063
0.33831424 0.40415925 0.059273556 -0.51553994 -0.24759997 0.27808475 -0.35934475 0.37207788
-0.21776374 0.04859238 0.19237757 0.42812836 -0.07476507 -0.31287637 0.37782404 0.4242056
-0.22783788 -0.0713741 0.26444688 -0.2714036 -0.13268593 -0.032930363 -0.42365697 0.016912421
-0.39329883 -0.41122967 0.11746496 -0.15212598 -0.21204741 0.1497008 0.39051458 0.035563167
0.37415603 0.21336831 -0.3086678 -0.16331404 -0.4613791 -0.3320716 0.0043561687 -0.08744473
0.41467306 -0.076850206 0.40180898 -0.117637336 0.26367205 0.41187865 -0.47880527 0.059265036
-0.047631692 -0.39843354 0.21803516 -0.43892428 -0.14616717 0.46653625 0.15198879 -0.3063366
0.09095712 -0.21361966 0.3675974 -0.29459512 0.112769805 -0.43758833 -0.10803046 0.3073996
0.2521883 -0.2362121 0.110818475 -0.08811616 -0.20218576 0.34259576 -0.01603319 -0.27818137
-0.15678763 0.45468637 -0.22014451 -0.23449406 -0.059663888 0.34860042 0.42720616 -0.2671389
0.13972378 -0.24195749 0.36265498 0.18313861 0.18241331 -0.25137335 -0.10778357 -0.39679182
0.36188293 -0.34209624 0.08902871 0.012725652 0.057120904 -0.16495016 -0.14220983 -0.11610169
-0.22826678 0.36798412 0.040253315 0.1842889 -0.5504669 0.36763632 0.53049946 -0.09692995
0.1355305 -0.20798613 0.30350575 0.38754794 -0.08669242 -0.3299514 0.4357707 0.3753312
0.23622274 0.23378439 0.35039827 -0.037544508 -0.11250032 0.49270356 0.075654946 -0.04171084
0.47131342 0.2792451 -0.30483344 -0.3294425 0.47014517 0.015072099 0.0011128576 -0.030772233
0.19232813 0.06925186 0.13168705 0.36993802 -0.3007374 -0.112725385 0.4874401 -0.23962867
0.48726112 0.10037956 -0.10804808 0.0036287433 0.17628568 -0.46587577 0.23692362 0.13899465
0.2797651 -0.21000206 0.06940396 0.3173067 0.4018882 0.017660055 -0.27482605 0.10085282
-0.36021006 -0.45796475 0.0072862 0.20017204 0.45466447 -0.10845068 0.3089094 -0.15597805
0.43676716 0.48772898 0.3344109 -0.47398975 -0.2633183 -0.033890996 -0.21605058 -0.40582657
0.19270799 -0.05634124 -0.39781705 -0.20327342 0.44637448 -0.4578979 -0.40913808 -0.3942625
0.25797805 -0.07967142 -0.18941401 0.17784008 0.20045947 0.42145002 -0.4338813 0.41487122
0.37513298 0.17251323 -0.32091662 -0.32842064 -0.051116064 0.2922061 -0.30515295 0.34427917
0.046556175 -0.078447446 0.25195733 0.051527735 -0.32660818 0.4605376 0.10302604 0.3849838
00000000: e203 913e f0ad 343e 7f30 733e ba8f ee3d
00000010: dcbc 8c3e 5c3b ac3d a49e acbe f463 d7be
00000020: 247a 1c3c 455e 863e bf5f a23e b2f7 75bb
00000030: f4fa 7bbd 0ff9 9b3e 5edd 153c 51df d13e
00000040: 21da 843e c8c8 4dbe 5542 da3d 36b5 97be
00000050: 5a89 e33d bd52 58be ed84 d8be aac2 693d
00000060: 32e5 5bbe d0ec 653e 3b9b fdbd 3f89 483d
00000070: f5dc b0be 8a0f 99be 3b8e 56be 65c0 583e
00000080: c686 e23e eaa8 ecbd 2008 203e e3ef b2be
00000090: 013f 89bc a2e1 3e3e 64a4 1dbe 478a d53e
000000a0: c504 5f3d 9d1e 5cbe 93a6 933e c44e 453e
000000b0: f509 3cbe a2e4 933e a185 e83c 845b b5be
000000c0: 1f91 90be 901d e33e 568e b2bd e795 b0be
000000d0: 4aa7 d5be d5d1 fc3e 0ab4 d9be 5bf5 21bd
000000e0: 8637 ad3e f6ed ce3e d4c8 723d 6dfa 03bf
000000f0: d98a 7dbe 2061 8e3e 09fc b7be fe80 be3e
00000100: 75fd 5ebe ce08 473d a0fe 443e a433 db3e
00000110: 6e1e 99bd 5531 a0be 2772 c13e 7a31 d93e
00000120: 554e 69be 962c 92bd 9565 873e 6af5 8abe
00000130: d2de 07be fde1 06bd 91e9 d8be eb8b 8a3c
00000140: 775e c9be b28c d2be 7891 f03d eac6 1bbe
00000150: f522 59be 2b4b 193e 87f1 c73e afaa 113d
00000160: 6191 bf3e 397d 5a3e b509 9ebe cc3b 27be
00000170: e239 ecbe 4a05 aabe 31be 8e3b 3916 b3bd
00000180: 0750 d43e a463 9dbd e8b9 cd3e d8eb f0bd
00000190: 0600 873e c2e1 d23e f725 f5be e5bf 723d
000001a0: 7319 43bd 7bff cbbe 9c44 5f3e afba e0be
000001b0: d9ac 15be d7dd ee3e f3a2 1b3e 27d8 9cbe
000001c0: ba47 ba3d 1dbf 5abe ba35 bc3e 2cd5 96be
000001d0: dbf3 e63d 940b e0be 133f ddbd 7b63 9d3e
000001e0: d31e 813e 96e1 71be ccf4 e23d 3f76 b4bd
000001f0: c909 4fbe b668 af3e 0958 83bc ca6d 8ebe
00000200: f08c 20be a7cc e83e 906d 61be 361f 70be
00000210: 1f62 74bd c17b b23e c4ba da3e 6ec6 88be
00000220: c013 0f3e b4c3 77be eaad b93e b088 3b3e
00000230: 8eca 3a3e 02b4 80be a2bd dcbd 4c28 cbbe
00000240: b848 b93e 3d27 afbe af54 b63d 417f 503c
00000250: 9cf7 693d b2e8 28be 749f 11be b9c6 edbd
00000260: c4be 69be 6a68 bc3e a9e0 243d 3bb6 3c3e
00000270: 66eb 0cbf d43a bc3e d0ce 073f 3683 c6bd
00000280: 82c8 0a3e 51fa 54be 1b65 9b3e af6c c63e
00000290: cc8b b1bd 64ef a8be 561d df3e 692b c03e
000002a0: 60e4 713e 2d65 6f3e 6767 b33e 45c8 19bd
000002b0: 9166 e6bd a443 fc3e fbf0 9a3d fcd8 2abd
000002c0: fe4f f13e 37f9 8e3e 2113 9cbe b0ac a8be
000002d0: deb6 f03e f7f0 763c 4edd 913a 0d16 fcbc
000002e0: aaf1 443e ebd3 8d3d f8d8 063e 8468 bd3e
000002f0: 41fa 99be 91dc e6bd c091 f93e 3861 75be
00000300: 4a7a f93e cc93 cd3d 5048 ddbd 36d0 6d3b
00000310: 3c84 343e 4587 eebe 1b9c 723e 9d54 0e3e
00000320: 5f3d 8f3e c80a 57be aa23 8e3d 0676 a23e
00000330: 4ac4 cd3e d2ab 903c 00b6 8cbe ec8b ce3d
00000340: 746d b8be 5b7a eabe 13c1 ee3b e6f9 4c3e
00000350: c8c9 e83e 641b debd 5f29 9e3e b6b8 1fbe
00000360: f29f df3e 9db7 f93e e837 ab3e c9ae f2be
00000370: a8d1 86be 49d1 0abd 5d3c 5dbe 80c8 cfbe
00000380: 3e55 453e 12c6 66bd adae cbbe e826 50be
00000390: 328b e43e 9871 eabe 8c7a d1be c6dc c9be
000003a0: b315 843e c52a a3bd bff5 41be b61b 363e
000003b0: 3f45 4d3e 4cc8 d73e b125 debe 006a d43e
000003c0: 6e11 c03e 4fa7 303e 2f4f a4be c026 a8be
000003d0: 145f 51bd 0a9c 953e 023d 9cbe 5c45 b03e
000003e0: b0b1 3e3d 0ea9 a0bd 8d00 813e bf0e 533d
000003f0: 3039 a7be 96cb eb3e 51ff d23d 991c c53e

hidden2tag.bias f4 [131]
0.14295644 0.016047744 0.41648394 0.61138636 -0.104755595 0.06842419 -0.5070638 0.23336658
-0.063143134 0.56415695 -0.2857039 -0.29004076 -0.114371866 0.23304707 0.11227926 -0.2022293
0.41030595 0.24198183 -0.16835068 0.32616368 -0.5272861 0.30083522 -0.56426424 -0.26990414
-0.22151475 0.006011393 -0.5445879 0.018964667 -0.49265406 0.14928927 0.36717224 -0.17735268
-0.40505257 -0.0069649396 -0.48094526 -0.25187463 0.023131454 -0.3957012 0.17310032 0.58122987
-0.12086267 -0.084470786 -0.3935716 0.16012275 0.15492202 -0.015620913 -0.1017611 -0.07327762
-0.5134862 -0.1052658 0.032356106 0.0827291 0.33928773 -0.3130753 -0.116050415 0.07192705
-0.048057586 -0.23614454 0.14266934 -0.071772635 -0.39508694 -0.2599473 -0.18500023 -0.19376817
-0.13517524 0.28136012 0.26499757 -0.43673795 0.32425243 -0.43875608 0.3624029 -0.21979882
-0.1262936 -0.33793482 0.11443571 0.31084758 0.0469097 0.26802015 -0.2857281 1.0061133
-0.014458216 0.39687008 0.19030617 -0.3378963 -0.18106633 0.2599859 -0.09535193 0.3442024
0.23387726 -0.12374421 -0.09777584 -0.03772812 -0.51044786 -0.47467008 -0.32553127 -0.013747312
0.04274616 -0.5271833 -0.31630462 0.50258964 -0.5067928 -0.1808652 0.28602973 0.30324292
-0.1790117 -0.46009332 -0.2508717 0.027359623 -0.26491 -0.43009773 0.22573857 -0.4096786
-0.3262044 -0.49329993 0.21197589 -0.5117478 -0.07042258 -0.22026089 0.11138419 0.24968484
-0.023075486 -0.37391287 0.1251536 -0.45780972 -0.21476738 -0.06369013 0.35708448 0.41999078
0.008502777 -0.28732777 2.6828783
00000000: 2c63 123e 8f76 833c 623d d53e d183 1c3f
00000010: 1a8a d6bd fb21 8c3d efce 01bf a6f7 6e3e
00000020: 3051 81bd 976c 103f c847 92be 3980 94be
00000030: cc3b eabd e4a3 6e3e abf2 e53d 3315 4fbe
00000040: 9f13 d23e 16ca 773e 1f64 2cbe edfe a63e
00000050: 39fc 06bf 1307 9a3e 9f73 10bf e030 8abe
00000060: c3d4 62be 38fb c43b 1d6a 0bbf ca5b 9b3c
00000070: 273d fcbe 49df 183e 00fe bb3e f19b 35be
00000080: 0d63 cfbe 263a e4bb 753e f6be b6f5 80be
00000090: 2d7e bd3c 5999 cabe 3641 313e 7bcb 143f
000000a0: d986 f7bd 05ff acbd 3782 c9be 38f7 233e
000000b0: e1a3 1e3e dcee 7fbc 2068 d0bd 9412 96bd
000000c0: d573 03bf 9995 d7bd d687 043d e06d a93d
000000d0: 1fb7 ad3e 684b a0be d7ab edbd 7d4e 933d
000000e0: 08d8 44bd e0cf 71be e917 123e 88fd 92bd
000000f0: d648 cabe d017 85be b370 3dbe 2a6b 46be
00000100: 616b 0abe 6f0e 903e c3ad 873e 1e9c dfbe
00000110: 6a04 a63e a3a4 e0be df8c b93e f112 61be
00000120: 1c53 01be cb05 adbe 455d ea3d 6a27 9f3e
00000130: 6324 403d f039 893e f44a 92be 52c8 803f
00000140: 27e2 6cbc 8e32 cb3e 9fdf 423e be00 adbe
00000150: 7469 39be df1c 853e df47 c3bd 4c3b b03e
00000160: 857d 6f3e 9b6d fdbd b33e c8bd cd88 1abd
00000170: b6ac 02bf f507 f3be 09ac a6be 683c 61bc
00000180: 9916 2f3d 7cf5 06bf aef2 a1be b7a9 003f
00000190: 2cbd 01bf ba34 39be 7d72 923e a842 9b3e
000001a0: d84e 37be 5a91 ebbe 4172 80be 4a21 e03c
000001b0: 49a2 87be c535 dcbe 0328 673e 65c1 d1be
000001c0: 4304 a7be cf91 fcbe 3510 593e e701 03bf
000001d0: b739 90bd 128c 61be 651d e43d 62ad 7f3e
000001e0: cd08 bdbc 8271 bfbe 4428 003e 0966 eabe
000001f0: fbeb 5bbe f96f 82bd c7d3 b63e 0809 d73e
00000200: 3b4f 0b3c a01c 93be 47b4 2b40
