temp/best_modeltrigger_Adam_1.model (torch, 155693 bytes, 14 tensors)

word_embeds.weight f4 [3918, 5]
-0.645015 0.6227333 -0.25124323 -1.4121549 1.0199512 4.2778974 -1.9671245 -0.4351041
3.2105057 1.381951 0.31945494 0.94969344 -1.0474188 -1.3478307 0.9652242 1.3950702
0.50044405 -0.55845606 -1.6958866 0.45922264 -1.3092252 0.16987902 -0.12508264 -2.8024728
1.2251467 -0.04687063 -1.5318888 -0.913925 -1.1575798 1.3678969 -2.1605098 0.0548954
-1.1153471 -0.9467262 1.2559805 -1.3922393 -0.23192477 -1.9344314 -1.9991584 1.8757406
-0.9561361 0.047261234 -1.8155017 0.6261872 -0.37381637 0.1515909 1.3514965 1.0159898
-2.5706124 0.9621097 -1.0514747 -0.028101988 -1.1606088 -1.5395769 0.85067004 -2.6299694
1.2844151 -0.032546386 -1.6195287 -0.5381259 -0.46983 0.9785292 -1.6583829 -1.1357479
1.4874662 0.30538127 -1.5096215 -1.8631024 -0.29079422 1.9138478 -0.44143838 0.5953926
-1.6915811 -1.2498938 2.6500525 -0.030676998 0.918208 -0.2649032 -1.2310264 1.838342
1.8175029 -1.6819483 -1.7018672 -2.2921433 1.0382904 1.5999829 1.8266766 0.4297719
-3.1916335 -0.08659957 -2.0937834 1.5162925 1.1308149 -1.2469488 -0.5049775 -1.570454
-0.22694725 -0.36415046 -1.5059361 -0.08108391 2.0648983 -1.4864283 0.48382926 1.9478744
2.741639 -0.39686137 0.79663956 0.1503988 -0.8125493 -0.49884987 -0.516157 0.1769293
-1.7536567 -0.22481187 2.1925807 2.2358003 -2.003977 -1.0703863 -0.34571368 0.22594464
1.5026461 -0.6948203 -1.4354765 1.6299771 -0.1886915 1.5909454 -1.9766881 0.52454185
1.3667767 -1.693361 -0.043336846 1.599038 -0.735588 -1.3995621 1.0495516 -1.4145823
-0.084643744 -0.669787 -0.88932204 -0.63823485 -0.8692473 0.24813148 -0.55773795 -1.2340596
1.0640625 -0.659511 -0.8962919 0.9264454 -1.365444 -1.4625832 -0.23628116 0.9782664
-1.1066494 -0.83265334 1.7527217 -2.4614582 0.70065385 0.4182244 -1.0083736 -0.064397775
-1.2064478 0.54404753 0.8682056 -1.4970523 0.31863445 -0.86993885 -0.52476877 -0.31564948
0.4198204 -0.46867922 -0.6970349 0.8464705 -1.3162005 -1.3723896 0.5281076 -1.8369439
-2.2877703 0.5841543 -0.79291886 -0.80817395 -0.4614904 1.3861393 -0.60701156 -0.12708622
2.2456968 -0.5910848 1.452549 1.595174 -2.0901976 -0.59400344 -0.6039362 -1.2622563
0.28954184 -2.1201758 0.34109902 1.3454894 -0.1829324 -3.3885646 -1.6131096 2.0036225
0.29015204 0.34515032 0.6649155 -0.13196117 0.6223692 -0.24479786 1.2449688 -1.2556387
-0.23126534 -1.5861212 1.0036544 -1.0512707 -1.7803233 0.1391544 0.46089947 0.03135351
-0.82325125 -0.36523545 -2.206537 -1.1002705 0.4729007 -0.75788534 -1.602865 0.07756561
0.29126617 -2.0030286 0.02154871 -0.74609715 -1.0515785 -1.1957656 2.1868417 1.3268986
1.4997563 2.680295 1.4847819 0.3339543 1.4154036 0.4059775 4.254906 -0.11046528
-0.45351237 0.6975205 0.3264073 -2.0069695 0.76936454 0.40087894 1.6865069 -1.9912968
-1.2060492 -0.20107818 -0.18169113 -0.39496818 -1.8340095 1.1585639 -0.120656416 -0.6585592
00000000: b41f 25bf 736b 1f3f f4a2 80be 7ec1 b4bf
00000010: c38d 823f 89e4 8840 bcca fbbf f7c5 debe
00000020: ed78 4d40 c5e3 b03f 998f a33e 1c1f 733f
00000030: d211 86bf b785 acbf ef18 773f a991 b23f
00000040: 1a1d 003f faf6 0ebf d012 d9bf 3b1f eb3e
00000050: b194 a7bf c4f4 2d3e aa15 00be b75b 33c0
00000060: 9bd1 9c3f 6bfb 3fbd ef14 c4bf fdf6 69bf
00000070: 932b 94bf 3f17 af3f cb45 0ac0 00da 603d
00000080: b2c3 8ebf a65c 72bf f8c3 a03f e634 b2bf
00000090: b07d 6dbe 739b f7bf 6ce4 ffbf 4518 f03f
000000a0: 56c5 74bf ff94 413d 5c62 e8bf ce4d 203f
000000b0: dc64 bfbe a53a 1b3e d6fd ac3f f40b 823f
000000c0: ea84 24c0 d24c 763f b996 86bf 2436 e6bc
000000d0: d48e 94bf db10 c5bf 83c5 593f 6b51 28c0
000000e0: b767 a43f 5c4f 05bd b74c cfbf 9ec2 09bf
000000f0: 8f8d f0be e480 7a3f e445 d4bf 3060 91bf
00000100: 4b65 be3f ef5a 9c3e 473b c1bf 247a eebf
00000110: fbe2 94be f7f8 f43f 3604 e2be a66b 183f
00000120: bb85 d8bf 85fc 9fbf 769a 2940 544e fbbc
00000130: ae0f 6b3f 64a1 87be 4692 9dbf ca4e eb3f
00000140: efa3 e83f 154a d7bf c9d6 d9bf 7ab2 12c0
00000150: b3e6 843f 3dcc cc3f 8ad0 e93f 100b dc3e
00000160: b943 4cc0 1e5b b1bd 8c00 06c0 df15 c23f
00000170: 8bbe 903f 059c 9fbf 3546 01bf a304 c9bf
00000180: dc64 68be ee71 babe 84c2 c0bf 520f a6bd
00000190: 4b27 0440 4843 bebf 78b8 f73e f353 f93f
000001a0: 0377 2f40 6a31 cbbe 92f0 4b3f 2502 1a3e
000001b0: 3b03 50bf 4069 ffbe dd22 04bf f42c 353e
000001c0: d377 e0bf 1535 66be 3e53 0c40 5a17 0f40
000001d0: 2941 00c0 6b02 89bf 6201 b1be 085e 673e
000001e0: b556 c03f bedf 31bf b2bd b7bf 17a3 d03f
000001f0: 5838 41be 19a4 cb3f 1e04 fdbf 6048 063f
00000200: 8af2 ae3f 0ec0 d8bf fa81 31bd 47ad cc3f
00000210: 7f4f 3cbf da24 b3bf b557 863f 0811 b5bf
00000220: b359 adbd 2977 2bbf 9caa 63bf 5c63 23bf
00000230: fe86 5ebf 2e16 7e3e eac7 0ebf aaf5 9dbf
00000240: 3333 883f b7d5 28bf 6373 65bf 872b 6d3f
00000250: dec6 aebf ed35 bbbf b0f3 71be ab6f 7a3f
00000260: b0a6 8dbf c528 55bf 2f59 e03f 8888 1dc0
00000270: 0d5e 333f 8221 d63e 6312 81bf fbe2 83bd
00000280: e26c 9abf b346 0b3f b942 5e3f 699f bfbf
00000290: 0e24 a33e 50b4 5ebf 3f57 06bf cf9c a1be
000002a0: b3f2 d63e b9f6 efbe e170 32bf 4ab2 583f
000002b0: 4279 a8bf 76aa afbf 0f32 073f fa20 ebbf
000002c0: d46a 12c0 238b 153f bbfc 4abf 7de4 4ebf
000002d0: 7848 ecbe 036d b13f 1c65 1bbf e422 02be
000002e0: 7fb9 0f40 5551 17bf 20ed b93f a92e cc3f
000002f0: ccc5 05c0 9c10 18bf 909b 1abf 9d91 a1bf
00000300: d43e 943e f6b0 07c0 88a4 ae3e ff38 ac3f
00000310: a252 3bbe 3ede 58c0 607a cebf 5a3b 0040
00000320: cf8e 943e 8bb7 b03e e737 2a3f d420 07be
00000330: 9753 1f3f 4aac 7abe 235b 9f3f c5b8 a0bf
00000340: d2d0 6cbe 0506 cbbf bf77 803f 0a90 86bf
00000350: a2e1 e3bf 7e7e 0e3e 04fb eb3e 8a6c 003d
00000360: 98c0 52bf 2400 bbbe e737 0dc0 aad5 8cbf
00000370: 0a20 f23e c604 42bf ae2a cdbf b8da 9e3d
00000380: d720 953e 9f31 00c0 ec86 b03c 3900 3fbf
00000390: 209a 86bf d90e 99bf 37f5 0b40 d0d7 a93f
000003a0: 04f8 bf3f f489 2b40 550d be3f 0ffc aa3e
000003b0: f22b b53f 48dc cf3e 3128 8840 9f3b e2bd
000003c0: c632 e8be b490 323f dc1e a73e 3072 00c0
000003d0: 13f5 443f 0140 cd3e 75df d73f d0e2 febf
000003e0: d25f 9abf 70e7 4dbe 3d0d 3abe 4539 cabe
000003f0: d3c0 eabf d24b 943f b61a f7bd 5697 28bf

lstm.weight_ih_l0 f4 [8, 5]
-0.7932624 -1.0485477 -1.3182108 -1.9913934 1.7445027 -1.6162411 -0.041019306 2.4390545
-0.6674633 -0.9133561 -0.038318794 -0.108982235 -0.29808822 0.44945157 0.130109 -1.82612
0.14668496 2.1268086 -1.0543704 -1.4961765 -0.3736943 0.0025598481 0.7101752 0.54739803
0.20746127 -1.4485091 -0.24565376 0.4673695 -1.7644836 -1.2687387 -1.2785023 -0.07924202
0.56534624 -2.6568842 1.83799 -0.94306374 -0.33843386 2.2683637 -0.80879605 -0.8180062
00000000: 3f13 4bbf d036 86bf 22bb a8bf fbe5 febf
00000010: dd4b df3f fde0 cebf dc03 28bd 7819 1c40
00000020: e0de 2abf b5d1 69bf 2bf4 1cbd 1432 dfbd
00000030: 059f 98be 841e e63e 4b3b 053e 4dbe e9bf
00000040: 9534 163e a21d 0840 9cf5 86bf b682 bfbf
00000050: dc54 bfbe 20c3 273b 0bce 353f 4722 0c3f
00000060: ba70 543e bf68 b9bf a98c 7bbe 0e4b ef3e
00000070: 99da e1bf 0866 a2bf f7a5 a3bf a449 a2bd
00000080: 88ba 103f 640a 2ac0 4243 eb3f a06c 71bf
00000090: 3447 adbe df2c 1140 420d 4fbf db68 51bf

lstm.weight_hh_l0 f4 [8, 2]
-1.4238608 0.80223215 1.7238245 -1.925068 -1.2629559 1.7408426 0.7447918 0.17573215
1.5234023 -1.1331779 0.009372873 -0.14258282 -0.16338223 1.1267686 0.39369458 -0.5451558
00000000: 1241 b6bf 165f 4d3f 48a6 dc3f a168 f6bf
00000010: 8aa8 a1bf eed3 de3f adaa 3e3f 21f3 333e
00000020: d9fe c23f f90b 91bf ae90 193c 3b01 12be
00000030: ac4d 27be f439 903f 5692 c93e 558f 0bbf

lstm.bias_ih_l0 f4 [8]
0.85632336 -0.4041158 1.0685931 -1.1090895 -1.1376656 1.2596326 0.15782481 0.21846657
00000000: 0238 5b3f 44e8 cebe a9c7 883f a5f6 8dbf
00000010: 079f 91bf a43b a13f d49c 213e b3b5 5f3e

lstm.bias_hh_l0 f4 [8]
0.9092767 -0.43517703 2.013776 -0.58865666 -1.7546692 0.90033644 0.10531923 0.110179745
00000000: 5cc6 683f 86cf debe b5e1 0040 34b2 16bf
00000010: 0099 e0bf 737c 663f 9cb1 d73d eba5 e13d

lstm.weight_ih_l0_reverse f4 [8, 5]
-1.4511855 1.1952266 0.06272352 -1.5345116 -0.29475138 -0.12179244 -0.27203208 -1.2056171
-0.76486665 -0.770034 -1.0758537 1.2970059 -1.1305853 -0.6552121 -0.5746585 0.83714646
0.3509098 0.04973522 -0.32406962 -0.15060982 0.39246488 0.68164706 -0.74935836 0.039577387
0.76839936 -0.076984495 0.11258763 -0.47468287 0.6239953 0.107049376 -2.2185175 2.5871973
0.1751369 -2.9316175 0.16054839 -1.3801352 -0.25495702 -2.6990314 -2.8943095 -0.701655
00000000: 72c0 b9bf 2ffd 983f 3075 803d e06a c4bf
00000010: a7e9 96be 516e f9bd ca47 8bbe a951 9abf
00000020: 4dce 43bf f320 45bf 93b5 89bf 4a04 a63f
00000030: 05b7 90bf fbbb 27bf d21c 13bf 3b4f 563f
00000040: 73aa b33e 28b7 4b3d 74ec a5be 7639 1abe
00000050: 28f1 c83e 6c80 2e3f f3d5 3fbf e61b 223d
00000060: d2b5 443f 0caa 9dbd 5894 e63d a209 f3be
00000070: 28be 1f3f b43c db3d 31fc 0dc0 a494 2540
00000080: 1657 333e 9f9f 3bc0 cc66 243e 45a8 b0bf
00000090: ba89 82be eebc 2cc0 5e3c 39c0 a99f 33bf

lstm.weight_hh_l0_reverse f4 [8, 2]
0.6303362 -0.5132852 0.7807388 -1.305065 0.98479027 0.12068219 0.63296854 -1.5395373
0.95037335 -2.0128791 -0.91662854 1.4174122 0.8177939 -0.5352864 0.5232848 0.011342878
00000000: b75d 213f a966 03bf 7fde 473f 5f0c a7bf
00000010: 371b 7c3f 3928 f73d 3a0a 223f 8f0f c5bf
00000020: ab4b 733f 03d3 00c0 2ba8 6abf c36d b53f
00000030: f15a 513f 8808 09bf fef5 053f 7bd7 393c

lstm.bias_ih_l0_reverse f4 [8]
1.1870062 0.7810685 0.86859787 0.8144317 1.6382594 -1.490996 -0.6481521 0.7373264
00000000: d2ef 973f 1bf4 473f 6e5c 5e3f 997e 503f
00000010: 7cb2 d13f f5d8 bebf 4ced 25bf 6cc1 3c3f

lstm.bias_hh_l0_reverse f4 [8]
0.94900966 2.0522478 0.45103157 1.6870251 1.2202215 -1.4847243 -0.6248395 0.5073585
00000000: 4cf2 723f 0758 0340 9ced e63e 70f0 d73f
00000010: 3830 9c3f 720b bebf 7bf5 1fbf 3fe2 013f

crf.start_transitions f4 [131]
-1.5815812 -1.5199664 1.2605954 -3.193468 -1.6993121 -2.2764213 -1.4705437 -1.4846637
-2.196962 -3.2319906 -1.5602902 -1.6422778 -1.6488181 -2.2945168 -1.7567426 -2.3911018
-1.6421293 -2.5004373 -1.6855551 -1.9123843 -1.6502973 -1.5799644 -1.6884695 -1.6337115
-1.7738923 -2.1258383 -1.6964791 -1.4886438 -1.6275877 -2.0430593 -1.7389988 -1.5958592
-1.5956057 -1.5051249 -1.6950189 -1.6759024 -1.5825201 -1.5880835 -2.1217868 -2.9945054
-1.7110633 -1.8877923 -1.5437427 -2.0068207 -1.560889 -1.575467 -1.673232 -1.5205263
-1.560006 -1.539156 1.2481313 -1.9728063 -1.7491308 -3.3461802 -1.6741972 -1.8522109
-1.9054992 -2.2380638 -1.6555718 -1.7162752 -1.7186317 -2.0967336 -1.5328803 -1.5179632
-1.5763617 -1.5223415 -1.6454254 -1.5610708 0.938212 -2.030153 -1.5760955 -1.5878189
-1.6718582 -1.6414204 -1.75368 -2.0865352 -1.7125273 -1.7690896 -1.7417723 -3.2258592
-1.660459 -1.7807654 -1.644539 -2.2027273 -1.7926168 -2.134058 -1.7395618 -2.1190085
-1.493264 -2.3304813 -1.5037628 -1.6630342 -1.5017831 -1.7158879 -1.5263722 -1.6339519
-1.6657351 -1.6640669 -1.7102896 -2.8764517 -1.6255974 -1.6185638 -1.6231642 -1.5748581
-1.6441419 -1.610483 -1.6271135 -1.598699 -1.6039689 -1.5392636 -1.5929509 -1.6313043
-1.588539 -1.698408 -1.6227734 -1.514699 -1.6423023 -1.5888462 -2.1723392 -3.5701492
0.82346 -1.998303 -1.5767082 -2.1444907 -1.6216094 -1.5550135 -1.6340896 -2.2793558
-1.7340394 -3.0125377 1.1449636
00000000: 4171 cabf 428e c2bf 315b a13f c861 4cc0
00000010: 0f83 d9bf e3b0 11c0 c73a bcbf 7609 bebf
00000020: 079b 0cc0 efd8 4ec0 97b7 c7bf 2936 d2bf
00000030: 790c d3bf 5dd9 12c0 f1dc e0bf d007 19c0
00000040: 4b31 d2bf 2a07 20c0 45c0 d7bf 02c9 f4bf
00000050: f13c d3bf 463c cabf c51f d8bf 751d d1bf
00000060: e70e e3bf bc0d 08c0 3a26 d9bf e18b bebf
00000070: cb54 d0bf 7cc1 02c0 8397 debf 1d45 ccbf
00000080: cf3c ccbf efa7 c0bf 61f6 d8bf f883 d6bf
00000090: 0590 cabf 5246 cbbf 5bcb 07c0 faa5 3fc0
000000a0: 1f04 dbbf 2ea3 f1bf 5c99 c5bf c06f 00c0
000000b0: 36cb c7bf e7a8 c9bf 772c d6bf 9ba0 c2bf
000000c0: 47ae c7bf 1003 c5bf c4c2 9f3f eb84 fcbf
000000d0: 85e3 dfbf d127 56c0 184c d6bf 3f15 edbf
000000e0: 66e7 f3bf 703c 0fc0 c7e9 d3bf e8ae dbbf
000000f0: 20fc dbbf e230 06c0 6c35 c4bf 9e4c c2bf
00000100: 38c6 c9bf 16dc c2bf 4d9d d2bf 2bd1 c7bf
00000110: a92e 703f 07ee 01c0 7fbd c9bf a63d cbbf
00000120: 73ff d5bf 101a d2bf 9678 e0bf cb89 05c0
00000130: 1834 dbbf 8771 e2bf 65f2 debf 7a74 4ec0
00000140: ec89 d4bf 1ff0 e3bf 4180 d2bf 7cf9 0cc0
00000150: 7874 e5bf 6894 08c0 f6a9 debf d69d 07c0
00000160: 4623 bfbf 9b26 15c0 4d7b c0bf 4ede d4bf
00000170: 6e3a c0bf 37a2 dbbf 2a60 c3bf 5625 d1bf
00000180: cf36 d5bf 2500 d5bf c5ea dabf c917 38c0
00000190: 9313 d0bf 192d cfbf d8c3 cfbf f394 c9bf
000001a0: 3e73 d2bf 4f24 cebf 4145 d0bf 2ba2 ccbf
000001b0: da4e cdbf 9706 c5bf d1e5 cbbf 94ce d0bf
000001c0: 3f55 cbbf 6f65 d9bf 0ab7 cfbf a8e1 c1bf
000001d0: f636 d2bf 505f cbbf 9b07 0bc0 537d 64c0
000001e0: 46ce 523f 65c8 ffbf 93d1 c9bf 563f 09c0
000001f0: e690 cfbf af0a c7bf d929 d1bf f7e0 11c0
00000200: 01f5 ddbf 6bcd 40c0 2b8e 923f

crf.end_transitions f4 [131]
-1.897288 -1.819142 -4.2965245 0.12290385 -2.6163998 1.3239223 -1.7791805 -1.865482
-4.720807 1.6019658 -1.8479221 -1.8482269 -3.5600789 -2.2473247 -3.6068466 0.38124058
-2.869031 -2.1966465 -2.3531964 -1.9238274 -1.7571927 -1.8593102 -1.8735108 -1.7384298
-2.4326775 -2.2463224 -1.8286653 -1.688524 -2.7314098 0.6420071 -2.6492026 1.3620127
-1.7438364 -1.7774185 -1.7243533 -1.7573225 -1.8144062 -1.7987854 -3.827186 1.0337529
-3.4409523 1.4179707 -3.3187652 -1.9927808 -1.8362602 -1.7969749 -1.704842 -1.8527098
-1.7473949 -1.8078941 -2.461635 -1.874775 -3.94571 -2.9627867 -2.5180733 -1.9223919
-3.1767745 -1.9896079 -2.5656168 1.1200196 -3.022995 0.7668399 -1.7880623 -1.7216759
-1.862457 -1.9063028 -1.737497 -1.8270236 -1.9515548 -1.9892832 -2.7649539 1.2680713
-2.5836263 0.8163722 -2.8961864 -1.9623091 -3.2480087 1.5696497 -3.6924126 0.042935997
-3.5244625 1.4585794 -3.3973677 -2.0476992 -4.233499 0.8452839 -3.8558936 0.8899414
-2.8203385 -2.2113147 -1.8355864 -1.7237772 -1.8228265 -1.8423421 -1.915181 -1.7721894
-1.8221464 -1.7151914 -4.1300206 0.58841944 -1.8305455 -1.7863857 -1.8417163 -1.7209616
-1.8633934 -1.8651373 -1.8802171 -1.8061664 -1.7162833 -1.7943599 -1.8406162 -1.7383837
-1.8556329 -1.7407162 -1.8074187 -1.7968931 -1.8808596 -1.8269901 -4.190349 1.3738257
-2.155906 -2.0008318 -3.1500108 -2.161824 -1.695907 -1.8220768 -3.4022586 -2.118125
-3.6616719 -2.3451395 -0.56166583
00000000: 55da f2bf a5d9 e8bf 217d 89c0 04b5 fb3d
00000010: 1873 27c0 4976 a93f 30bc e3bf 1dc8 eebf
00000020: da10 97c0 370d cd3f b688 ecbf b392 ecbf
00000030: 55d8 63c0 2bd4 0fc0 93d6 66c0 f731 c33e
00000040: 349e 37c0 db95 0cc0 c59a 16c0 fa3f f6bf
00000050: b1eb e0bf e0fd edbf 34cf efbf de84 debf
00000060: fdb0 1bc0 bfc3 0fc0 b411 eabf 8e21 d8bf
00000070: 6bcf 2ec0 945a 243f 898c 29c0 6f56 ae3f
00000080: 0836 dfbf 7382 e3bf 9cb7 dcbf f2ef e0bf
00000090: 763e e8bf 9a3e e6bf 9ef0 74c0 0452 843f
000000a0: 9038 5cc0 1080 b53f a666 54c0 7113 ffbf
000000b0: 930a ebbf 4603 e6bf 4338 dabf 9825 edbf
000000c0: a3aa dfbf 1369 e7bf 6e8b 1dc0 a1f8 efbf
000000d0: 8386 7cc0 4c9e 3dc0 1d28 21c0 f010 f6bf
000000e0: 4650 4bc0 79ab febf 1133 24c0 cd5c 8f3f
000000f0: c078 41c0 9f4f 443f 3adf e4bf e05f dcbf
00000100: fe64 eebf bb01 f4bf 4d66 debf e9db e9bf
00000110: 8ccc f9bf d5a0 febf 01f5 30c0 2950 a23f
00000120: 225a 25c0 c5fd 503f 1e5b 39c0 f22c fbbf
00000130: 60df 4fc0 48ea c83f 7d50 6cc0 a8dd 2f3d
00000140: cb90 61c0 bbb2 ba3f 796e 59c0 810d 03c0
00000150: d378 87c0 8764 583f f6c6 76c0 33d3 633f
00000160: 6d80 34c0 2e86 0dc0 7ff4 eabf bba4 dcbf
00000170: 6152 e9bf ded1 ebbf a724 f5bf 1ad7 e2bf
00000180: 183c e9bf 648b dbbf 2129 84c0 a8a2 163f
00000190: 514f eabf 49a8 e4bf 5cbd ebbf 7848 dcbf
000001a0: ad83 eebf d2bc eebf f4aa f0bf 7630 e7bf
000001b0: 2caf dbbf 96ad e5bf 5099 ebbf 5b83 debf
000001c0: 6185 edbf cacf debf 7f59 e7bf 9800 e6bf
000001d0: 02c0 f0bf d0da e9bf 5717 86c0 85d9 af3f
000001e0: 5dfa 09c0 a10d 00c0 c799 49c0 535b 0ac0
000001f0: 7b13 d9bf d039 e9bf 9bbe 59c0 5c8f 07c0
00000200: d558 6ac0 c416 16c0 55c9 0fbf

crf.transitions f4 [131, 131]
-1.5633775 -1.6095159 -1.7186095 -1.7329593 -1.6677054 -1.7543397 -1.5575624 -1.3913906
-1.4991102 -2.0517604 -1.5477225 -1.4243237 -1.5466168 -1.6145316 -1.6576588 -1.7946764
-1.5693004 -1.7353573 -1.5190866 -1.4687896 -1.553344 -1.42943 -1.5442668 -1.4906552
-1.6009028 -1.621004 -1.5369383 -1.4667536 -1.5448977 -1.7583317 -1.5599892 -1.5221742
-1.5903053 -1.4201521 -1.4133239 -1.558357 -1.4920746 -1.4057447 -1.6534736 -1.8901548
-1.4893042 -1.6814955 -1.5264933 -1.5691043 -1.4119992 -1.5187273 -1.4227966 -1.52917
-1.557003 -1.482662 -1.4874656 -1.483978 -1.5936929 -1.9348004 -1.5346457 -1.5698752
-1.5633852 -1.5591464 -1.5690758 -1.5576596 -1.5412449 -1.5380077 -1.5951865 -1.4520321
-1.4685771 -1.4104673 -1.474713 -1.557831 -1.5694818 -1.6215007 -1.5671352 -1.672785
-1.578925 -1.5181 -1.6225479 -1.6664932 -1.5019063 -1.7533581 -1.4651597 -1.7370577
-1.5499755 -1.6091427 -1.5595009 -1.5418401 -1.556523 -1.6893399 -1.5022253 -1.6884575
-1.5652959 -1.6688302 -1.3986139 -1.5543542 -1.4275618 -1.4449294 -1.5608141 -1.4596499
-1.6113967 -1.4642217 -1.6328895 -1.8310345 -1.5286927 -1.4491644 -1.4493476 -1.474337
-1.4737709 -1.5316993 -1.608701 -1.5873617 -1.4479526 -1.6050788 -1.5448452 -1.583734
-1.6393596 -1.5355448 -1.5416613 -1.4241185 -1.443282 -1.4872209 -1.6244243 -2.2478518
-1.6060197 -1.5988417 -1.5369189 -1.5310663 -1.6023927 -1.506695 -1.6352494 -1.7604179
-1.6054038 -1.6923043 -2.0062888 -1.4240564 -1.6029786 -1.5808496 -1.7104349 -1.4975543
-1.806275 -1.4219161 -1.4037576 -1.6567671 -1.9777924 -1.5342226 -1.5222725 -1.4049487
-1.5656544 -1.6687943 -1.7725813 -1.6779778 -1.6041812 -1.6072342 -1.6069177 -1.5123041
-1.5442828 -1.47636 -1.599911 -1.6312158 -1.5856974 -1.6123403 -1.4312003 -1.5849789
-1.7501233 -1.5519289 -1.5909095 -1.6114893 -1.3798317 -1.423052 -1.5165421 -1.5370585
-1.3522189 -1.5575964 -1.8735124 -1.4958936 -1.605502 -1.5146111 -1.4384009 -1.4430368
-1.5689003 -1.4558764 -1.4759824 -1.4639416 -1.5390518 -1.546776 -1.6386178 -1.5083864
-1.8064275 -1.5330124 -1.4491218 -1.5414854 -1.7012244 -1.4639399 -1.5746522 -1.437895
-1.518759 -1.4873203 -1.3777827 -1.50973 -1.4434547 -1.4896764 -1.5842066 -1.5383698
-1.5535097 -1.5190771 -1.5248421 -1.5030792 -1.4925724 -1.5801079 -1.5281755 -1.59558
-1.6444436 -1.610152 -1.8605661 -1.578841 -1.7046821 -1.4456326 -1.6485481 -1.5806481
-1.6742961 -1.5196605 -1.6000596 -1.494842 -1.5234617 -1.446003 -1.4105781 -1.493214
-1.527343 -1.5631363 -1.4620074 -1.5180644 -1.5819571 -1.4818611 -1.8103912 -1.5738368
-1.3892893 -1.5044467 -1.504868 -1.5828536 -1.4857917 -1.5617174 -1.5871615 -1.4171249
-1.5395228 -1.5208206 -1.4760246 -1.6318982 -1.6397032 -1.5301601 -1.5815591 -1.473123
-1.5328655 -1.6950703 -2.3104825 -1.4307358 -1.6209221 -1.384654 -1.6107349 -1.5099187
00000000: c11c c8bf 9e04 cebf 65fb dbbf 9cd1 ddbf
00000010: 5f77 d5bf 348e e0bf 345e c7bf 1619 b2bf
00000020: d8e2 bfbf 0b50 03c0 c51b c6bf 3d50 b6bf
00000030: 8af7 c5bf f9a8 cebf 2a2e d4bf f5b7 e5bf
00000040: d6de c8bf 3020 debf 6e71 c2bf 4c01 bcbf
00000050: fad3 c6bf 90f7 b6bf 89aa c5bf cacd bebf
00000060: 62ea ccbf 0f7d cfbf 65ba c4bf 95be bbbf
00000070: 35bf c5bf 0311 e1bf baad c7bf 9bd6 c2bf
00000080: 208f cbbf 8bc7 b5bf cce7 b4bf 3e78 c7bf
00000090: 4dfc bebf 71ef b3bf 06a5 d3bf 98f0 f1bf
000000a0: 85a1 bebf 3f3b d7bf 2264 c3bf 69d8 c8bf
000000b0: 64bc b4bf a865 c2bf 331e b6bf d8bb c3bf
000000c0: e04b c7bf dec7 bdbf 4665 bebf fef2 bdbf
000000d0: 21fe cbbf 8aa7 f7bf 456f c4bf acf1 c8bf
000000e0: 021d c8bf 1c92 c7bf 7ad7 c8bf 6461 c7bf
000000f0: 8347 c5bf 70dd c4bf 122f ccbf 30dc b9bf
00000100: 56fa bbbf 318a b4bf 65c3 bcbf 0267 c7bf
00000110: c8e4 c8bf 568d cfbf e397 c8bf d21d d6bf
00000120: 371a cabf 1a51 c2bf a6af cfbf a64f d5bf
00000130: 773e c0bf 0a6e e0bf 5a8a bbbf e857 debf
00000140: 9965 c6bf 63f8 cdbf ba9d c7bf 045b c5bf
00000150: 253c c7bf 4a3c d8bf eb48 c0bf 601f d8bf
00000160: 9e5b c8bf 3a9c d5bf c805 b3bf 14f5 c6bf
00000170: 58ba b6bf 72f3 b8bf c2c8 c7bf cfd5 babf
00000180: 3f42 cebf 9e6b bbbf 8602 d1bf 575f eabf
00000190: 34ac c3bf 387e b9bf 3984 b9bf 13b7 bcbf
000001a0: 86a4 bcbf b90e c4bf eae9 cdbf ab2e cbbf
000001b0: 8356 b9bf 3973 cdbf 7dbd c5bf ccb7 cabf
000001c0: 89d6 d1bf bb8c c4bf 2855 c5bf 8449 b6bf
000001d0: 77bd b8bf 415d bebf 23ed cfbf cedc 0fc0
000001e0: 0e92 cdbf d8a6 ccbf c2b9 c4bf fbf9 c3bf
000001f0: 341b cdbf 62db c0bf da4f d1bf 6055 e1bf
00000200: df7d cdbf 6d9d d8bf 0967 00c0 7b47 b6bf
00000210: 672e cdbf 4859 cabf 88ef dabf dcaf bfbf
00000220: 0534 e7bf 5901 b6bf 54ae b3bf f210 d4bf
00000230: 4d28 fdbf 6861 c4bf d3d9 c2bf 5cd5 b3bf
00000240: 5d67 c8bf 0d9b d5bf f2e3 e2bf fac7 d6bf
00000250: cf55 cdbf dab9 cdbf 7baf cdbf 2e93 c1bf
00000260: 0fab c5bf 5df9 bcbf e2c9 ccbf aecb d0bf
00000270: 22f8 cabf 2b61 cebf 9231 b7bf 97e0 cabf
00000280: 0a04 e0bf 9ba5 c6bf eca2 cbbf 4845 cebf
00000290: 539e b0bf 9126 b6bf 0d1e c2bf 55be c4bf
000002a0: 8215 adbf 525f c7bf 41cf efbf 7179 bfbf
000002b0: 1781 cdbf c7de c1bf 851d b8bf 6eb5 b8bf
000002c0: bad1 c8bf 285a babf feec bcbf 7062 bbbf
000002d0: a6ff c4bf c2fc c5bf 3abe d1bf ce12 c1bf
000002e0: 0439 e7bf c039 c4bf d37c b9bf 654f c5bf
000002f0: b9c1 d9bf 6262 bbbf 348e c9bf f20c b8bf
00000300: b266 c2bf 8360 bebf 2f5b b0bf d53e c1bf
00000310: 20c3 b8bf b7ad bebf 48c7 cabf 4de9 c4bf
00000320: 68d9 c6bf 1e71 c2bf 072e c3bf e664 c0bf
00000330: 9d0c bfbf fa40 cabf 419b c3bf f73b ccbf
00000340: 217d d2bf 7619 cebf 0827 eebf 7617 cabf
00000350: 0633 dabf 7d0a b9bf a003 d3bf ad52 cabf
00000360: 564f d6bf 3c84 c2bf c1ce ccbf fc56 bfbf
00000370: cb00 c3bf a016 b9bf d38d b4bf a321 bfbf
00000380: fa7f c3bf da14 c8bf 0f23 bbbf ef4f c2bf
00000390: 927d cabf a0ad bdbf e6ba e7bf 7c73 c9bf
000003a0: 3bd4 b1bf b691 c0bf 849f c0bf f29a cabf
000003b0: 6c2e bebf 5be6 c7bf 1c28 cbbf 5964 b5bf
000003c0: 150f c5bf 40aa c2bf 60ee bcbf 0ae2 d0bf
000003d0: cbe1 d1bf 49dc c3bf 8770 cabf 4b8f bcbf
000003e0: f034 c4bf 10f8 d8bf f2de 13c0 5a22 b7bf
000003f0: 607a cfbf 583c b1bf 902c cebf 0445 c1bf

hidden2tag.weight f4 [131, 4]
1.2929705 -1.6298134 -1.3205304 1.5474918 1.3436964 -1.4326867 -1.1323199 1.7393483
1.2034806 -1.4615331 -1.1225868 0.41421518 -0.17006831 -1.6110977 -0.43858722 0.48475158
0.03276776 -0.9877434 -1.3810337 0.76057655 0.0762175 -0.85383105 -1.9549052 1.2280042
1.2535496 -1.2759802 -1.5312724 1.977456 1.9854642 -1.6616362 -1.3744643 1.9762282
-0.27780953 -0.2325295 -0.2529336 -0.63493425 -0.07649452 0.19131714 -1.6066931 0.8960231
1.3215251 -1.6398455 -1.5762693 1.8751895 1.5268993 -1.4341998 -1.541871 1.1749092
-0.1099177 -0.2080878 -0.4114255 -0.088868484 0.30742818 0.79877955 -0.15534146 1.1802049
-0.56221783 -0.31010386 -0.07699252 1.1976558 -0.2964065 -0.686366 0.879586 -0.65597576
0.43226302 -0.26439846 0.1329603 0.40616468 -0.49449837 1.2770871 1.3822938 1.5785528
0.11990097 -0.5793942 -0.50007915 0.15013322 1.2868556 -0.70776284 -1.0813164 0.52163225
1.1792735 -1.4559858 -1.1797185 2.0697114 1.4851195 -1.0987644 -1.0540315 2.0225756
1.1797528 -1.5325983 -1.3571184 1.1867844 1.2563299 -1.4575827 -1.0717307 1.2731833
0.416301 -0.76738095 0.32820272 0.26825458 0.50926125 -1.4438903 0.4725797 -0.059000622
1.4962046 -1.6490519 -0.8708933 1.2438011 1.9522446 -1.5772206 -1.54241 1.980372
1.0570768 1.4408164 -1.7892079 1.0731317 -0.16797623 -0.14587025 0.43547425 -0.9531195
0.8489021 1.3233163 -0.3510683 0.89048505 0.60725 -0.41539562 -1.1974909 1.358529
1.7371681 -1.3303277 -1.4175935 1.2583854 1.7657483 -1.5497177 -1.3988045 1.805531
1.5159118 -1.5307664 -1.3851511 1.6984671 1.9171156 -1.3487518 -0.7821849 2.0192943
1.735411 -1.1846055 -1.3448739 1.2064952 2.1236358 -1.7133099 -1.3707423 2.0039318
1.4741255 -2.2580159 -1.2566091 -1.1230401 0.973304 0.23577128 -2.3489878 -1.3581164
1.4574533 -1.319807 -1.8022754 1.1930189 0.30933803 -1.3036798 1.0284988 -0.67302364
0.36311233 -1.3071712 -0.09340125 0.6296354 0.80120105 -0.7260213 1.131151 0.9587223
1.4887018 -1.7643377 -1.2928092 1.9178457 1.3063984 -1.38987 -1.4648342 2.1135914
1.6644882 -1.7476206 -1.2837565 1.868277 1.6576481 -1.7448379 -0.8318897 2.1082752
1.6009223 -1.5988673 -0.95827305 1.599977 1.5272754 -1.8053404 -1.2543685 1.2867422
0.83664787 0.0047841594 0.22289774 0.060982704 1.1214457 -0.69655585 -0.2584951 -0.006910635
-1.6059111 -0.5929654 -1.6308235 2.1464431 0.5686832 -1.2577521 -2.4205387 -1.3617375
0.043052014 -0.43133083 -1.2039268 1.7219899 0.87325996 -0.8823952 -0.72246975 -0.17866614
0.9139673 -0.95545477 0.6011119 0.47317693 1.061776 -0.6926836 -0.7413076 0.27047828
1.2706692 -1.3043106 -0.648817 1.6381555 0.88879013 -0.3253758 -0.96053624 1.1952884
0.9854189 -1.2294819 -0.56549555 1.5901926 0.3002151 -0.37485775 -1.3929024 0.9749449
1.148853 -1.725288 -0.89911085 1.9063761 1.4961237 -1.3698592 -1.6383097 2.091233
00000000: 0f80 a53f ba9d d0bf 2407 a9bf 3614 c63f
00000010: 3efe ab3f 4762 b7bf dcef 90bf f7a2 de3f
00000020: a70b 9a3f 8413 bbbf edb0 8fbf 0314 d43e
00000030: 6326 2ebe 7338 cebf 818e e0be 5c31 f83e
00000040: 7d37 063d c0dc 7cbf b6c5 b0bf 25b5 423f
00000050: ec17 9c3d ac94 5abf 553a fabf 3e2f 9d3f
00000060: 5074 a03f 5253 a3bf bc00 c4bf 471d fd3f
00000070: b123 fe3f 7fb0 d4bf 72ee afbf 0cf5 fc3f
00000080: 0d3d 8ebe 371c 6ebe 8380 81be 0d8b 22bf
00000090: 29a9 9cbd a4e8 433e 1fa8 cdbf c561 653f
000000a0: bc27 a93f 75e6 d1bf 31c3 c9bf 3606 f03f
000000b0: 7071 c33f dc93 b7bf 075c c5bf 6d63 963f
000000c0: 881c e1bd f814 55be 5da6 d2be ae00 b6bd
000000d0: 3a67 9d3e d17c 4c3f d511 1fbe f410 973f
000000e0: 82ed 0fbf efc5 9ebe 41ae 9dbd c94c 993f
000000f0: 98c2 97be afb5 2fbf 8c2c 613f 07ee 27bf
00000100: 9451 dd3e 3c5f 87be bf26 083e d1f4 cf3e
00000110: e42e fdbe 9777 a33f 01ef b03f 050e ca3f
00000120: a48e f53d 2e53 14bf 3005 00bf 86bc 193e
00000130: afb7 a43f f22f 35bf 9368 8abf b189 053f
00000140: 6ff2 963f be5d babf 0401 97bf 2776 0440
00000150: 6518 be3f 50a4 8cbf 81ea 86bf e171 0140
00000160: 2402 973f 2e2c c4bf 0eb6 adbf 8de8 973f
00000170: 6bcf a03f 1292 babf 792e 89bf acf7 a23f
00000180: 6825 d53e 1473 44bf 300a a83e aa58 893e
00000190: f25e 023f 66d1 b8bf f7f5 f13e a3aa 71bd
000001a0: a283 bf3f 2214 d3bf ddf2 5ebf e034 9f3f
000001b0: 27e3 f93f 5de2 c9bf b16d c5bf d47c fd3f
000001c0: 4b4e 873f ac6c b83f c404 e5bf 615c 893f
000001d0: f601 2cbe 035f 15be 7bf6 de3e a4ff 73bf
000001e0: a651 593f 6e62 a93f 39bf b3be d4f6 633f
000001f0: bc74 1b3f bcae d4be 6247 99bf 47e4 ad3f
00000200: 865b de3f 2e48 aabf b473 b5bf c612 a13f
00000210: 0a04 e23f 265d c6bf 070c b3bf a41b e73f
00000220: 6609 c23f 27f0 c3bf a24c b1bf 5f67 d93f
00000230: 0b64 f53f e6a3 acbf 453d 48bf 1e3c 0140
00000240: f321 de3f 27a1 97bf d424 acbf 6f6e 9a3f
00000250: a6e9 0740 bd4d dbbf 7c74 afbf 6b40 0040
00000260: 25b0 bc3f 5583 10c0 91d8 a0bf c7bf 8fbf
00000270: 732a 793f 076e 713e d155 16c0 c2d6 adbf
00000280: d48d ba3f 70ef a8bf f6b0 e6bf d8b4 983f
00000290: 8e61 9e3e fbde a6bf d9a5 833f 474b 2cbf
000002a0: dce9 b93e 6351 a7bf 2849 bfbd c92f 213f
000002b0: 831b 4d3f 88dc 39bf 8ec9 903f d36e 753f
000002c0: c88d be3f d1d5 e1bf c67a a5bf f87b f53f
000002d0: 1038 a73f 43e7 b1bf b07f bbbf 1545 0740
000002e0: f30d d53f 08b2 dfbf 2252 a4bf b323 ef3f
000002f0: d02d d43f d956 dfbf b9f6 54bf fbed 0640
00000300: 06eb cc3f afa7 ccbf 6251 75bf 0ccc cc3f
00000310: c37d c33f 6515 e7bf 268f a0bf f8b3 a43f
00000320: 8e2e 563f 70c4 9c3b 4e3f 643e 00c9 793d
00000330: 888b 8f3f 7c51 32bf 7859 84be 9c72 e2bb
00000340: 7f8e cdbf 95cc 17bf d3be d0bf 535f 0940
00000350: 3995 113f 05fe a0bf 1bea 1ac0 6a4d aebf
00000360: 4f57 303d 65d7 dcbe 461a 9abf 2a6a dc3f
00000370: f78d 5f3f a7e4 61bf c7f3 38bf 42f4 36be
00000380: c3f9 693f af98 74bf 78e2 193f 3f44 f23e
00000390: 47e8 873f b653 31bf 56c6 3dbf 217c 8a3e
000003a0: 4aa5 a23f a6f3 a6bf df18 26bf 14af d13f
000003b0: c087 633f a897 a6be b4e5 75bf 36ff 983f
000003c0: 6a44 7c3f aa5f 9dbf 51c4 10bf 6e8b cb3f
000003d0: cbb5 993e 5bed bfbe a04a b2bf fd95 793f
000003e0: 9d0d 933f 3dd6 dcbf 212c 66bf 2204 f43f
000003f0: fb80 bf3f 8c57 afbf 22b4 d1bf c3d6 0540

hidden2tag.bias f4 [131]
-1.2029283 -1.5852059 0.29033893 0.26246664 -0.41108158 0.2586596 -1.3845651 -1.8975545
0.037295826 0.34670672 -1.4448035 -1.6429726 -0.7095092 0.21254136 -0.8580857 -0.021945136
-0.5298531 -0.13730045 -1.0601866 -0.6033347 -1.2457916 -1.3898894 -1.6720359 -1.7104595
-0.75812596 -0.6839 -1.8609463 -1.5349755 -0.9877286 -0.20153578 -0.91524315 -0.56437075
-1.8736409 -1.2910682 -1.3376071 -1.6589338 -1.835474 -1.1674082 -0.11635328 0.08811609
-0.48743936 -0.80870736 -0.5997827 -0.3654664 -1.8029773 -1.6026928 -1.5938983 -1.5371182
-1.8432456 -1.4583445 -0.18119663 -0.63579583 -0.5632584 -0.5813923 -0.4151282 -0.62761587
-0.96702707 -0.8375679 -0.4810336 -0.6006685 -0.17904021 0.109762594 -1.5588119 -1.8141959
-2.015818 -2.1205642 -1.3901299 -1.4455816 -0.4893339 -0.37812877 -0.81107396 -0.67995244
-1.0149162 -0.5105304 -0.84631664 -0.69500494 -0.24434781 0.5278708 0.12848413 0.88858706
-0.49002343 -0.27874127 -0.4995501 -0.42266312 -0.2817557 -0.38123718 -0.49044144 -0.3910786
-0.48190144 -0.5055508 -1.5393803 -1.3334103 -1.6777442 -1.8644425 -2.1551993 -1.6527629
-2.109445 -1.3485358 -0.5422944 -0.1503387 -1.839983 -1.382411 -2.0835676 -1.6315107
-1.6673359 -1.6037192 -1.7132868 -2.1485577 -1.7382723 -1.7848814 -1.4340281 -1.6957933
-1.7530346 -2.2117789 -1.632946 -1.7048255 -1.8824456 -1.6326258 -0.011580453 0.46089062
-0.39046723 -0.743538 -0.39400288 -0.68415064 -2.14028 -1.4900837 -0.41042104 -0.11988341
-0.70653486 -0.3687812 1.0957878
00000000: 8ef9 99bf 07e8 cabf 4ea7 943e 0762 863e
00000010: 4979 d2be 086f 843e 6e39 b1bf 11e3 f2bf
00000020: 82c3 183d 8b83 b13e 52ef b8bf ed4c d2bf
00000030: 65a2 35bf 71a4 593e 81ab 5bbf 49c6 b3bc
00000040: 74a4 07bf 7d98 0cbe 32b4 87bf 2574 1abf
00000050: 1976 9fbf e5e7 b1bf 4605 d6bf 56f0 dabf
00000060: 8b14 42bf 1214 2fbf 7d33 eebf 147a c4bf
00000070: c8db 7cbf 655f 4ebe 604d 6abf 9a7a 10bf
00000080: 77d3 efbf b941 a5bf b636 abbf f157 d4bf
00000090: d0f0 eabf a26d 95bf a14a eebd 3576 b43d
000000a0: a791 f9be 7207 4fbf 5c8b 19bf 691e bbbe
000000b0: f6c7 e6bf 0a25 cdbf dc04 ccbf 4ac0 c4bf
000000c0: 79ef ebbf 08ab babf 9c8b 39be 84c3 22bf
000000d0: b431 10bf 20d6 14bf af8b d4be 6fab 20bf
000000e0: 168f 77bf da6a 56bf 094a f6be 69c5 19bf
000000f0: 5156 37be 36cb e03d 2687 c7bf 9237 e8bf
00000100: 2a03 01c0 53b7 07c0 c7ef b1bf d108 b9bf
00000110: f989 fabe 189a c1be 8ba2 4fbf 5d11 2ebf
00000120: c6e8 81bf 1fb2 02bf 35a8 58bf d8eb 31bf
00000130: 5036 7abe 8a22 073f 5891 033e 717a 633f
00000140: 5ae4 fabe 2db7 8ebe 08c5 ffbe 4d67 d8be
00000150: 4842 90be 8531 c3be 241b fbbe 743b c8be
00000160: c9bb f6be c76b 01bf 6a0a c5bf 30ad aabf
00000170: 52c0 d6bf 0da6 eebf c9ee 09c0 bc8d d3bf
00000180: 2601 07c0 d29c acbf ced3 0abf 63f2 19be
00000190: 9084 ebbf d8f2 b0bf 2c59 05c0 58d5 d0bf
000001a0: 436b d5bf ac46 cdbf fb4c dbbf f881 09c0
000001b0: b57f debf fe76 e4bf 3c8e b7bf c10f d9bf
000001c0: 7063 e0bf c98d 0dc0 6004 d1bf b937 dabf
000001d0: faf3 f0bf e2f9 d0bf f1bb 3dbc dbf9 eb3e
000001e0: 52eb c7be 8258 3ebf bfba c9be 7f24 2fbf
000001f0: 59fa 08c0 10bb bebf b522 d2be 6f85 f5bd
00000200: 78df 34bf e4d0 bcbe c642 8c3f
