temp/best_modellr=0.05_1.model (torch, 155693 bytes, 14 tensors)

word_embeds.weight f4 [3918, 5]
0	0xc006ee3c	-2.1082907
1	0x3f5ff00d	0.87475663
2	0x3f36a820	0.7135029
3	0xbf402e28	-0.7507043
4	0xbf17e36d	-0.593314
5	0x3f6d2633	0.9263641
6	0xc00c5fa3	-2.1933372
7	0x3f33c74d	0.70225984
8	0xbfbda77f	-1.4816741
9	0x40409047	3.008806
10	0xc0655052	-3.5830274
11	0x3e1081ea	0.14112058
12	0x3e624166	0.2209526
13	0xbf677e2a	-0.90426886
14	0xbf684511	-0.90730387
15	0xbf44949e	-0.7678927
16	0x3f4cedbf	0.8005027
17	0x402f93b8	2.743391
18	0x4000c23c	2.0118551
19	0xbf09404b	-0.5361373
20	0xbfdf9623	-1.7467693
21	0x3ce256fc	0.027629368
22	0x3d9e023e	0.077152714
23	0xbf90053a	-1.1251595
24	0xbee828e3	-0.45343694
25	0xbf000f28	-0.50023127
26	0x3db39f96	0.08770673
27	0x3fbb6c48	1.464242
28	0xbfdd08b3	-1.726828
29	0xbf8757ee	-1.0573709
30	0x3f0e605a	0.5561577
31	0x3febbdcb	1.8417295
32	0x3f087440	0.53302383
33	0xc0689a72	-3.6344266
34	0xbed986bf	-0.42485616
35	0xbffcc608	-1.9747934
36	0x3ec609e5	0.38679424
37	0x3f402794	0.7506039
38	0xbfb6207c	-1.4228663
39	0xbec9b42c	-0.39395273
40	0x3cca5448	0.024698392
41	0x403352b6	2.8019233
42	0x402097f8	2.5092754
43	0xbee1f386	-0.44131106
44	0x3feac7d8	1.8342237
45	0xc0817c8d	-4.046454
46	0xbe6a0d90	-0.22856736
47	0x3fb05080	1.3774567
48	0xbf0812b7	-0.53153557
49	0xbf8c631d	-1.0967747
50	0xbe0e676d	-0.13906641
51	0x3fee462a	1.8615162
52	0x3fa48bb2	1.2855132
53	0xbf117bf5	-0.5682977
54	0xbf4caa3f	-0.79947275
55	0xbf414b24	-0.7550528
56	0x3f879895	1.0593439
57	0x3f63286a	0.8873354
58	0xbf6f0f1f	-0.9338245
59	0xbf5f6444	-0.8726237
60	0xc0217669	-2.5228522
61	0x3f2349ad	0.63784295
62	0x3eef31c8	0.46717668
63	0xbf9bdc17	-1.2176541
64	0xbed1281d	-0.40850917
65	0xbd238200	-0.0399189
66	0x3c0ddcc0	0.008658588
67	0x3edf2598	0.4358337
68	0xbffa73d6	-1.95666
69	0x3edf4abe	0.4361171
70	0xc026bfe4	-2.605462
71	0x3fc76f46	1.5580833
72	0x4040f747	3.0150926
73	0xbe8c0783	-0.2734948
74	0xc009bb21	-2.1520464
75	0xbfbd3bfd	-1.4783932
76	0x3fd4285a	1.6574814
77	0x3f07e449	0.5308271
78	0xbfd14023	-1.6347698
79	0xbe3d7db6	-0.18504986
80	0xc014274d	-2.3148987
81	0x3fc250e5	1.5180937
82	0x3dfa3082	0.122162834
83	0xbe34ee78	-0.17669094
84	0xbeb2f950	-0.34955835
85	0xbfb0a807	-1.3801278
86	0x3fe7a3ac	1.8096824
87	0xbef42241	-0.47682384
88	0xbf5aea13	-0.8551342
89	0x3eb0f29f	0.34560105
90	0xbfbc36b4	-1.4704194
91	0x3fc11705	1.508515
92	0x3fd34a51	1.6507055
93	0x3b9c54b0	0.0047708377
94	0xbfced4b5	-1.6158663
95	0xbf740eba	-0.9533497
96	0x3f68b2c9	0.90897804
97	0x3fce9e98	1.6142149
98	0xbc75d681	-0.015004755
99	0xbe025781	-0.12728693
100	0x3f3b1827	0.7308373
101	0x3f17be91	0.59275156
102	0xc035ca2e	-2.840465
103	0x40154e6d	2.3329117
104	0xbf71f4d5	-0.9451421
105	0xbfbdebee	-1.4837625
106	0x3f690ac7	0.9103207
107	0x3d114f6a	0.035476126
108	0xbf6e8fbe	-0.93188083
109	0x3f171c97	0.59028
110	0xbf45b4d2	-0.77229035
111	0x3e2f0162	0.17090371
112	0x3f254c16	0.6456922
113	0xbe568cd0	-0.20952153
114	0xbf6b3eb0	-0.9189253
115	0x3e530010	0.20605493
116	0xbd2117c2	-0.039329298
117	0xbfa367fc	-1.2766109
118	0x400ca497	2.1975458
119	0xbdb678de	-0.08909772
120	0x3ee68fb7	0.4503152
121	0xbee77b9c	-0.45211494
122	0xbfc52bb6	-1.5403965
123	0x405110ce	3.2666507
124	0xbfb5e402	-1.4210207
125	0xbfc3b8ad	-1.5290734
126	0xbff17ce2	-1.8866236
127	0xbf964893	-1.1740898
128	0xbf00747d	-0.50177747
129	0xbcd70da9	-0.02625163
130	0xbff1fb87	-1.8904885
131	0xbf45d982	-0.77285016
132	0x3fb36d82	1.4017794
133	0xbf713e5a	-0.94235766
134	0xbf65656a	-0.8960787
135	0xc0000c15	-2.0007374
136	0x3f3d2efe	0.7389983
137	0x3d8c9732	0.06864776
138	0xbebbfe26	-0.36717337
139	0x3e830de1	0.25596526
140	0xbfb19944	-1.3874898
141	0xbdf31c88	-0.11870676
142	0x3f009fe2	0.5024396
143	0xbf07c2dc	-0.53031707
144	0xbf9a9f1e	-1.2079809
145	0xbff4c400	-1.9122314
146	0xbf04c8f2	-0.5186912
147	0x3febd529	1.8424426
148	0xbf6dead3	-0.9293644
149	0xbfcbd34a	-1.5923855
150	0xbf9db442	-1.2320635
151	0x3fc3bb4a	1.5291531
152	0x3f00a71e	0.50255
153	0xbed0bba8	-0.4076817
154	0xbfbd93e5	-1.4810759
155	0xbd109fd0	-0.03530866
156	0x3fa93d66	1.3221862
157	0x3fe443bb	1.783317
158	0xbf9691a6	-1.1763198
159	0xbf891301	-1.0708925
160	0xc021d8f5	-2.528867
161	0xbdaca092	-0.08429064
162	0x3f1bd57b	0.6087262
163	0xbf4ed6b6	-0.8079637
164	0xbd4c7d46	-0.049924158
165	0x3f2a9881	0.6663895
166	0x3f16f0d2	0.5896121
167	0x3d140deb	0.036146086
168	0xbf3075a4	-0.68929505
169	0x3f16c528	0.58894587
170	0x3e7d7bf9	0.24754323
171	0x3f36d824	0.71423554
172	0x402d279a	2.705542
173	0x3c960210	0.01831153
174	0xbfc12293	-1.5088676
175	0x3ec7cb86	0.39022464
176	0x3f88fca9	1.0702106
177	0x405e9b7c	3.47824
178	0xbf3425f4	-0.7037041
179	0xc0341ae8	-2.8141422
180	0x3d61604c	0.055023476
181	0x3f88d51a	1.0690033
182	0x3f6f0845	0.93371993
183	0x3fc20eaa	1.5160725
184	0xbd3cdb1e	-0.046107404
185	0xc00d3391	-2.2062724
186	0x3f16cc20	0.5890522
187	0x3e889945	0.26679435
188	0xbf73cc30	-0.9523344
189	0xbf01c7f1	-0.5069571
190	0xbf43c1e9	-0.7646776
191	0x3f1401af	0.5781507
192	0x3f9609e1	1.1721765
193	0xbf410b89	-0.75408226
194	0xbf5cf065	-0.8630431
195	0xc004b60d	-2.0736115
196	0x3fd054da	1.6275895
197	0x40274caa	2.6140542
198	0x3f3f6f5e	0.7477931
199	0xc0176d49	-2.3660452
200	0x3e54411f	0.20727967
201	0x3eae94f3	0.34098014
202	0x3f33567b	0.70053834
203	0x3fb25a8c	1.3933883
204	0x3ee611c2	0.44935423
205	0xbffdf2fb	-1.9839777
206	0x3f2a15f4	0.6643975
207	0xbf097540	-0.53694534
208	0xbf52644b	-0.82184285
209	0xbf245668	-0.64194345
210	0x3f2717ef	0.65270895
211	0x4000e8ba	2.0142045
212	0xbe22aa37	-0.15885244
213	0xbf7efd40	-0.9960518
214	0x40340cf8	2.8132915
215	0xbfb5d7a2	-1.4206431
216	0x3f84eb76	1.0384357
217	0x3f497bd9	0.787046
218	0xbfa5a211	-1.2940084
219	0xbe891a54	-0.267779
220	0x3fe1ff76	1.7656085
221	0x3fd9b9c2	1.7009814
222	0xbf5597c3	-0.83434695
223	0xbf627a51	-0.8846789
224	0xbfaff5f3	-1.3746933
225	0xc015cf36	-2.3407722
226	0x3e81bc7c	0.25339115
227	0xbd8d515c	-0.06900284
228	0xc0261115	-2.5947926
229	0x3e4cc922	0.19998601
230	0x3f8972f8	1.0738211
231	0xc00212b5	-2.0323918
232	0x3fb41622	1.4069254
233	0x3f4e25a9	0.80526215
234	0x3fe61b87	1.7977151
235	0x3fc781f2	1.5586531
236	0xbf35d0f2	-0.7102195
237	0xbf469e07	-0.7758488
238	0xbf9fd444	-1.2486653
239	0xbf918fff	-1.1372069
240	0xc00e3aa0	-2.2223282
241	0x3e53ed1c	0.20695919
242	0xbe794dcf	-0.24346088
243	0xbf5b95fe	-0.85775745
244	0xbf1144d3	-0.5674564
245	0xbf3c7190	-0.7361078
246	0x3fee883c	1.8635325
247	0x3e6839a2	0.22678235
248	0xbe85c27d	-0.26124945
249	0x3e91433d	0.2837161
250	0x3ea7b44e	0.3275475
251	0xbee90935	-0.45514837
252	0xbfd584d7	-1.6681165
253	0x3f42cb99	0.76091915
254	0xbbbde04d	-0.005794561
255	0xc04bc319	-3.1837828

lstm.weight_ih_l0 f4 [8, 5]
0	0xc01affae	-2.4218554
1	0xbf20e58b	-0.62850255
2	0xbeb45fdd	-0.35229388
3	0xbf2d089d	-0.6759127
4	0xbdadeffd	-0.0849304
5	0xc00dd57c	-2.216155
6	0x3f721fe3	0.94579905
7	0x3fb17cfb	1.3866266
8	0xbedb75d3	-0.4286333
9	0x3ec646e5	0.38725963
10	0xbd4cf15a	-0.05003486
11	0xbf14826f	-0.58011526
12	0xbfd560ca	-1.6670163
13	0xbf0aaba1	-0.54168135
14	0xbfe81125	-1.8130232
15	0xbedd8e02	-0.43272406
16	0xbf4a0fc5	-0.7893031
17	0xbfa2146f	-1.2662486
18	0x3e66275e	0.22475955
19	0xbfd05bfd	-1.6278073
20	0xbf2225ec	-0.63339114
21	0xbc03c570	-0.008042678
22	0x3ec349fe	0.3814239
23	0xbee0ad0e	-0.4388203
24	0x3e369068	0.17828524
25	0xbf37ed50	-0.71846485
26	0x3f1b780e	0.60730064
27	0x3fc0d295	1.5064265
28	0x3d3977ba	0.045280196
29	0x3eb6c0a2	0.35693842
30	0xbfe3a241	-1.7783891
31	0xbf53f099	-0.82789
32	0xbf28336b	-0.6570346
33	0xbe7da680	-0.24770546
34	0xc0398692	-2.8988385
35	0xc00d5d4f	-2.20882
36	0xbd4accb0	-0.04951161
37	0x4031f608	2.7806416
38	0xbf1f037d	-0.621147
39	0x3fd08326	1.6290023

lstm.weight_hh_l0 f4 [8, 2]
0	0xbe6264b4	-0.22108728
1	0xbf0aff1c	-0.54295516
2	0x3fac5f4c	1.3466582
3	0x3c102bea	0.008799532
4	0x3fb6ccda	1.4281266
5	0x3fb039d3	1.3767647
6	0x3fc874c4	1.5660634
7	0x3fa134bc	1.2594218
8	0x3fa235c1	1.2672654
9	0x3f43cb49	0.76482064
10	0x3fa70664	1.3048825
11	0x3d57d04a	0.052688874
12	0x3f9c6ae3	1.2220119
13	0x40226300	2.5372925
14	0x3cb1ec88	0.021719232
15	0x3fe77037	1.808112

lstm.bias_ih_l0 f4 [8]
0	0x3f349851	0.70544916
1	0x3f9bc58e	1.2169664
2	0x3f30b114	0.690202
3	0x3f73f92f	0.953021
4	0x3fcf8f00	1.6215515
5	0x3f9f2dfb	1.2435907
6	0x3fa0c088	1.2558756
7	0x3e580a9d	0.21097799

lstm.bias_hh_l0 f4 [8]
0	0x3edf0f3d	0.43566313
1	0x3ed1e319	0.40993574
2	0x3f6ef70d	0.9334572
3	0x3e934231	0.28761438
4	0x3fd87214	1.6909814
5	0x3fd9f8f9	1.7029105
6	0x3e385c9b	0.18004076
7	0xbe11a74c	-0.14223975

lstm.weight_ih_l0_reverse f4 [8, 5]
0	0xc00b5ef8	-2.1776714
1	0x3f9dc057	1.2324322
2	0xbfbbcc3c	-1.4671702
3	0xbc9f8e80	-0.019477129
4	0xc0203d94	-2.5037584
5	0xbf6a944d	-0.9163254
6	0x3f69a0e2	0.9126111
7	0xbe99dd5e	-0.30051702
8	0xbfed1a9f	-1.8523749
9	0x3f33031b	0.69926614
10	0x3c14bf7c	0.009078857
11	0x3fbd134f	1.4771518
12	0x3f72221a	0.94583285
13	0xbfb0072b	-1.3752187
14	0x3f29aa89	0.6627584
15	0x3daa2b21	0.083090074
16	0xc033cbde	-2.809318
17	0xbfccdd35	-1.6005007
18	0xbfc7916a	-1.5591252
19	0x3e0fd7a7	0.14047109
20	0x3e91e811	0.28497365
21	0xbf169afc	-0.5883024
22	0x3e85f1b4	0.26160967
23	0x3e240dd8	0.16020906
24	0x3f7dbde0	0.9911785
25	0xbd5759dd	-0.052575935
26	0xbdbe108c	-0.092805
27	0xbf6ca937	-0.924457
28	0x40068ed2	2.102467
29	0x3e2cfb74	0.16892797
30	0xbf84cd70	-1.0375195
31	0x40796370	3.8966942
32	0x3f2a516e	0.665305
33	0x3f98d9dc	1.1941485
34	0xbfd93066	-1.6967895
35	0x3f05aebe	0.5221976
36	0xbfa793ae	-1.3091943
37	0xbf37030b	-0.7148902
38	0x400d1d92	2.2049298
39	0x3fd51833	1.664801

lstm.weight_hh_l0_reverse f4 [8, 2]
0	0xbf31828c	-0.69339824
1	0x3efcdba2	0.49386317
2	0x3f6170eb	0.88062924
3	0xbfe76c13	-1.8079857
4	0xbfba7444	-1.4566731
5	0x3f4c5cf1	0.7982932
6	0x3e516e1d	0.20452161
7	0xbfe67be9	-1.8006564
8	0x3f20fe05	0.62887603
9	0x3eacfeb2	0.33788067
10	0x3f3d5535	0.7395814
11	0x3f38eb90	0.7223444
12	0xbf0c0614	-0.54696774
13	0x3ebb526c	0.3658632
14	0x3fee4ebd	1.8617779
15	0x3efdd15b	0.49573788

lstm.bias_ih_l0_reverse f4 [8]
0	0x3e499b12	0.19688061
1	0xbeba6e37	-0.36412212
2	0x3ef83273	0.4847599
3	0x3f97de17	1.1864651
4	0xbf1f4c3c	-0.622257
5	0xbe43149c	-0.1905083
6	0x3ee10b34	0.4395386
7	0xbf9427f4	-1.1574693

lstm.bias_hh_l0_reverse f4 [8]
0	0x3d207fa3	0.039184224
1	0xbe82ee0c	-0.2557224
2	0x3f08ca57	0.53433746
3	0x3fcf0b08	1.6175241
4	0xbfab41fd	-1.3379513
5	0x3d88b7aa	0.06675656
6	0x3fb41c98	1.4071226
7	0xbeba5ccc	-0.36398923

crf.start_transitions f4 [131]
0	0xc00610ec	-2.0947828
1	0xbfffe668	-1.999219
2	0x3f05a6be	0.52207553
3	0xc084861a	-4.14137
4	0xc01e0d09	-2.4695456
5	0xc06dfaad	-3.718425
6	0xc00494de	-2.0715861
7	0xc00316a5	-2.048257
8	0xc03ae722	-2.9203572
9	0xc076a1c2	-3.853623
10	0xbfef433e	-1.8692396
11	0xc003e3f6	-2.0607886
12	0xc053bf74	-3.3085604
13	0xc0988ec6	-4.7674284
14	0xc0538457	-3.3049524
15	0xc098343a	-4.7563753
16	0xc022bfcc	-2.5429564
17	0xc09e859d	-4.95381
18	0xc03ba6b3	-2.9320495
19	0xc0974fc0	-4.728485
20	0xc006e43f	-2.107681
21	0xc00544a3	-2.0823143
22	0xc002ce5c	-2.0438452
23	0xc001912a	-2.024485
24	0xc02f13fb	-2.7355945
25	0xc06addbe	-3.669784
26	0xc00984bf	-2.1487272
27	0xc0028b31	-2.0397456
28	0xc011ab5c	-2.276084
29	0xc0766285	-3.8497632
30	0xbfde2cda	-1.7357438
31	0xc01da086	-2.4629226
32	0xbfff5b08	-1.9949656
33	0xc000f96d	-2.0152237
34	0xc005c463	-2.0901115
35	0xc0055b5a	-2.0837007
36	0xc00cff81	-2.2030947
37	0xc0082adf	-2.1276166
38	0xc0676f37	-3.616163
39	0xc07dac86	-3.963655
40	0xbff73d74	-1.9315629
41	0xc029f994	-2.655858
42	0xc051a59f	-3.2757337
43	0xc0964683	-4.6961074
44	0xc00875e6	-2.132196
45	0xc001807c	-2.023467
46	0xbffa5cc2	-1.9559557
47	0xc0042aad	-2.0651047
48	0xc001b2e6	-2.026544
49	0xc00b8ef0	-2.1805992
50	0x3f5005d9	0.8125892
51	0xc09b39a3	-4.8507857
52	0xc052834b	-3.2892635
53	0xc08b7ad8	-4.3587456
54	0xc053e89a	-3.3110719
55	0xc08caa4e	-4.395789
56	0xc05d8108	-3.4610004
57	0xc0a00fe3	-5.0019393
58	0xc01bbffa	-2.4335923
59	0xc04601b8	-3.093855
60	0xc03e0b66	-2.9694457
61	0xc0846684	-4.137514
62	0xc008cbcb	-2.1374385
63	0xc009adc6	-2.1512313
64	0xc00a1683	-2.157624
65	0xc00038e8	-2.0034733
66	0xc001c2dd	-2.0275185
67	0xc008c093	-2.1367538
68	0x3f8b7e16	1.0897853
69	0xc087aca9	-4.2398267
70	0xc000c0df	-2.011772
71	0xc031ef4c	-2.7802305
72	0xc012da54	-2.2945757
73	0xc03d0084	-2.9531565
74	0xc03cdefd	-2.9511101
75	0xc06addcf	-3.6697881
76	0xbfeda941	-1.8567277
77	0xc04497a5	-3.0717556
78	0xc052f42c	-3.296153
79	0xc0a70ccc	-5.220312
80	0xc01437d6	-2.315908
81	0xc02d7993	-2.7105453
82	0xc0494b47	-3.1452196
83	0xc08f6e03	-4.482179
84	0xc025f14b	-2.5928524
85	0xc0891331	-4.2835927
86	0xc02a8150	-2.6641426
87	0xc087bf7a	-4.2421236
88	0xc01be622	-2.4359212
89	0xc084bdc8	-4.1481667
90	0xc00c0a6d	-2.1881363
91	0xbff9bcd0	-1.9510746
92	0xc00cef3a	-2.2021012
93	0xbfffe0a6	-1.9990432
94	0xc0096b7a	-2.1471848
95	0xc00045d4	-2.004262
96	0xc00231d1	-2.0342906
97	0xc0090696	-2.141027
98	0xc046342f	-3.096935
99	0xc08ce36d	-4.402762
100	0xc008e1b0	-2.1387749
101	0xc0018146	-2.0235152
102	0xbffe410b	-1.98636
103	0xc0058a13	-2.0865524
104	0xbffb4815	-1.9631373
105	0xc0051903	-2.0796516
106	0xc0085a1d	-2.1305
107	0xc007c38c	-2.1213102
108	0xc006ab7b	-2.1042163
109	0xc0005e13	-2.0057418
110	0xc0047cca	-2.0701165
111	0xbff0259d	-1.8761479
112	0xbffe8f69	-1.9887515
113	0xbff1e5e5	-1.8898283
114	0xc0045989	-2.0679648
115	0xbff5ef48	-1.9213648
116	0xc003f3a8	-2.0617466
117	0xc0058202	-2.08606
118	0xc08072b8	-4.0140038
119	0xc08cd55a	-4.401044
120	0x3f835dc2	1.0262988
121	0xc0a37daf	-5.109092
122	0xc049a67b	-3.1507862
123	0xc0881557	-4.252605
124	0xc0001f5b	-2.0019138
125	0xc006a3ef	-2.1037557
126	0xc03f3fe7	-2.9882753
127	0xc09c7ebc	-4.8904705
128	0xc05d5276	-3.458158
129	0xc0ad9453	-5.424356
130	0x3f157f2c	0.58397174

crf.end_transitions f4 [131]
0	0xc01f1322	-2.4855428
1	0xc01db392	-2.464085
2	0xc0b7d168	-5.7443123
3	0xbfd413d2	-1.6568549
4	0xc07eaf33	-3.9794433
5	0x3eb40fd5	0.3516833
6	0xc0186772	-2.3813138
7	0xc0227421	-2.538338
8	0xc0bbaf8f	-5.8651805
9	0x3fa22ed8	1.2670546
10	0xc01ab4a8	-2.4172764
11	0xc00f9904	-2.2437143
12	0xc0a2eb07	-5.09119
13	0xc071e5d5	-3.7796528
14	0xc0a2069c	-5.063307
15	0xbf2eca4e	-0.6827744
16	0xc0a2fcd9	-5.093365
17	0xc0976e59	-4.73222
18	0xc0ad3f3c	-5.413969
19	0xc046d94e	-3.1070132
20	0xc0113f0f	-2.2694738
21	0xc0148acf	-2.3209722
22	0xc01cd5e5	-2.450555
23	0xc021a645	-2.5257733
24	0xc0acc280	-5.3987427
25	0xc07fe9f1	-3.9986537
26	0xc02016de	-2.5013957
27	0xc0183ef3	-2.378842
28	0xc071a435	-3.7756474
29	0x3d76a0c4	0.06021191
30	0xc087cc3c	-4.243681
31	0x3ee831a9	0.45350388
32	0xc014600d	-2.3183625
33	0xc00bc57b	-2.1839283
34	0xc0180075	-2.375028
35	0xc01233d7	-2.284414
36	0xc01fc607	-2.4964616
37	0xc01a0dfe	-2.407104
38	0xc08ca344	-4.39493
39	0x3f3844cd	0.7197998
40	0xc08e20e8	-4.441517
41	0x3fa90f6d	1.3207833
42	0xc0a27d4a	-5.077794
43	0xc06d1ca7	-3.7048738
44	0xc02788f0	-2.617733
45	0xc0073195	-2.1124012
46	0xc0121f81	-2.2831728
47	0xc01840a5	-2.3789456
48	0xc018eeda	-2.3895783
49	0xc014267f	-2.3148496
50	0xc088151f	-4.2525783
51	0xc0493224	-3.1436853
52	0xc0a85c3e	-5.26126
53	0xc081e699	-4.059399
54	0xc092942f	-4.580589
55	0xc0641abb	-3.5641315
56	0xc09c6ec0	-4.8885193
57	0xc06e7a1b	-3.7262027
58	0xc0ada7d4	-5.426737
59	0x3f4416f8	0.7659755
60	0xc0a3d336	-5.1195326
61	0x3e5d0ceb	0.21586959
62	0xc00dd817	-2.216314
63	0xc016facd	-2.3590577
64	0xc01afc0f	-2.4216344
65	0xc018146e	-2.376247
66	0xc01ca143	-2.4473426
67	0xc02203a5	-2.5314724
68	0xc06f0127	-3.7344453
69	0xc059066e	-3.3910174
70	0xc0862207	-4.1916537
71	0x3f6d6358	0.9272971
72	0xc09da388	-4.9262123
73	0x3f383ff4	0.71972585
74	0xc09746b2	-4.72738
75	0xc085df1a	-4.183484
76	0xc08f0360	-4.469162
77	0x3f28da30	0.6595793
78	0xc0948c5d	-4.642134
79	0xbfb1c4f2	-1.3888228
80	0xc0a59156	-5.173991
81	0x3f550601	0.83212286
82	0xc0ad7f40	-5.4217834
83	0xc0936bce	-4.6069098
84	0xc0c67f26	-6.203021
85	0xbd91b98a	-0.07115467
86	0xc085bcad	-4.1792817
87	0xbdc99e8f	-0.09844696
88	0xc0a2becf	-5.085792
89	0xc0702c50	-3.7527046
90	0xc01c6b87	-2.444063
91	0xc02548ee	-2.5825763
92	0xc016cdb8	-2.356306
93	0xc01ac21b	-2.4180973
94	0xc0176d66	-2.3660522
95	0xc01a3d56	-2.4099936
96	0xc01ae20f	-2.4200475
97	0xc015d9df	-2.3414228
98	0xc0a33ebd	-5.1014085
99	0xbf20092e	-0.6251401
100	0xc015f2c1	-2.3429415
101	0xc015a2af	-2.3380544
102	0xc018b56b	-2.3860729
103	0xc01aa1dd	-2.4161294
104	0xc0090a40	-2.1412506
105	0xc00c1ad0	-2.1891365
106	0xc00bf1cb	-2.1866329
107	0xc0198d80	-2.3992615
108	0xc024ac21	-2.573006
109	0xc0207ede	-2.5077434
110	0xc01b6250	-2.4278755
111	0xc0147a45	-2.3199627
112	0xc00a8b45	-2.1647503
113	0xc01b9c66	-2.4314208
114	0xc017b6d7	-2.3705347
115	0xc023a14c	-2.5567198
116	0xc0219fd5	-2.5253804
117	0xc01d250e	-2.4553866
118	0xc0c853a6	-6.260211
119	0xbd866644	-0.06562474
120	0xc085eb73	-4.1849914
121	0xc042168d	-3.0326264
122	0xc0a91b71	-5.2846
123	0xc0479fe6	-3.1191344
124	0xc011a216	-2.275518
125	0xc0237db7	-2.554548
126	0xc0b7c745	-5.743075
127	0xc08f6eef	-4.4822917
128	0xc0a25036	-5.0722914
129	0xc0840fd5	-4.1269326
130	0xbf172fe7	-0.5905747

crf.transitions f4 [131, 131]
0	0xbf71fe23	-0.94528407
1	0xbf6cfa9c	-0.925699
2	0xc01a8398	-2.4142818
3	0xc0317deb	-2.7733104
4	0xbf8d8049	-1.1054775
5	0xbfd17889	-1.636491
6	0xbf39952e	-0.72493255
7	0xbf64b900	-0.8934479
8	0xc00cd900	-2.2007446
9	0xc0257666	-2.5853515
10	0xbf343d4c	-0.7040603
11	0xbf3c3784	-0.7352221
12	0xbf93cd72	-1.1547072
13	0xc00b010d	-2.1719391
14	0xbfc19141	-1.5122453
15	0xc03e2408	-2.9709492
16	0xbf86ca6b	-1.0530523
17	0xc02d2422	-2.7053304
18	0xbf97af81	-1.1850435
19	0xc00444d3	-2.0667007
20	0xbf3ed74a	-0.74547255
21	0xbf518f04	-0.8185885
22	0xbf622c87	-0.88349193
23	0xbf660aa8	-0.8986001
24	0xbf8982e3	-1.0743068
25	0xbfe43d98	-1.7831297
26	0xbf4d3ca6	-0.8017067
27	0xbf42024a	-0.7578474
28	0xbf8d449c	-1.1036563
29	0xc008618a	-2.1309533
30	0xbf87c9d0	-1.0608463
31	0xbfa47cf0	-1.2850628
32	0xbf702215	-0.93802005
33	0xbf6354ee	-0.8880147
34	0xbf4d4e1f	-0.8019733
35	0xbf5c06a0	-0.8594761
36	0xbf5debe2	-0.86688054
37	0xbf4990f4	-0.78736806
38	0xbfaae63e	-1.3351514
39	0xbff6c673	-1.9279312
40	0xbf884564	-1.0646176
41	0xbfef533b	-1.8697275
42	0xbfa70da7	-1.3051041
43	0xc015951a	-2.3372254
44	0xbf7a8ec8	-0.97874117
45	0xbf495b0f	-0.7865457
46	0xbf67083b	-0.90246934
47	0xbf6fc064	-0.9365294
48	0xbf607030	-0.87671185
49	0xbf456270	-0.7710333
50	0xbf8f092a	-1.1174672
51	0xc00dfd03	-2.2185676
52	0xbfc299e6	-1.5203216
53	0xc01858a7	-2.380411
54	0xbfa2379b	-1.267322
55	0xbff632ca	-1.923425
56	0xbfa822d6	-1.3135631
57	0xc0212465	-2.5178463
58	0xbf6ed8b1	-0.93299395
59	0xbfe71764	-1.8054013
60	0xbf8d792b	-1.1052603
61	0xbff79973	-1.9343704
62	0xbf4f3093	-0.80933493
63	0xbf3932b5	-0.72343
64	0xbf484b9a	-0.7824036
65	0xbf701639	-0.9378391
66	0xbf57e8e9	-0.8433977
67	0xbf68d3c3	-0.9094812
68	0xbf85a027	-1.04395
69	0xc00089f3	-2.0084198
70	0xbf81992a	-1.0124867
71	0xbfed5b7b	-1.8543543
72	0xbf85e4fd	-1.0460507
73	0xbfcfd6cf	-1.6237429
74	0xbf8b7413	-1.0894798
75	0xbff6d511	-1.9283773
76	0xbf8a0aba	-1.0784523
77	0xc039c532	-2.9026608
78	0xbfc5a678	-1.5441427
79	0xc0875429	-4.2290235
80	0xbfac1036	-1.3442447
81	0xbff1ab6a	-1.8880436
82	0xbf911edd	-1.1337544
83	0xc0212b37	-2.5182626
84	0xbf8a7dd3	-1.0819649
85	0xc01b07e4	-2.4223566
86	0xbf9d28b1	-1.2278043
87	0xc0400129	-3.0000708
88	0xbf61b7e1	-0.881712
89	0xbfe78e1c	-1.8090243
90	0xbf5ca914	-0.8619549
91	0xbf51f68a	-0.82016814
92	0xbf574509	-0.84089714
93	0xbf53fbf6	-0.82806337
94	0xbf67c04c	-0.90527797
95	0xbf70cc9d	-0.94062215
96	0xbf4cbf2b	-0.799792
97	0xbf6ad2f6	-0.9172815
98	0xbf91ac08	-1.1380625
99	0xc025884e	-2.5864444
100	0xbf511a13	-0.8168041
101	0xbf61100a	-0.879151
102	0xbf49c19f	-0.7881107
103	0xbf6d7368	-0.9275422
104	0xbf3147ae	-0.6925
105	0xbf551416	-0.83233774
106	0xbf581b61	-0.84416777
107	0xbf574656	-0.840917
108	0xbf5e25f9	-0.8677669
109	0xbf381ed4	-0.7192204
110	0xbf575b1d	-0.841234
111	0xbf33d1dc	-0.70242095
112	0xbf53d547	-0.8274731
113	0xbf43a942	-0.7643014
114	0xbf7b0594	-0.98055387
115	0xbf714b1a	-0.9425522
116	0xbf79e978	-0.9762187
117	0xbf704e53	-0.93869513
118	0xc00a98ec	-2.1655836
119	0xc035443d	-2.83229
120	0xbf9fc917	-1.2483243
121	0xc00e7ca0	-2.2263565
122	0xbfb30577	-1.3986043
123	0xbff61812	-1.9226096
124	0xbf668c2d	-0.9005764
125	0xbf5ee584	-0.87068963
126	0xbf8bfce4	-1.0936551
127	0xc0364438	-2.8479137
128	0xbf9f8aa8	-1.246419
129	0xc03a5ed0	-2.912037
130	0xc068aa0b	-3.6353786
131	0xbf415616	-0.7552198
132	0xbf4344cb	-0.76276845
133	0xc016a748	-2.35396
134	0xc02dfccd	-2.7185547
135	0xbf8d2110	-1.1025715
136	0xbfe38ee8	-1.7777987
137	0xbf502599	-0.8130737
138	0xbf5d25a8	-0.86385584
139	0xbff44ce2	-1.9085963
140	0xc026cf25	-2.606393
141	0xbf3ee79f	-0.74572176
142	0xbf482924	-0.78187776
143	0xbf84ca71	-1.037428
144	0xc00afde5	-2.1717465
145	0xbfb6b275	-1.4273211
146	0xc03c9672	-2.9466825
147	0xbf5f820a	-0.873078
148	0xc0277d90	-2.6170387
149	0xbf9e67d6	-1.2375438
150	0xbff318fa	-1.8991997
151	0xbf4840c5	-0.7822383
152	0xbf5c048a	-0.85944426
153	0xbf4a13c7	-0.7893643
154	0xbf4caa2f	-0.7994718
155	0xbf938dd4	-1.1527658
156	0xbfcd2a8d	-1.602861
157	0xbf59d15b	-0.85085076
158	0xbf5a9131	-0.85377795
159	0xbf8d139f	-1.1021613
160	0xc001c13d	-2.0274193
161	0xbf7cdc75	-0.9877389
162	0xbfbf89a2	-1.4963877
163	0xbf6bb3a1	-0.92070967
164	0xbf2ffeda	-0.6874825
165	0xbf4bd6b2	-0.79624474
166	0xbf3630e7	-0.7116837
167	0xbf652cf3	-0.8952171
168	0xbf570592	-0.83992875
169	0xbfa66873	-1.3000625
170	0xbfe8105e	-1.8129995
171	0xbf8c5d2b	-1.0965933
172	0xbfe8b61a	-1.8180573
173	0xbf999a5a	-1.2000229
174	0xc00e77cb	-2.2260616
175	0xbf6fd42c	-0.93683124
176	0xbf45f255	-0.77322894
177	0xbf39a773	-0.7252113
178	0xbf5ec6fd	-0.8702238
179	0xbf55f1c9	-0.8357206
180	0xbf2aba24	-0.6669028
181	0xbf8ca108	-1.0986643
182	0xc005fc69	-2.093531
183	0xbfb1a697	-1.3878964
184	0xc0150fee	-2.3290973
185	0xbf87d07f	-1.0610503
186	0xbfda99de	-1.7078207
187	0xbf97183d	-1.1804272
188	0xc01786c5	-2.3676007
189	0xbf67285a	-0.90295947
190	0xbff32c23	-1.8997844
191	0xbf726051	-0.9467822
192	0xbff60a54	-1.9221902
193	0xbf39b4b6	-0.7254137
194	0xbf5023fe	-0.8130492
195	0xbf568a9b	-0.83805245
196	0xbf583696	-0.8445829
197	0xbf7aefc6	-0.98022115
198	0xbf7a06b9	-0.9766651
199	0xbf8d5f94	-1.1044793
200	0xbfd95a01	-1.6980592
201	0xbf86cbda	-1.053096
202	0xbfe2b9fb	-1.7713007
203	0xbf82182c	-1.0163627
204	0xbfc709e1	-1.554989
205	0xbf66bacb	-0.90128773
206	0xbfdb4c72	-1.7132704
207	0xbf8f6bc1	-1.1204759
208	0xc02e5e3a	-2.7245011
209	0xbfc5bca3	-1.5448192
210	0xc08614ef	-4.1900554
211	0xbfae8939	-1.3635627
212	0xbff54a01	-1.9163209
213	0xbf8bd794	-1.0925164
214	0xc01896ef	-2.3842123
215	0xbf85b5a5	-1.0446059
216	0xc015a503	-2.3381965
217	0xbf8d46a1	-1.1037179
218	0xc03ce15c	-2.9512548
219	0xbf5c4018	-0.860353
220	0xbfd96944	-1.698525
221	0xbf4b191d	-0.79335195
222	0xbf457c94	-0.77143216
223	0xbf596fce	-0.84936225
224	0xbf4616b4	-0.7737839
225	0xbf65c419	-0.89752346
226	0xbf687ea8	-0.9081826
227	0xbf356c09	-0.70867974
228	0xbf444b2a	-0.7667719
229	0xbf8dd603	-1.1080936
230	0xc0278217	-2.617315
231	0xbf4c6b90	-0.7985163
232	0xbf27ec2a	-0.6559473
233	0xbf62477f	-0.88390344
234	0xbf6ab660	-0.9168453
235	0xbf3ef11a	-0.7458664
236	0xbf460351	-0.7734881
237	0xbf4d676a	-0.8023592
238	0xbf5e71a0	-0.8689213
239	0xbf4a4242	-0.7900735
240	0xbf2bbbe2	-0.6708356
241	0xbf52085b	-0.82044
242	0xbf333ddc	-0.70016265
243	0xbf3d5c14	-0.73968625
244	0xbf318459	-0.6934257
245	0xbf4c7972	-0.7987281
246	0xbf48dcc2	-0.7846185
247	0xbf50e05f	-0.81592363
248	0xbf6081c6	-0.8769802
249	0xc010cfd7	-2.2626855
250	0xc03092a2	-2.7589498
251	0xbf97d3ee	-1.1861551
252	0xc00e71dd	-2.2256997
253	0xbfae70d1	-1.3628179
254	0xbfe55d72	-1.7919142
255	0xbf5c739a	-0.86113894

hidden2tag.weight f4 [131, 4]
0	0xc00badf1	-2.1824915
1	0xc005faa0	-2.093422
2	0x3fe5e4f7	1.79605
3	0x3f89f997	1.0779294
4	0xbff73863	-1.9314083
5	0xc00a043b	-2.1565082
6	0x401417ff	2.3139646
7	0x3fbd3006	1.478028
8	0x3dace51d	0.084421374
9	0x3f087780	0.5330734
10	0x4080cc71	4.024956
11	0xbfda17d8	-1.7038527
12	0x3dd01a5a	0.10161276
13	0x3e75518e	0.23956892
14	0x40695ad9	3.64617
15	0xbf506625	-0.8140586
16	0xc002d129	-2.0440161
17	0x3eac9899	0.33710173
18	0x403e6c2d	2.9753525
19	0x3f60110e	0.87526023
20	0xc03eca45	-2.9810956
21	0x3ed5a9ef	0.41731212
22	0x401aa18a	2.4161096
23	0xbe9270c4	-0.28601658
24	0xc023365a	-2.5501924
25	0xbff7e26d	-1.9365975
26	0x40166484	2.349885
27	0x3fbf0199	1.4922363
28	0xbff5c208	-1.9199839
29	0xbfee6560	-1.8624687
30	0x3ffce6d6	1.9757946
31	0x3fbea1af	1.4893092
32	0x3de6153d	0.1123452
33	0xbeb27172	-0.34852177
34	0x3d215c6a	0.039394774
35	0xbd116a00	-0.03550148
36	0x3eb10c1a	0.34579545
37	0xc079196c	-3.8921766
38	0x406576f0	3.5853844
39	0xbff38c00	-1.90271
40	0xc0151246	-2.3292403
41	0xc02c01bd	-2.687606
42	0x4007f79b	2.1244876
43	0x3fccc496	1.5997493
44	0xbff4a81d	-1.9113804
45	0xc01afd75	-2.4217198
46	0x401b5125	2.4268277
47	0x3f9a2b18	1.2044401
48	0xc07f24e4	-3.9866266
49	0xb9fa8118	-0.00047779898
50	0x4031bc30	2.777111
51	0xbdd7db74	-0.10539904
52	0xbeb63691	-0.35588506
53	0xbff89746	-1.9421165
54	0x3f1c27c7	0.60998195
55	0xbe72927e	-0.23688695
56	0xbf3459da	-0.704496
57	0xc04d7325	-3.2101529
58	0xbe2ea978	-0.17056835
59	0x3f7e732b	0.9939448
60	0x3e16cef9	0.14727391
61	0xbf942b8b	-1.1575788
62	0xbdcae124	-0.099062234
63	0xbf9e3743	-1.2360615
64	0x3bffd04a	0.0078068124
65	0xbf0592f8	-0.5217738
66	0x4093070f	4.5946116
67	0x401689e9	2.3521674
68	0xc00c2e43	-2.1903236
69	0x3f419bec	0.7562854
70	0x402a38cc	2.6597166
71	0xbfcdca5a	-1.6077378
72	0xbea836ff	-0.3285446
73	0xbf8a5d6f	-1.0809764
74	0xbe93565f	-0.28776833
75	0x40603ac9	3.503588
76	0xc001c818	-2.0278378
77	0xc01a94e7	-2.4153383
78	0x3dacf560	0.08445239
79	0x404c814a	3.1953912
80	0xc00554bc	-2.0832968
81	0xc00c2bb3	-2.1901672
82	0x40229a0b	2.540652
83	0x3ff46545	1.9093405
84	0xc006f2a3	-2.1085594
85	0xbfe2adaa	-1.7709248
86	0x3fe11a5a	1.7586167
87	0x3fcbfeef	1.5937175
88	0xbff78c20	-1.9339638
89	0xc0078af3	-2.1178558
90	0x3ff218e7	1.891385
91	0x3f846afc	1.0345149
92	0xc01145b9	-2.2698805
93	0xc001ce89	-2.028231
94	0x3fdfd365	1.7486387
95	0x3fafed8e	1.3744371
96	0x3d8d3c6c	0.0689629
97	0xc08a00b3	-4.3125854
98	0x3ebf11a0	0.37318134
99	0xbf2c99bb	-0.67422074
100	0xbdfd2974	-0.12361422
101	0xc01d32aa	-2.4562173
102	0x404e8a5c	3.2271948
103	0xbefcd20e	-0.4937901
104	0xc008dffb	-2.1386707
105	0xbfda18f8	-1.703887
106	0x3fecdb16	1.850436
107	0x3fac1f58	1.3447065
108	0xc022db7a	-2.5446458
109	0xc00d5916	-2.2085624
110	0x40157014	2.3349657
111	0x3fc4b699	1.5368224
112	0xbfc61c8f	-1.5477465
113	0xbff5e144	-1.9209371
114	0x40276dc9	2.6160758
115	0x3f7e39b9	0.9930683
116	0xbfd0de38	-1.6317816
117	0x3e8ac972	0.27106816
118	0x3cf7a757	0.030231161
119	0x3ff69fb0	1.9267483
120	0xbee81130	-0.45325613
121	0xc02ca809	-2.697756
122	0x40285ab4	2.630536
123	0x400b1a4d	2.1734803
124	0x3e8512e8	0.25990987
125	0xc02977de	-2.647941
126	0x4008d0db	2.1377475
127	0x3f0689ca	0.52554
128	0xc0084322	-2.1290975
129	0xc01d308c	-2.456088
130	0x3fda68fd	1.706329
131	0x3f78c7df	0.9717998
132	0xc0151ae7	-2.329767
133	0xc02df292	-2.7179303
134	0x40223a67	2.5348146
135	0x3fadf3a7	1.3589982
136	0xc0028fb1	-2.0400202
137	0xc00ff821	-2.2495196
138	0x400f81d2	2.2422986
139	0x3fa90172	1.3203566
140	0xc01afc10	-2.4216347
141	0xc02e513a	-2.7237077
142	0x4014de27	2.326059
143	0x3fb59527	1.4186143
144	0xc0064988	-2.098238
145	0xc0092229	-2.14271
146	0x3fd7d3e7	1.6861542
147	0x3f724e96	0.9465116
148	0xc01ce30d	-2.451358
149	0xc015848c	-2.336215
150	0x3fdad457	1.7096051
151	0x3f9957ad	1.1979882
152	0xc05750d8	-3.3643093
153	0x3f0f0680	0.55869293
154	0xbe92fe5a	-0.2870968
155	0x405e3da2	3.4725118
156	0xbf6a94ee	-0.916335
157	0xc07f4a5e	-3.988914
158	0xbf3fc154	-0.7490437
159	0x404c25ba	3.1898026
160	0x3d896193	0.06708064
161	0xbfbd05ca	-1.4767392
162	0x40566128	3.34968
163	0x3fb55602	1.4166873
164	0xbeb0affc	-0.34509265
165	0xc08d723a	-4.4201937
166	0x406167ba	3.521956
167	0x3f8d880d	1.1057144
168	0xbd4af5fa	-0.049550988
169	0xc0553876	-3.331571
170	0x3eb68a07	0.35652182
171	0x400b502e	2.1767688
172	0xbedd59c4	-0.43232548
173	0xbf9b7cb3	-1.214743
174	0x3e3018bb	0.17196934
175	0x3f7874db	0.9705331
176	0xbfef7dd5	-1.8710276
177	0xbfcbdbfa	-1.5926507
178	0x3fbba373	1.4659256
179	0x3f5d763d	0.8650854
180	0xc0107866	-2.2573485
181	0xc02a17d6	-2.6577048
182	0x40206203	2.5059822
183	0x3ffeac33	1.9896301
184	0xc00fc7a1	-2.2465594
185	0xc0243dc2	-2.5662694
186	0x401d9446	2.462175
187	0x3fad66bb	1.3546976
188	0xbfed7238	-1.8550482
189	0xbfe2eccc	-1.7728515
190	0x401927bd	2.3930504
191	0x3fb18cf2	1.3871138
192	0xc014aefd	-2.3231804
193	0xc01e2eb0	-2.4715996
194	0x40131f2a	2.298777
195	0x3fb99fe1	1.4501916
196	0xc0285310	-2.6300697
197	0xc02b3733	-2.675244
198	0x4006e64d	2.1078064
199	0x3faca0b0	1.3486538
200	0xc01a6dbd	-2.412948
201	0x3ea44acc	0.32088315
202	0x408cbe2a	4.3982134
203	0xbe94c975	-0.2905995
204	0x3e2e963a	0.17049494
205	0xc05f5cd0	-3.4900398
206	0x3f83cff4	1.0297837
207	0xbd3bdf19	-0.04586706
208	0xbe77758a	-0.24165931
209	0xc08b31c8	-4.349827
210	0xbf08d180	-0.5344467
211	0x403f3e80	2.9881897
212	0xbe105fbf	-0.14099024
213	0xc056f196	-3.3584952
214	0x400dc1d3	2.214955
215	0xbe93b351	-0.28847745
216	0xc057a91c	-3.3696966
217	0x3f141881	0.5784989
218	0x3e7e67c8	0.24844277
219	0x3f4ac8e7	0.792128
220	0xbfc01fbb	-1.5009683
221	0x3e15262c	0.14565343
222	0x3fa205fe	1.2658079
223	0x3fc53630	1.5407162
224	0x3e847c3e	0.2587604
225	0xc08c96e7	-4.3934207
226	0xbdba77e3	-0.09104898
227	0x407e5dc2	3.9744725
228	0xc04707e2	-3.1098561
229	0x3e92bbd3	0.28658924
230	0x3fdfc900	1.7483215
231	0x4000345f	2.0031965
232	0xbe2c46d2	-0.16823891
233	0xc073b0fc	-3.8076773
234	0x3fd433d9	1.6578323
235	0xbf2b91b5	-0.67019206
236	0xbe194254	-0.14966708
237	0xc0666a65	-3.6002438
238	0xbf1aadfe	-0.6042174
239	0x404f81b5	3.2422917
240	0x3d99b392	0.075049534
241	0xc091bf9a	-4.554639
242	0x3fc24f24	1.5180402
243	0x40022e00	2.0340576
244	0x3f28050a	0.6563269
245	0xc0981bd1	-4.7533956
246	0xbeee45c9	-0.46537617
247	0x408fde13	4.4958587
248	0xc027d1d5	-2.6221821
249	0xc02b9346	-2.6808639
250	0x4008c449	2.1369803
251	0x3fa40e2f	1.2816828
252	0xc0153865	-2.331567
253	0xc013a3ad	-2.306865
254	0x401dbb92	2.4645734
255	0x3fa1dbe5	1.2645231

hidden2tag.bias f4 [131]
0	0xc0113f92	-2.269505
1	0xbfba76cc	-1.4567504
2	0xbfa08a84	-1.2542272
3	0xbf49fb9f	-0.7889957
4	0xbe48d3bd	-0.19612022
5	0xba4edfbc	-0.00078916154
6	0xbfe847a8	-1.8146868
7	0xbfc0dc01	-1.506714
8	0xbe05c392	-0.13062885
9	0xbc0049f8	-0.0078301355
10	0xbfefd7e3	-1.8737758
11	0xbfd10dbf	-1.633232
12	0xbe48ac24	-0.19596916
13	0x3f1ff608	0.6248479
14	0xbf4853b8	-0.78252745
15	0x3e1b5d33	0.15172271
16	0x3e85b200	0.26112366
17	0xbe9c1809	-0.30487087
18	0xbf49d723	-0.788439
19	0xbea6eaac	-0.32600915
20	0xbfdd39b9	-1.728324
21	0xc01196d8	-2.2748318
22	0xbfd0c0eb	-1.6308874
23	0xc0069d44	-2.1033487
24	0xbf3635cc	-0.7117584
25	0xbed43704	-0.41448224
26	0xc00fe433	-2.2483032
27	0xc0010138	-2.0156994
28	0xbf140e05	-0.5783389
29	0x3ecf0ba9	0.40438583
30	0xbea50b74	-0.322353
31	0xbe99eca4	-0.30063355
32	0xc00ef988	-2.2339802
33	0xbfb8f94b	-1.4451078
34	0xbfae0bde	-1.3597372
35	0xbfc30f67	-1.5239075
36	0xc00fa4d8	-2.2444363
37	0xbfc42275	-1.5323015
38	0xbf64b607	-0.8934025
39	0x3d3dc1ee	0.046327524
40	0xbeeb2f95	-0.4593474
41	0x3f18a243	0.5962259
42	0xbe0a5aa4	-0.13511139
43	0xbe624ed0	-0.22100377
44	0xbfdba27b	-1.715896
45	0xbfa4bfbb	-1.2871011
46	0xbfd94040	-1.6972733
47	0xbfc439ba	-1.5330117
48	0xbfd0e06d	-1.6318489
49	0xbffcd9de	-1.9753988
50	0x3f1b380b	0.6063239
51	0xbee01a6a	-0.43770152
52	0xbd98c052	-0.07458557
53	0xbe30179f	-0.1719651
54	0x3e82cb07	0.25545523
55	0x3ec885f7	0.39164707
56	0xbe8172e1	-0.25282958
57	0xbec7bc6d	-0.39010945
58	0xbe9187ec	-0.28424013
59	0xbe01723d	-0.12641235
60	0x3e9996d6	0.2999789
61	0x3ee612d0	0.44936228
62	0xbfdeeaf0	-1.7415447
63	0xbfe04f39	-1.7524177
64	0xbfb49ce1	-1.4110376
65	0xbfe578a5	-1.7927443
66	0xc01137f2	-2.2690396
67	0xbfe412ed	-1.7818276
68	0x3f4f436b	0.80962247
69	0x3f1b3826	0.6063255
70	0xbf3cf9a0	-0.738184
71	0xbe287fa9	-0.16454948
72	0x3e819503	0.25309
73	0x3f270318	0.65239096
74	0x3df36989	0.118853636
75	0x3ee1d605	0.44108596
76	0xbcf4c5ac	-0.029879414
77	0x3dccb68c	0.099957556
78	0xbeab6f71	-0.3348346
79	0x3e47e9a3	0.19522719
80	0xbe649dd5	-0.22325833
81	0x3e72f62b	0.23726718
82	0x3dc05556	0.093912765
83	0xbea06bdb	-0.31332287
84	0xbf3350fa	-0.70045435
85	0xbdc6c941	-0.09706355
86	0xbf2902e3	-0.6602003
87	0xbf4a7058	-0.7907767
88	0xbea9cd4a	-0.33164436
89	0xbe0096f1	-0.1255758
90	0xc00cac1f	-2.1980054
91	0xc0047a0f	-2.0699499
92	0xc0096f58	-2.147421
93	0xc009ddba	-2.154158
94	0xbfa9e2b9	-1.3272315
95	0xbfb81681	-1.4381868
96	0xbfb5fb5b	-1.4217333
97	0xbfac88e4	-1.3479276
98	0xbe3a0cf1	-0.18168999
99	0xbe9fed75	-0.31235853
100	0xbfa9bc68	-1.3260622
101	0xbfd8f7f9	-1.6950675
102	0xbfb51d7b	-1.4149622
103	0xc00c8657	-2.1956995
104	0xbffeb755	-1.9899698
105	0xbfe5194a	-1.7898343
106	0xbfb44d90	-1.408617
107	0xc00659bf	-2.0992277
108	0xbfb8506e	-1.4399545
109	0xbfac22d7	-1.3448132
110	0xbfc74727	-1.5568589
111	0xbfa81d4e	-1.3133943
112	0xbfcaf2bb	-1.5855325
113	0xbfb8fb8e	-1.4451768
114	0xbffe0d4f	-1.9847811
115	0xc005e4fc	-2.092101
116	0xbff5006c	-1.9140754
117	0xbfe73e54	-1.8065896
118	0xbf47ffe2	-0.7812482
119	0x3f20e581	0.62850195
120	0x3efe7b0f	0.4970326
121	0x3db2c227	0.08728438
122	0xbea10519	-0.31449202
123	0x3d7aaab4	0.06119795
124	0xbfd48ed2	-1.6606085
125	0xbffc47c8	-1.9709406
126	0xbdb6ab45	-0.08919386
127	0xbebc6d39	-0.3680208
128	0xbd81a90a	-0.0633107
129	0xbea00576	-0.31254166
130	0xbd81b1b5	-0.06332723
