temp/best_modellr=0.10_1.model (torch, 155693 bytes, 14 tensors)

word_embeds.weight f4 [3918, 5]
000000 64 b8 ef 3f 00 e7 0b c0 9f 1b 64 40 ea 4c b4 bf
       1.8728147 -2.1859741 3.5641859 -1.4085972
000010 4e b0 71 3f 7e 73 e6 3e 1c 44 ca 3e a1 75 aa 3f
       0.94409645 0.4500999 0.39505088 1.3317147
000020 f8 4b 9b be 6c 0f e7 3f ee 96 19 3f 4b 73 15 3f
       -0.30331397 1.8051581 0.59995925 0.5837905
000030 f7 f6 2e 3f 19 80 05 c0 e4 3d ad 3e 75 78 77 be
       0.6834559 -2.0859435 0.3383628 -0.24167044
000040 f9 99 1a 40 66 96 f7 bf fa f8 1f 3f 61 21 84 bf
       2.4156477 -1.9342773 0.62489283 -1.0322686
000050 8a 14 71 bf 03 7f f3 3f 60 28 69 bf be 63 f8 be
       -0.94171965 1.9023136 -0.9107723 -0.48513597
000060 46 73 d8 3e c4 19 3e bf e0 b0 55 3f 7e e9 14 bf
       0.42275447 -0.74258065 0.83473015 -0.5816878
000070 a4 0b e2 bf 36 2a 2a 3f 4e 57 2d bf ef 2d 64 be
       -1.7659802 0.6647066 -0.6771134 -0.22283147
000080 60 85 50 c0 7a 40 f5 bf 7f 4f 98 3f 84 bb bd 3e
       -3.2581406 -1.9160302 1.189926 0.37057126
000090 26 6d 30 bf ab b5 38 bf d2 48 2a c0 0f 73 01 3f
       -0.6891655 -0.72152203 -2.6606946 0.5056619
0000a0 d3 86 a8 3f 67 2b ad 3f 1b 44 eb 3f 4d 5f 05 c0
       1.3166145 1.352887 1.8380159 -2.0839417
0000b0 11 8b 2e be 5e b3 af be 99 b9 d1 3f 73 2a 8b bf
       -0.17045237 -0.34316534 1.6384765 -1.087233
0000c0 cd f6 f8 bf a4 d1 93 3f 86 9c 18 3f e2 8c ad 3f
       -1.9450318 1.1548352 0.59613836 1.3558619
0000d0 d3 b8 e6 3d 4e 2d 09 c0 9a d6 23 3f d5 7c 56 3d
       0.11265721 -2.1433902 0.6399933 0.052365143
0000e0 57 2e 87 3f cd e0 5c bf c2 8f 9b bf 31 b4 95 3f
       1.0561017 -0.8628052 -1.2153246 1.1695615
0000f0 d1 44 9a 3e 3f 21 7f 3d f8 35 0f bf d3 d8 0e c0
       0.30130628 0.062287565 -0.55941725 -2.231984
000100 58 01 83 3f db 66 5d 3f c6 fd a7 bf e9 02 3d 40
       1.0234785 0.8648507 -1.312432 2.9533026
000110 30 7a 85 c0 0e f6 a8 bf 2d 96 06 3f 97 af 4d 3f
       -4.1711655 -1.320009 0.525729 0.80346054
000120 34 2a 6b 40 b2 4a d9 bf be e1 e9 3d 88 42 10 3f
       3.6744509 -1.697592 0.1142001 0.5635152
000130 2d 63 88 bf c4 94 a7 be 62 23 10 c0 66 bf 6f 3f
       -1.0655266 -0.32730687 -2.2521596 0.93651426
000140 98 48 61 bf ab 62 1c 40 ec af 16 c0 8b 9e 5e 3f
       -0.88001394 2.4435222 -2.3544874 0.8696067
000150 20 af e5 bf f8 dd 4c c0 5d 97 1c 3f 0d 41 ea 3f
       -1.7944069 -3.201048 0.6116846 1.8301102
000160 c9 7c ca 3e 69 3e 62 3f 06 e1 fe 3f 7b 88 d5 3f
       0.3954833 0.8837648 1.9912422 1.6682276
000170 ca e9 bf bf 72 5f 9e bf 0e 49 bf 3f 06 25 3c 3e
       -1.4993222 -1.2372878 1.494417 0.18373498
000180 4e 22 79 3f 26 c9 89 3d ec 7f dc bf 0f da 8a 3f
       0.9731797 0.06727819 -1.7226539 1.0847796
000190 e5 bb fc 3e 8d d7 11 40 58 8a 81 be 0d 42 58 bf
       0.49362102 2.2787812 -0.2530086 -0.84475785
0001a0 f5 fe 23 c0 ca e7 d4 bf dd 2c 23 3f 30 19 6d be
       -2.5624363 -1.6633236 0.6374033 -0.2315414
0001b0 3a 7e df bf 03 bb af bc c4 ab 69 bf a8 96 1f 3f
       -1.7460396 -0.021451479 -0.9127772 0.6233926
0001c0 65 8b 26 bf 9b 8f cb bf 97 2b 1a 3f 10 fe 76 3e
       -0.6505645 -1.59032 0.6022276 0.24120355
0001d0 39 e4 09 bf 40 b6 a1 3f 9c 2f ee bf 6a 28 da bf
       -0.53863865 1.2633743 -1.8608279 -1.7043583
0001e0 80 33 0a bf 81 a5 4b 40 ac 13 56 bf 6f f1 20 3f
       -0.5398483 3.1819766 -0.83623767 0.628684
0001f0 f1 b4 f9 bf 62 b3 4e 3d 68 bb 9f 3f 9d 58 a4 3f
       -1.9508344 0.05046404 1.2479067 1.2839543
000200 18 8a 41 3e de 61 ea bf 72 7e 0c 3f aa 46 59 40
       0.18900335 -1.8311117 0.5488044 3.394938
000210 17 9e 16 bd ec af 98 bf 3a b7 99 3f 1b 61 a5 3d
       -0.03677186 -1.1928687 1.2009041 0.08075162
000220 08 b0 c9 3f 14 f7 26 3e 10 43 ab bf ff ca 3e 3f
       1.5756845 0.1630519 -1.3379841 0.745285
000230 73 d0 80 be 1f 30 76 3f 01 82 00 bf 47 fb a1 bf
       -0.25159034 0.96167177 -0.5019837 -1.2654809
000240 ee 77 30 3f f3 d8 42 bf 25 92 8b 3f a6 20 4e bf
       0.68933 -0.7611229 1.0903975 -0.8051857
000250 29 27 c6 bf 09 33 7f 3f 18 d6 21 bf 5c be d5 3f
       -1.5480701 0.9968725 -0.63217306 1.6698718
000260 25 5f 99 bf ac 02 fc bf 2f 52 b7 3f b7 d4 df bf
       -1.1982161 -1.9688315 1.4321955 -1.748679
000270 02 2c 4d 3f f4 7f ad 40 d1 07 38 3e c2 10 a9 3f
       0.80145276 5.4218693 0.17971732 1.3208239
000280 48 b9 89 be 01 62 d7 3f aa e1 5c bf 7f 63 ed bf
       -0.2689917 1.6826783 -0.86281836 -1.8545989
000290 23 a4 8c 3f e9 57 6d be 52 00 96 bf 26 03 8b 3e
       1.098759 -0.23178066 -1.1718848 0.2715084
0002a0 5c 91 4f 3f 35 b9 09 3e c6 dd cc be 23 ea 39 3f
       0.81081176 0.13449557 -0.4001295 0.7262289
0002b0 6b a6 16 be 22 1b 20 bf 72 38 03 3f 88 a2 64 bf
       -0.14711921 -0.625414 0.51258004 -0.89310503
0002c0 b7 63 0f 40 11 f6 03 c0 3f 28 c4 bf 79 9d 03 40
       2.240461 -2.0618937 -1.5324782 2.0564864
0002d0 80 48 91 bf 9e f4 34 3f 1e d9 e0 be aa 95 d5 bf
       -1.135025 0.70685756 -0.43915647 -1.6686299
0002e0 43 80 8d 3e 06 ea 06 be e8 80 be 3f 35 81 9f bf
       0.27636918 -0.1317521 1.4883089 -1.2461306
0002f0 fa a9 bc bf f1 8d 0f 3f 2e b4 96 be da b7 c2 3f
       -1.4739373 0.5607596 -0.2943434 1.5212357
000300 f0 f9 26 bf fc fa 18 c0 6d d5 15 40 a0 d4 cc 3f
       -0.65225124 -2.3903189 2.3411515 1.6002388
000310 e6 49 7f bf f0 57 0f c0 65 e3 c8 3e 79 69 0c c0
       -0.99722135 -2.2397423 0.39235988 -2.1939375
000320 7a ec 07 be 02 29 fc 3c bf 59 aa bd 6c 11 2b 3d
       -0.13273802 0.030781273 -0.08317899 0.04176466
000330 9f d2 32 be 5e 24 d9 be 60 e0 b6 be 05 b4 a3 bf
       -0.17463158 -0.42410558 -0.3571806 -1.2789313
000340 d5 ab ff bf c1 98 89 3e 32 df 5e be 60 ac be 3e
       -1.9974314 0.26874354 -0.2176483 0.37240887
000350 e3 ad c4 bf 86 a7 ab 3f fa d7 4d bf 62 7e 2d 3e
       -1.5365566 1.3410499 -0.8040768 0.16942742
000360 8c a4 7e 3f 27 ba 17 3f 91 70 cc bf cd b1 cd 3e
       0.9946983 0.5926842 -1.5971853 0.40174714
000370 18 0d a9 bf fc 68 2a 40 f1 de b6 bf 24 28 d8 3e
       -1.3207121 2.6626577 -1.4286786 0.42218125
000380 48 43 a6 bf 97 71 21 3e 23 cc b3 3f 50 64 99 be
       -1.2989283 0.15765987 1.4046673 -0.29959345
000390 7f d3 65 c0 e0 60 a3 3e de dd 20 40 d6 8b d9 bc
       -3.5910337 0.31909847 2.5135417 -0.026555937
0003a0 73 b7 4c bf 8a e8 01 c0 e3 40 5d c0 a8 65 ef bf
       -0.7996742 -2.029818 -3.4570854 -1.8702898
0003b0 83 d3 3d c0 51 26 5d 40 cf bd 52 bf e6 60 5c 3e
       -2.9660347 3.4554636 -0.82320875 0.21521339
0003c0 47 c5 55 be 03 c7 ed 3f f6 08 c6 bf e3 ed 15 c0
       -0.20876037 1.8576359 -1.5471485 -2.3426445
0003d0 02 72 a0 3f 06 6a 06 40 f3 16 5a 3e 84 c8 49 3f
       1.2534792 2.1002212 0.21297817 0.7882159
0003e0 32 27 a4 bf 4e 56 4f 3f 7c bc e8 3e f3 26 09 3e
       -1.2824461 0.80991066 0.45456302 0.13393764
0003f0 7a 9f 37 3f e0 b9 5b bf 77 a7 af 3e 08 8c 26 bf
       0.71727717 -0.858305 0.34307453 -0.6505742

lstm.weight_ih_l0 f4 [8, 5]
000000 6d 8a ba 3f eb 0e 15 be ac c4 c0 be d4 ae 14 40
       1.4573494 -0.14556472 -0.3765005 2.3231707
000010 e6 ae 03 40 7a 01 c5 3f 4c b3 e0 3f 06 d6 c6 bf
       2.05755 1.5391076 1.7554717 -1.5534065
000020 a2 3d da bf a1 f4 09 c0 3c 6c 4b bf 35 59 8f 3f
       -1.7050059 -2.155556 -0.7946203 1.1199099
000030 fe 16 f1 bf 91 b5 42 3e 08 23 ab bf d8 a3 9a bf
       -1.8835142 0.19014575 -1.3370066 -1.2081251
000040 eb 79 32 3e 2a 4b c8 bf 80 7e a0 3f 62 4e 1b 40
       0.1742932 -1.5647938 1.2538605 2.426659
000050 d0 6f d6 3e 42 31 12 3d 96 e7 f6 3f 12 f1 18 c0
       0.4188218 0.035691507 1.9289424 -2.3897138
000060 38 68 2a c0 4f 15 16 bf 0d eb 2a bf 36 cd b3 3e
       -2.662611 -0.58626264 -0.6676491 0.351175
000070 08 46 02 3f 31 e2 38 3f aa 09 c2 3f 71 82 df bf
       0.5088811 0.7222014 1.5159199 -1.7461683
000080 96 58 9d 3f 2e 0a 85 3f 54 bf 03 40 ff 90 70 3f
       1.2292659 1.0393732 2.0585527 0.93971246
000090 81 dc cd 3f b0 18 be bf 08 9e 46 c0 b9 21 b2 bf
       1.6082917 -1.4851284 -3.1033955 -1.3916541

lstm.weight_hh_l0 f4 [8, 2]
000000 be d6 09 bf 14 3f 00 bf 60 54 86 bd 48 67 75 be
       -0.53843296 -0.5009625 -0.06559062 -0.2396518
000010 f2 b2 df 3e ea 6e 0b 40 da f9 79 bf b5 f0 3c c0
       0.43691212 2.1786447 -0.9764687 -2.9521916
000020 c3 45 25 bf 56 5b 2d bf d4 25 22 be 9c ed df 3e
       -0.6455957 -0.6771749 -0.15834743 0.4373597
000030 19 18 cc bf 1c c5 df bf 1c 1c 91 bf a9 71 81 bf
       -1.5944854 -1.7482028 -1.1336703 -1.0112811

lstm.bias_ih_l0 f4 [8]
000000 34 b4 c8 bf dd e7 f7 3e 05 24 de bf e7 d7 dd bd
       -1.5679994 0.48419085 -1.7354742 -0.10832196
000010 b1 3d 07 bf f8 26 43 bf 0e be 58 bf ee 28 be be
       -0.5282851 -0.76231337 -0.84665 -0.37140602

lstm.bias_hh_l0 f4 [8]
000000 12 cb e2 bf 68 cd be 3d b7 25 c4 bf 8a 5c 1a 3d
       -1.7718222 0.09316522 -1.532401 0.03768591
000010 bd dc 47 bf 4c b4 d0 bf fe 61 70 be ea 51 fa be
       -0.78071195 -1.6305022 -0.23474881 -0.4889062

lstm.weight_ih_l0_reverse f4 [8, 5]
000000 f3 19 22 3e bc 4b 54 3f 09 8a 9c 3f 26 ec 72 bf
       0.15830211 0.8292806 1.2229625 -0.94891584
000010 a0 91 87 3f 9f 10 09 bf 2c 77 4e c0 d9 bd b1 bf
       1.0591316 -0.53540987 -3.2260237 -1.3886062
000020 0c 92 2c 40 ec e3 a6 be 57 44 39 be 29 91 15 3e
       2.696414 -0.32595766 -0.18092476 0.14606155
000030 b2 4f f9 3e 7c d1 1f 3f 37 e6 68 3f 70 b4 7c 3f
       0.48693615 0.6242902 0.9097628 0.98712826
000040 23 fc 43 c0 b8 cf a3 be 37 58 68 3f 32 1a 04 c0
       -3.0622642 -0.31994414 0.90759605 -2.0640988
000050 e8 70 76 3d 13 f2 2c bf ad 70 cc be 3f be ed 3e
       0.06016627 -0.67556876 -0.39929715 0.4643421
000060 56 32 9d bd 73 73 2a c0 99 39 24 3d f5 a4 24 40
       -0.076756164 -2.6632965 0.040093992 2.5725682
000070 3f 21 93 3f 45 db c1 bf ec 93 66 bf 68 d7 0f bf
       1.1494521 -1.5145041 -0.9006946 -0.5618806
000080 fd 0a 92 3f 40 e1 04 c0 21 ff 50 40 30 69 94 40
       1.1409603 -2.0762482 3.2655718 4.6378403
000090 e1 22 0f c0 08 00 0a be 5e 37 0d 3f f9 86 64 bf
       -2.2365038 -0.13476574 0.5516261 -0.8926845

lstm.weight_hh_l0_reverse f4 [8, 2]
000000 f0 ae f1 3e e3 99 74 bf de 62 02 40 8c 10 ce bc
       0.4720378 -0.9554731 2.0372844 -0.025154375
000010 ac a0 76 bf 2a 87 f3 3e 8a 36 e7 3d 01 3a b4 bf
       -0.96338916 0.4756406 0.112896994 -1.4080201
000020 6e 4b 98 3f 20 5a 7a 3e b0 7e cc 3c b1 f2 64 bf
       1.1898019 0.24448442 0.024962753 -0.8943282
000030 e0 9d 5d bd f0 51 34 c0 4f 47 b8 3e 8b f3 76 3f
       -0.05410564 -2.817501 0.35991904 0.9646537

lstm.bias_ih_l0_reverse f4 [8]
000000 83 a2 93 3e 5c 54 29 bf f8 a0 b2 3f 0d b5 d9 bf
       0.28834924 -0.6614435 1.3955374 -1.7008377
000010 d5 53 55 bf b0 70 f8 be f8 78 e5 3d 0d c9 0c bf
       -0.8333104 -0.48523474 0.112047136 -0.5499428

lstm.bias_hh_l0_reverse f4 [8]
000000 28 d9 31 3e d6 00 46 bf 38 7f cf 3f 31 9f d0 bf
       0.17367995 -0.77345026 1.6210699 -1.6298581
000010 ed a7 ea bf f3 e1 60 3e fa af 0f 3f 07 2d ea be
       -1.8332497 0.21961193 0.56127894 -0.45737478

crf.start_transitions f4 [131]
000000 92 3e 17 c0 04 83 1e c0 1c 2d 12 3f 5d ef cd c0
       -2.363194 -2.4767466 0.5710008 -6.435469
000010 10 f4 68 c0 f7 aa 99 c0 65 33 16 c0 fe e4 16 c0
       -3.6398964 -4.8021197 -2.3468869 -2.3577266
000020 9b c6 85 c0 e5 c7 91 c0 dc 76 19 c0 d8 36 18 c0
       -4.180494 -4.555651 -2.3978796 -2.3783474
000030 73 24 58 c0 95 54 96 c0 6a 8b 55 c0 c6 eb a9 c0
       -3.3772247 -4.697825 -3.3366342 -5.310031
000040 1e f0 63 c0 4b 30 99 c0 54 af 4b c0 db 76 8e c0
       -3.5615306 -4.787145 -3.1825762 -4.4520087
000050 62 d7 0d c0 1f 55 0f c0 32 6c 19 c0 2f 79 13 c0
       -2.216271 -2.2395704 -2.3972287 -2.3042715
000060 73 4c 43 c0 97 94 92 c0 25 2a 1d c0 8a 0c 16 c0
       -3.051541 -4.5806384 -2.4556973 -2.3445153
000070 64 36 16 c0 bc e2 4b c0 eb da 00 c0 61 42 3b c0
       -2.3470697 -3.1857138 -2.0133617 -2.9259264
000080 2d 84 14 c0 c5 be 14 c0 81 f3 19 c0 24 e2 0f c0
       -2.3205674 -2.3241436 -2.4054873 -2.2481775
000090 81 fc 14 c0 db ac 15 c0 fa ba 25 c0 8f 03 af c0
       -2.3279116 -2.3386753 -2.5895371 -5.4691844
0000a0 9f bc 15 c0 d4 53 23 c0 ee 6a 61 c0 f1 00 a3 c0
       -2.3396375 -2.5519915 -3.5221515 -5.093865
0000b0 d8 12 13 c0 ab 3f 0e c0 32 82 08 c0 42 14 15 c0
       -2.2980251 -2.222636 -2.1329465 -2.3293614
0000c0 a8 d4 14 c0 50 51 14 c0 73 11 40 3f 13 b1 c0 c0
       -2.3254795 -2.317463 0.75026625 -6.0216155
0000d0 8b a1 81 c0 47 34 b8 c0 1d ac 4f c0 b8 f4 b3 c0
       -4.0509696 -5.7563815 -3.24488 -5.623623
0000e0 5e cd 79 c0 b8 c1 a7 c0 21 1e 1b c0 fa 4b 47 c0
       -3.9031596 -5.2423973 -2.423714 -3.1140122
0000f0 73 84 6a c0 c3 66 9d c0 10 16 0d c0 4b 55 16 c0
       -3.664334 -4.918794 -2.2044716 -2.3489559
000100 18 32 15 c0 8d ca 16 c0 aa 62 18 c0 7d 89 13 c0
       -2.3311825 -2.3561127 -2.381022 -2.3052666
000110 32 ff af 3f 7d 6c 98 c0 ef 23 12 c0 2b e8 41 c0
       1.3749754 -4.763243 -2.2834432 -3.0297954
000120 2f 2d 3d c0 ef fe 47 c0 20 c2 45 c0 99 8d af c0
       -2.9558828 -3.124935 -3.0899734 -5.486035
000130 64 b3 2d c0 0b 6f 62 c0 2b c4 86 c0 a5 3e aa c0
       -2.7140741 -3.5380275 -4.2114463 -5.320147
000140 08 f7 13 c0 57 6d 3b c0 a9 0f 75 c0 80 fc 9b c0
       -2.3119526 -2.9285486 -3.8290808 -4.8745728
000150 3f ab 37 c0 84 60 a3 c0 3f 95 66 c0 9b 99 a1 c0
       -2.869827 -5.1055317 -3.6028593 -5.0500007
000160 20 43 4b c0 d4 3a a1 c0 89 b6 12 c0 39 bf 19 c0
       -3.175972 -5.038431 -2.292391 -2.4022963
000170 70 bf 17 c0 c6 6a 1f c0 ea 14 19 c0 fa 3e 1b c0
       -2.3710594 -2.490892 -2.3919015 -2.4257188
000180 1f 65 1b c0 39 8c 14 c0 cb 34 63 c0 29 58 a0 c0
       -2.428047 -2.3210585 -3.5500972 -5.0107617
000190 b6 34 1c c0 4f c7 13 c0 e3 f2 0f c0 e0 31 15 c0
       -2.4407172 -2.3090398 -2.2491996 -2.3311691
0001a0 bc 78 18 c0 c3 eb 18 c0 44 2b 10 c0 8a 19 1e c0
       -2.382369 -2.3893898 -2.2526407 -2.4703088
0001b0 18 e8 1c c0 c1 07 1b c0 67 4b 19 c0 7b aa 10 c0
       -2.4516659 -2.4223483 -2.3952272 -2.2604053
0001c0 c7 9d 11 c0 fa 15 1d c0 83 98 14 c0 10 e6 19 c0
       -2.275255 -2.4544663 -2.3218086 -2.404667
0001d0 85 9a 11 c0 a4 4c 13 c0 5e da 7d c0 31 e4 a0 c0
       -2.2750561 -2.3015528 -3.966453 -5.0278554
0001e0 b9 82 b1 3f 98 79 a0 c0 c5 ce 6d c0 cb 08 96 c0
       1.3868018 -5.014843 -3.7157452 -4.6885734
0001f0 5f b8 11 c0 a7 5d 17 c0 62 d1 83 c0 32 7e b4 c0
       -2.276878 -2.365091 -4.1193094 -5.6404047
000200 cf b5 76 c0 12 08 b1 c0 f2 ff 4e 3f
       -3.8548467 -5.532235 0.8085929

crf.end_transitions f4 [131]
000000 78 d0 35 c0 e2 79 2b c0 22 43 b3 c0 00 2e 76 bf
       -2.840849 -2.6793141 -5.601945 -0.9616394
000010 5f e8 a8 c0 e7 87 ed 3e 3a 86 28 c0 9f 67 39 c0
       -5.2783656 0.46392748 -2.6331925 -2.8969495
000020 cd 00 c4 c0 92 6e fe 3e 4a 11 3c c0 70 18 2c c0
       -6.1250978 0.49693733 -2.9385552 -2.6889915
000030 fb 28 c4 c0 2d 79 83 c0 01 c5 a4 c0 78 8a 2c bf
       -6.1300025 -4.108542 -5.1490483 -0.67398787
000040 40 f1 c2 c0 af ce 7a c0 f8 de ba c0 86 8c 81 c0
       -6.0919495 -3.918865 -5.839718 -4.0484037
000050 df a2 23 c0 33 f4 3d c0 2c e0 3a c0 1c dd 34 c0
       -2.5568159 -2.9680297 -2.9199324 -2.8259954
000060 58 d2 a8 c0 15 b9 7a c0 30 20 2a c0 1d 9c 29 c0
       -5.2756767 -3.9175465 -2.6582146 -2.6501534
000070 2e cc 85 c0 9c f6 e8 be be 2e 92 c0 b9 63 65 3f
       -4.1811743 -0.45500648 -4.568206 0.8960529
000080 92 5a 36 c0 df 36 25 c0 36 e7 34 c0 7e 5d 32 c0
       -2.849278 -2.581474 -2.826612 -2.7869563
000090 92 cf 35 c0 ef 55 30 c0 16 1f 9c c0 32 93 bf 3e
       -2.840794 -2.755245 -4.8787947 0.3741699
0000a0 ad 8e ac c0 f5 ba 93 3f fd 84 b6 c0 08 c7 91 c0
       -5.3924165 1.154143 -5.703734 -4.555546
0000b0 4d db 3b c0 cb 66 32 c0 1f cc 2e c0 bb 80 35 c0
       -2.93526 -2.787524 -2.7312086 -2.835982
0000c0 cd 83 28 c0 aa 58 31 c0 4c 9f 6f c0 91 72 6f c0
       -2.6330445 -2.7710366 -3.7440977 -3.7413676
0000d0 f4 a7 a1 c0 11 30 91 c0 12 42 a3 c0 92 a4 97 c0
       -5.051752 -4.5371175 -5.101815 -4.738839
0000e0 af 90 a5 c0 f9 00 7a c0 38 73 b9 c0 58 5b 1e 3f
       -5.1739116 -3.9063094 -5.795315 0.6185813
0000f0 54 5c bf c0 b9 04 bd be 3c f4 33 c0 86 9d 30 c0
       -5.9800205 -0.36917666 -2.811782 -2.7596145
000100 95 d5 2a c0 88 c8 2c c0 57 75 35 c0 68 d8 29 c0
       -2.669286 -2.6997395 -2.8352869 -2.6538334
000110 6f 62 7e c0 61 d2 70 c0 82 d2 97 c0 ac e4 70 3f
       -3.974758 -3.7628405 -4.7444468 0.94098926
000120 41 b3 bb c0 32 56 51 3f 9b 78 b7 c0 20 51 7d c0
       -5.8656316 0.8177215 -5.7334723 -3.9580765
000130 cd 62 bb c0 d0 22 4a 3f e2 bc a4 c0 38 8f b6 bf
       -5.8558106 0.7895937 -5.148057 -1.4262457
000140 9f c7 ab c0 ae 76 68 3f 23 de b9 c0 1e f5 87 c0
       -5.368118 0.9080609 -5.8083663 -4.2486715
000150 2e 8e b2 c0 83 31 9a be 69 cf a5 c0 79 09 75 3d
       -5.579856 -0.301159 -5.1815686 0.059823487
000160 2a c9 b9 c0 2c 14 6d c0 ab 34 38 c0 63 98 26 c0
       -5.805806 -3.7043562 -2.8782146 -2.603051
000170 65 51 2f c0 d6 11 32 c0 34 e4 36 c0 7d 60 24 c0
       -2.739343 -2.7823386 -2.8576784 -2.5683892
000180 e6 92 35 c0 26 d5 2b c0 cb 8a c0 c0 dd 9f da 3d
       -2.837091 -2.6848845 -6.0169425 0.10675023
000190 0f 6e 29 c0 2f ec 2e c0 23 0f 34 c0 21 d5 30 c0
       -2.6473424 -2.7331655 -2.8134239 -2.7630084
0001a0 26 ac 2f c0 bb 07 30 c0 8a c0 33 c0 85 2f 29 c0
       -2.744882 -2.7504718 -2.8086267 -2.6435254
0001b0 4c 1a 2c c0 6f f3 2f c0 b0 22 27 c0 44 53 38 c0
       -2.689105 -2.749233 -2.6114922 -2.8800821
0001c0 0b 16 28 c0 7b cd 2e c0 fb b5 27 c0 f3 01 28 c0
       -2.6263454 -2.7312915 -2.6204822 -2.625119
0001d0 58 32 34 c0 53 7a 30 c0 55 9f b5 c0 29 fa 85 3f
       -2.8155727 -2.757466 -5.6756997 1.0466968
0001e0 f7 82 8a c0 13 a8 5c c0 bc 08 a9 c0 68 73 64 c0
       -4.328487 -3.4477584 -5.282316 -3.5695438
0001f0 73 1b 34 c0 fa 8e 38 c0 84 be d0 c0 cb 31 99 c0
       -2.8141754 -2.8837266 -6.5232563 -4.7873282
000200 7c d4 b8 c0 77 ce 92 c0 c1 5e b3 bf
       -5.775938 -4.587703 -1.4013292

crf.transitions f4 [131, 131]
000000 d3 0b 9f bf 98 9b 99 bf 6e db 15 c0 3c c6 85 c0
       -1.2425483 -1.2000608 -2.341518 -4.1804485
000010 7f b1 c0 bf 24 cd 24 c0 34 73 8c bf 54 1c 9f bf
       -1.5054168 -2.5750208 -1.0972657 -1.243052
000020 0c 99 1a c0 1c 8c 61 c0 b3 f2 99 bf f8 96 a4 bf
       -2.4155912 -3.5241766 -1.2027191 -1.2858572
000030 46 1e d0 bf 23 1f 27 c0 4f 27 e0 bf 9f 62 6a c0
       -1.6259239 -2.6112754 -1.7511996 -3.6622694
000040 1e 2b d6 bf ac 39 37 c0 dd 20 d2 bf 3d 15 1a c0
       -1.6731908 -2.862895 -1.6416279 -2.4075463
000050 f5 6c 96 bf 76 77 a5 bf c6 16 95 bf 97 2b a6 bf
       -1.1752001 -1.2927082 -1.1647575 -1.2982053
000060 85 7e cf bf d3 1c 10 c0 e2 0a 8e bf e5 3c 98 bf
       -1.6210486 -2.2517593 -1.1097071 -1.1893584
000070 3f bb c5 bf 52 c9 07 c0 39 43 93 bf b0 fd 00 c0
       -1.5447768 -2.1216626 -1.150489 -2.0154839
000080 2f e2 a3 bf ed 70 a0 bf 1b c4 a9 bf 06 4d 96 bf
       -1.2803401 -1.2534462 -1.3262972 -1.1742256
000090 4e 5f 91 bf 6d 75 9e bf 66 22 e1 bf 4c 88 5a c0
       -1.135721 -1.2379586 -1.7588623 -3.414569
0000a0 3b f8 c4 bf 17 db 02 c0 84 f3 cb bf f6 dd 37 c0
       -1.5388254 -2.0446222 -1.593369 -2.8729224
0000b0 ff 38 a3 bf ef 56 94 bf 91 81 a4 bf 98 7e 93 bf
       -1.2751769 -1.158903 -1.285204 -1.1523008
0000c0 9e 10 a4 bf 7f 1e 96 bf 2d 57 ea bf 41 09 61 c0
       -1.2817571 -1.1728057 -1.8307854 -3.5161898
0000d0 ed dc d3 bf d0 13 6b c0 f7 0d c4 bf 9c e9 2b c0
       -1.6551796 -3.6730843 -1.5316762 -2.6861334
0000e0 34 a5 bc bf 5c a9 3b c0 82 6c be bf 8b 83 29 c0
       -1.4737916 -2.9322119 -1.4876864 -2.6486537
0000f0 f3 5c fa bf f8 69 3e c0 96 9e a0 bf 95 33 a1 bf
       -1.9559616 -2.9752178 -1.2548397 -1.2593867
000100 82 1e 95 bf 8b 3f 9e bf 5f 8f 9f bf f1 4e 9b bf
       -1.1649935 -1.2363142 -1.2465628 -1.2133466
000110 8d de dc bf 38 9f 33 c0 5f 83 bb bf 21 47 09 c0
       -1.7255417 -2.806593 -1.4649466 -2.1449664
000120 3e f2 cb bf 79 05 26 c0 63 e5 c0 bf bd 0b 25 c0
       -1.5933301 -2.594084 -1.5070003 -2.5788414
000130 d8 6e de bf 90 9c 6b c0 c1 d6 3a c0 df a8 74 c0
       -1.7377577 -3.6814308 -2.9193575 -3.822807
000140 a0 f2 c4 bf 80 08 38 c0 89 45 0d c0 13 10 49 c0
       -1.5386543 -2.8755188 -2.207369 -3.141606
000150 a5 bc b1 bf 38 e9 2d c0 05 42 fa bf 3e d6 70 c0
       -1.3885695 -2.7173595 -1.9551398 -3.7630763
000160 c2 99 b2 bf 69 1f 35 c0 5a 18 9a bf 7a 3e 98 bf
       -1.3953173 -2.8300421 -1.2038682 -1.1894066
000170 ac 3f a2 bf 1e 02 99 bf 7b fa 8e bf 6e 34 8f bf
       -1.2675681 -1.1953771 -1.117019 -1.1187875
000180 51 9a 8d bf 7a bf 90 bf fd 12 db bf d0 d9 60 c0
       -1.1062719 -1.1308434 -1.711517 -3.5132942
000190 83 3f 8c bf 0a b3 96 bf 4d e0 93 bf 24 12 94 bf
       -1.0956882 -1.1773388 -1.1552826 -1.1568036
0001a0 ef ff 8a bf 56 90 8e bf d4 0b a4 bf da c8 9f bf
       -1.0859355 -1.1137798 -1.281611 -1.248317
0001b0 0c 8f 91 bf 1d 5f 93 bf 20 ab 87 bf 8a 86 9a bf
       -1.137178 -1.1513401 -1.0599098 -1.2072308
0001c0 f7 67 8c bf 39 e9 8d bf 5e c0 87 bf e3 82 94 bf
       -1.0969228 -1.1086799 -1.0605581 -1.1602443
0001d0 71 57 9a bf b4 65 a1 bf 2d 42 3a c0 2b 2a 82 c0
       -1.2057935 -1.2609162 -2.910289 -4.0676475
0001e0 44 b7 f7 bf 51 bc 37 c0 08 92 b9 bf 79 b9 15 c0
       -1.9352803 -2.870869 -1.449769 -2.3394454
0001f0 9d e0 a9 bf 87 60 97 bf 53 76 e4 bf 0a 54 62 c0
       -1.3271672 -1.1826333 -1.784861 -3.5363793
000200 ce dc f0 bf 06 ec 53 c0 ab ba 8d c0 62 ee 95 bf
       -1.8817384 -3.3112807 -4.4290366 -1.1713374
000210 ef 5d 8e bf 91 b0 0e c0 65 f7 7d c0 8a 5c cd bf
       -1.1122416 -2.2295268 -3.9682248 -1.6043866
000220 fd 3d 25 c0 8b b1 89 bf 81 ca 9b bf 0f 53 18 c0
       -2.5819085 -1.0757307 -1.2171174 -2.3800695
000230 ba 01 59 c0 3f 5d 98 bf 26 0b 8e bf 5a c0 c7 bf
       -3.3907304 -1.1903456 -1.1097152 -1.5605576
000240 d7 ad 29 c0 d7 f3 e3 bf 36 1b 60 c0 ec 4b c3 bf
       -2.6512353 -1.7808789 -3.5016608 -1.5257545
000250 a8 86 30 c0 36 d9 c9 bf 54 9b 1a c0 24 61 83 bf
       -2.7582188 -1.5769413 -2.4157305 -1.026402
000260 2d 81 a1 bf 7e f3 8e bf 35 cb a4 bf 33 3d b7 bf
       -1.2617546 -1.1168058 -1.2874514 -1.4315552
000270 ea f4 0d c0 c3 a0 82 bf 4c a5 96 bf 7c 38 b8 bf
       -2.2180734 -1.020531 -1.1769195 -1.4392238
000280 08 88 0e c0 eb e0 89 bf ef b6 0b c0 c1 7c 9d bf
       -2.2270527 -1.0771765 -2.1830404 -1.2303697
000290 20 46 9a bf 1f 4b a1 bf 35 e0 9c bf 5c 64 92 bf
       -1.205265 -1.260105 -1.2255923 -1.1436877
0002a0 fe a0 92 bf c0 5a da bf c5 d3 58 c0 32 a9 b1 bf
       -1.1455381 -1.7058945 -3.3879254 -1.3879759
0002b0 83 e2 0b c0 ba 92 af bf b0 06 36 c0 f9 b7 9c bf
       -2.1857002 -1.3716652 -2.8441582 -1.2243644
0002c0 51 9c 8b bf 7a 6d a0 bf b6 f6 89 bf 73 0b 9d bf
       -1.0907079 -1.253341 -1.0778415 -1.2269119
0002d0 e4 51 97 bf 00 d0 e8 bf 74 27 59 c0 dd 8b c9 bf
       -1.1821866 -1.8188477 -3.393033 -1.5745808
0002e0 8e 68 60 c0 09 6a bc bf d1 c7 25 c0 5f 17 bf bf
       -3.5063815 -1.4719859 -2.5903208 -1.4929007
0002f0 95 ad 3f c0 c4 eb b4 bf f9 d2 27 c0 ac 01 f9 bf
       -2.9949696 -1.413445 -2.6222517 -1.9453635
000300 33 23 3a c0 32 67 9a bf 96 48 8b bf 00 10 88 bf
       -2.9083984 -1.2062743 -1.0881526 -1.0629883
000310 9c b9 90 bf 26 64 a4 bf 8b 86 94 bf fa 2b ca bf
       -1.1306643 -1.2843063 -1.1603559 -1.579467
000320 ce 3a 2a c0 bf 9a c7 bf 13 cf 0d c0 67 e4 c0 bf
       -2.6598392 -1.55941 -2.2157638 -1.5069703
000330 91 8f 1c c0 61 2c b7 bf ad 6b 19 c0 e9 5c cf bf
       -2.4462626 -1.4310418 -2.397197 -1.6200229
000340 1f 72 6d c0 3b 2a 39 c0 57 ac 78 c0 53 2e c0 bf
       -3.7100904 -2.8932025 -3.8855188 -1.5014137
000350 d3 7c 3d c0 d9 38 0a c0 db 8e 48 c0 0b af b6 bf
       -2.9607437 -2.1597197 -3.1337192 -1.4272169
000360 43 0a 2c c0 dd a1 ff bf a6 d0 75 c0 13 00 a9 bf
       -2.6881263 -1.9971272 -3.84086 -1.3203148
000370 74 13 33 c0 c8 ef 98 bf ed ba 8e bf a5 bc 94 bf
       -2.7980623 -1.1948175 -1.1150795 -1.162007
000380 c2 67 87 bf 62 66 96 bf a2 0c 8d bf e9 23 8b bf
       -1.0578539 -1.1749995 -1.101948 -1.0870334
000390 76 85 92 bf d2 53 ec bf ad 1f 58 c0 08 58 88 bf
       -1.1446979 -1.846308 -3.3769333 -1.0651865
0003a0 09 1d 8d bf 88 8d a1 bf 4d 20 9c bf fd c4 86 bf
       -1.1024486 -1.2621317 -1.2197357 -1.0528866
0003b0 7a fe 8d bf 1d e5 8d bf 8f 83 94 bf b1 5b 9a bf
       -1.1093285 -1.1085545 -1.1602648 -1.2059232
0003c0 48 bb 9a bf c6 18 88 bf 72 bc 9c bf ed ef 8b bf
       -1.2088404 -1.063256 -1.2245009 -1.0932595
0003d0 24 54 87 bf 6a 4f 8c bf db c2 98 bf f1 9f 95 bf
       -1.0572553 -1.0961735 -1.1934465 -1.1689435
0003e0 d7 1b 8f bf a0 6c 38 c0 dd 78 77 c0 5f 43 f8 bf
       -1.1180371 -2.88163 -3.866752 -1.939556
0003f0 b6 d4 35 c0 b8 75 ac bf 41 f2 14 c0 c9 b4 8f bf
       -2.8411078 -1.3473425 -2.327286 -1.1227046

hidden2tag.weight f4 [131, 4]
000000 61 05 00 3f 39 e1 48 40 ad 95 1e 40 61 82 8f 3e
       0.5000821 3.1387465 2.4778855 0.2802916
000010 7b f1 10 3f 2d 20 4f 40 e5 56 2b 40 d2 71 df 3e
       0.5661847 3.2363389 2.6771786 0.43641526
000020 87 8a cb bf 0c 36 5e 3c 18 36 08 40 b4 4f 61 3f
       -1.590165 0.0135626905 2.1283016 0.8801224
000030 c3 6a 16 c0 2f 0e 30 40 5b 45 ae bf fa e2 47 3f
       -2.3502662 2.7508657 -1.3614916 0.78080714
000040 33 2f 78 40 db f0 cc 40 d8 a8 80 40 a9 b9 7d be
       3.8778808 6.4044013 4.020611 -0.24777855
000050 21 96 cb 3f 4f ba af 40 f6 e4 a9 bd 4a aa 2b 3f
       1.5905191 5.4914927 -0.08295624 0.67056715
000060 bb 18 a6 3e 49 d9 3a 40 e0 33 40 40 fa 8f 00 3f
       0.32440743 2.919512 3.0031662 0.5021969
000070 98 6c 84 3e 7a b1 32 40 91 75 16 40 18 ac dc 3e
       0.258641 2.7920823 2.3509257 0.43100047
000080 65 10 81 bd d9 f3 65 3f 44 2f 20 3f 78 25 1d c0
       -0.06301955 0.89825207 0.6257212 -2.455412
000090 fd 7c d9 bf b1 7b da 3f ef e3 33 40 4d fe 35 c0
       -1.6991268 1.7068998 2.810787 -2.8436463
0000a0 1f 19 c4 3e a6 fb 29 40 1e 33 2c 40 a3 3c a7 3e
       0.38300416 2.6559844 2.69062 0.3266345
0000b0 90 a0 49 3f d0 78 2b 40 bb 26 33 40 e2 75 1b 3e
       0.78760624 2.6792488 2.799239 0.15181687
0000c0 12 35 57 bf 50 9e 53 40 d9 89 22 40 84 0a 22 c0
       -0.84065354 3.3065376 2.5396636 -2.5318918
0000d0 16 7e 05 40 ff 19 03 bf 47 93 82 40 52 ba 46 bf
       2.0858207 -0.5121154 4.080478 -0.7762805
0000e0 ee e5 1c 40 6b d9 c7 3f 12 79 a1 3f 82 d3 a1 3f
       2.4515338 1.5613226 1.2615073 1.2642672
0000f0 6e 0c 60 bf 00 06 01 3f a4 47 b0 3e 98 c3 6b 3f
       -0.87518966 0.5039978 0.34429657 0.9209533
000100 d6 d4 ac bf d5 21 3b 40 fd 1a 5e 40 5c 25 c7 3f
       -1.3502452 2.92394 3.4703972 1.5558276
000110 3e 35 99 3f 37 08 7a 3d 43 44 89 40 b1 2c db bf
       1.1969373 0.06104299 4.2895827 -1.7123014
000120 70 d0 1b 40 10 0e 80 be 34 b0 97 40 24 33 bc bf
       2.434597 -0.2501073 4.740259 -1.4703107
000130 cb 93 12 40 0a 85 be 3e f7 5d 9c 40 81 50 dc 3f
       2.2902706 0.37210876 4.8864703 1.7212068
000140 16 1e e8 3e cb 1b 24 40 76 8e 41 40 06 31 02 3f
       0.45335454 2.5641963 3.0243201 0.50856054
000150 17 aa a4 3e 86 ef 1a 40 c9 f0 42 40 9e c7 93 3e
       0.32161018 2.4208694 3.0459464 0.28863233
000160 1e 9e 0d 3f c1 74 38 40 df f0 19 40 03 c5 54 3e
       0.5531939 2.882126 2.4053266 0.20778279
000170 be e9 5b 3e 10 bd 07 40 38 e5 42 40 f4 6a ea 3e
       0.21475884 2.1209145 3.0452404 0.45784724
000180 e9 98 93 bf 2c 70 53 40 ac 66 6e 40 05 62 d0 3f
       -1.153104 3.3037214 3.7250166 1.6279913
000190 26 5e 25 bd 80 db 91 3f 9a 13 e0 3f 1d 80 8f bf
       -0.04037299 1.1395111 1.7505982 -1.1210972
0001a0 28 c2 e2 3e 68 37 4b 40 fd d9 17 40 38 d4 e0 3e
       0.44288754 3.1752567 2.37268 0.4391191
0001b0 65 d4 ae 3e d7 87 3e 40 a0 a9 41 40 79 70 ff 3e
       0.3414642 2.977041 3.025978 0.49890497
0001c0 3f 89 cb 3f 05 8f 04 40 60 5e 77 40 ce 8a af 3f
       1.5901259 2.0712292 3.8651352 1.3714235
0001d0 18 85 45 40 12 34 01 bd a9 86 1e 3f d9 c9 32 40
       3.0862484 -0.0315438 0.61924225 2.7935698
0001e0 a7 d7 6e 40 ae e3 54 40 4a 90 41 40 59 e3 fb 3e
       3.7319124 3.3263965 3.0244317 0.4919689
0001f0 68 fe 15 40 6c 75 51 40 24 6b bf 3f 8f 21 4f 3f
       2.3436527 3.2727919 1.4954572 0.8091058
000200 79 1f 04 3f fa 05 30 40 45 72 3b 40 e2 b4 98 3e
       0.51610523 2.7503648 2.9288495 0.29825503
000210 7d cf 0f 3f 47 8d 19 40 10 75 29 40 0d 0c ff 3e
       0.56175977 2.399248 2.64777 0.49813882
000220 5b 29 f0 3e c5 ec 20 40 5c fa 1b 40 31 4f 99 3e
       0.46906552 2.5144513 2.4371557 0.2994323
000230 d0 fa 8f 3e ee 67 28 40 a1 98 17 40 a6 f8 e0 3e
       0.28121042 2.6313434 2.3686907 0.43939704
000240 7e 83 f7 3e 6a 6e 35 40 26 68 35 40 ad cf 84 3e
       0.48342508 2.8348641 2.8344817 0.25939694
000250 59 07 ee 3e ac cb 27 40 82 80 1a 40 18 84 8f 3e
       0.4648998 2.6218061 2.4140935 0.28030467
000260 bc 11 99 40 f9 87 b1 3e f2 c7 8c 40 68 d8 9d 40
       4.783415 0.3467405 4.3994074 4.932667
000270 2e b9 20 40 42 8a ad 40 0e 37 68 bf 77 03 9d 3e
       2.5113025 5.423127 -0.90709007 0.30666706
000280 7e 46 a1 3c 1a c1 38 40 35 f3 62 40 64 d4 70 bf
       0.019686934 2.886786 3.5460942 -0.9407408
000290 17 35 5b 3f a4 c3 63 40 1d 12 8c 40 8b 99 2b 40
       0.85627884 3.558816 4.377211 2.6812465
0002a0 4d fa ed be 03 cd fa 3f 73 f6 f3 3f a8 9c 54 bf
       -0.46480027 1.9593815 1.9059585 -0.8305154
0002b0 6b e3 e8 3f f4 73 9d 3e 8b 9c fa 3f 77 6f 1b 40
       1.8194402 0.30752528 1.9579023 2.4286783
0002c0 26 27 10 3f 13 af 0c 40 5d 41 27 40 ce 9b 2b 3e
       0.56309736 2.1981857 2.6133645 0.16758654
0002d0 aa 19 01 3f 36 f4 17 40 5d 7a 24 40 64 47 06 3f
       0.50429785 2.3742805 2.5699685 0.52452683
0002e0 f3 73 8a 3e d3 5c 16 40 a5 63 47 40 b6 a8 06 3f
       0.27041587 2.3494155 3.1154568 0.5260118
0002f0 4a 91 87 3e c7 a6 20 40 50 d5 3f 40 81 3c 01 3f
       0.26478034 2.5101793 2.9973946 0.50482947
000300 80 96 a4 3e 97 97 32 40 76 06 34 40 d3 26 06 3f
       0.32146072 2.7905023 2.8128943 0.5240299
000310 8f 2d ed 3e 27 44 45 40 cb 0c 2d 40 7c 9a 9b 3e
       0.4632382 3.0822847 2.7039058 0.303913
000320 b1 5c 9d 3f b2 5c bd be 90 85 b0 40 aa fe dd be
       1.2293912 -0.36984783 5.516304 -0.43358356
000330 c4 92 ff bf dc 80 83 40 94 62 46 bf 0d 54 86 bf
       -1.9966664 4.10948 -0.7749417 -1.04944
000340 9c 6d 70 40 86 65 9e 40 17 90 a4 40 98 b2 19 3f
       3.75669 4.949893 5.142589 0.6003814
000350 57 36 0f c0 ba 54 ac 40 2e 7f 2e bf 68 40 27 c0
       -2.2376916 5.3853426 -0.6816281 -2.613306
000360 d4 9c 8a bd f1 2b b7 3f e6 81 a4 40 0f d3 d3 bf
       -0.06768194 1.4310285 5.1408567 -1.6548785
000370 b8 c7 16 c0 b4 1f 9b 40 ec 2f 38 3f 2c 22 e6 3f
       -2.3559399 4.84762 0.7194812 1.7979178
000380 43 1b 05 40 0c 7c 8e 40 43 88 80 40 10 67 91 3f
       2.079789 4.4526424 4.0166335 1.1359577
000390 67 88 17 40 63 1f 11 3e 85 c5 4f 40 0c b0 ee 3f
       2.3677003 0.1417213 3.2464306 1.8647475
0003a0 ab 22 4e 40 39 1a 91 be 23 47 93 40 7c f4 6f 3f
       3.220866 -0.2834032 4.6024337 0.9373243
0003b0 94 bf b4 bf 91 99 78 40 8b db 95 be e7 e9 04 40
       -1.4120965 3.884373 -0.2926906 2.0767763
0003c0 46 11 19 40 5e a6 cc 40 06 2c 0b bf 28 c6 0f 40
       2.3916793 6.3953085 -0.5436405 2.2464695
0003d0 53 8d 0d c0 b3 b9 ba 40 03 51 fb be f2 1f 85 40
       -2.2117507 5.8351684 -0.49085245 4.1601496
0003e0 a0 44 f2 3e fb 19 16 40 3e 0f 34 40 30 65 fd 3e
       0.47317982 2.3453357 2.8134303 0.49491262
0003f0 5d 66 8c 3e 55 c1 30 40 5e 2c 22 40 d1 37 0d 3f
       0.27421847 2.7618 2.533958 0.55163294

hidden2tag.bias f4 [131]
000000 21 16 16 c0 23 34 0a c0 66 e1 37 bf 7e 00 9a bf
       -2.3451006 -2.1594322 -0.71828306 -1.20314
000010 a9 49 02 be 78 e3 ef 3d f7 3d 19 c0 88 51 f7 bf
       -0.12723412 0.11713308 -2.394407 -1.9321756
000020 3a 9c fe be da 86 91 be fa 69 e8 bf e3 0a 19 c0
       -0.49728566 -0.28423196 -1.8157341 -2.3912895
000030 89 82 23 bf 1c cd 09 3f c6 25 24 bf 20 1c b1 3e
       -0.63871056 0.538286 -0.6412014 0.3459177
000040 b2 87 04 be a8 a3 b8 bd 84 7e 8c bf f6 95 02 bf
       -0.12942389 -0.0901559 -1.097611 -0.5101007
000050 0e 88 0c c0 d6 84 eb bf cf a9 0d c0 b3 3b 1e c0
       -2.195804 -1.8399913 -2.2134893 -2.4723938
000060 96 4d 4b 3e 3c 78 5d 3d ac 53 1f c0 43 f9 12 c0
       0.19853815 0.054069743 -2.489482 -2.2964637
000070 d0 80 b9 be 91 4e 2a 3e d5 21 84 bf d0 4a 99 bb
       -0.3623109 0.16631533 -1.0322825 -0.004678108
000080 ee b5 0f c0 6e 57 14 c0 63 f9 07 c0 d9 1e 26 c0
       -2.245479 -2.3178363 -2.1245964 -2.5956328
000090 bc f2 22 c0 17 53 26 c0 14 af 77 bf 10 6c c7 be
       -2.5460653 -2.5988214 -0.96751523 -0.38949633
0000a0 a4 64 79 bf 64 33 8e be 18 19 a3 be 41 5e a2 be
       -0.9741919 -0.27773583 -0.31855083 -0.31712535
0000b0 0b 74 f2 bf 7b 02 06 c0 74 51 23 c0 b6 68 2f c0
       -1.8941664 -2.0939014 -2.5518465 -2.740766
0000c0 f5 eb 28 c0 59 08 02 c0 6c de e8 3b 17 4d 35 bf
       -2.6394017 -2.0317595 0.007106593 -0.70820755
0000d0 5c 9f 26 be 73 32 6a bf e2 36 fe 3d 90 78 e6 bc
       -0.16271728 -0.9148323 0.12412812 -0.02813366
0000e0 2e 2c 70 3e 10 f3 2e bf ee 58 7a be 63 dd 4d be
       0.23454353 -0.68339634 -0.24447986 -0.20103984
0000f0 cc 4a e1 be b8 91 a6 be 42 68 1c c0 04 2e 00 c0
       -0.44002378 -0.3253305 -2.4438634 -2.0028086
000100 23 ca ec bf 95 e5 01 c0 77 ed 02 c0 dc 76 e0 bf
       -1.8499187 -2.0296376 -2.0457437 -1.7536273
000110 bc 52 39 3f 63 44 98 3e c3 97 2e bf 5d e6 b1 be
       0.7239187 0.29739675 -0.6820032 -0.34746066
000120 14 db 06 bd 6b 8c 04 3e bd 6c 6b be 89 11 e3 bc
       -0.032923773 0.1294419 -0.22990699 -0.027718322
000130 dc 35 bd be 0b ea 86 be 18 14 b1 be 74 f9 48 3f
       -0.36955154 -0.26350436 -0.34585643 0.78505635
000140 9f a2 68 be a1 73 e6 bd 4e 0c a5 be 18 e9 01 bd
       -0.22718285 -0.11252523 -0.3223595 -0.031716436
000150 83 96 ce be 14 2e d3 bc 5a 8a 7a bf 46 fe 4a bf
       -0.40349206 -0.025778808 -0.9786736 -0.7929424
000160 86 6f 1e bf f5 7f 16 bf a2 9e 1b c0 c3 1c e1 bf
       -0.6188892 -0.58788997 -2.4315572 -1.7586902
000170 50 c9 11 c0 25 5f 13 c0 86 c6 ff bf 9b 82 e3 bf
       -2.2779121 -2.3026822 -1.998246 -1.7774233
000180 fd 96 20 c0 fc 1d 25 c0 b0 bc 38 be 38 55 f9 bd
       -2.5092156 -2.579955 -0.18040729 -0.12174457
000190 b0 63 24 c0 cc 79 e0 bf b2 27 ed bf 24 d1 f8 bf
       -2.5685844 -1.753717 -1.8527739 -1.9438825
0001a0 b6 21 25 c0 7a 75 02 c0 15 27 1f c0 b9 70 1f c0
       -2.5801826 -2.0384202 -2.4867604 -2.491255
0001b0 1d 70 08 c0 f3 ac 18 c0 d9 cf ff bf 27 c5 08 c0
       -2.1318429 -2.385556 -1.9985305 -2.1370332
0001c0 ff 9a 24 c0 30 57 1f c0 d3 7a f4 bf d2 14 02 c0
       -2.5719602 -2.4896965 -1.9099983 -2.0325208
0001d0 eb ab 1b c0 65 9a 29 c0 e2 38 5f be a5 ce 70 3f
       -2.432368 -2.6500485 -0.21799043 0.94065315
0001e0 db 4a 04 3f 8b 16 0e 3f bc 94 a4 3e 25 cf 00 3f
       0.5167672 0.5550315 0.32144725 0.5031608
0001f0 c9 47 00 c0 9e 3e 21 c0 c8 cf f4 be a3 57 a8 be
       -2.0043814 -2.5194468 -0.47814775 -0.32879362
000200 05 50 93 be 43 02 d2 be ce 32 4c 3e
       -0.28771988 -0.4101735 0.19941255
