temp/best_modeltrigger_Momenum_1.model (torch, 155693 bytes, 14 tensors)

word_embeds.weight f4 [3918, 5]
00000000: eb3c 0bbe 24cc 0b3f 1d2f 3a3f 73dc 37bd
00000010: f404 bbbe 0b01 563f a7f1 6abe 5cb6 5ebf
00000020: 3bf2 3ebf 72e8 3e3e 3736 7abe 98f6 2e3f
00000030: e642 a93f 33ec 8abf c692 e7bf e3c9 983e
00000040: f8f7 01bf 4ded 633e 3b64 ef3f 1670 953f
00000050: b6c3 383f 90b4 b73e 301d 47bf 4f1c 513e
00000060: e88c 663f 679a 86bf 35ec 17bf 12cc 8bbf
00000070: d87e 973f 0d41 9e3f 7667 fdbe 34f3 a53e
00000080: 5fa1 73be 0d62 95be 66da e7bb 24d7 29bf
00000090: a6b6 3bbf ea49 b93d 9fb4 063e a78b 5ebf
000000a0: 3285 263f 6269 d83e ee3a 0e40 5418 77bd
000000b0: ec36 5b3f 4366 1ebd 4e9d 55bf 9387 06be
000000c0: 04df 0ebf 897d f3be 687f 24bf 0881 a63f
000000d0: 585d ca3c 9550 10c0 9a8d 043e 813b c4be
000000e0: 1706 d9bd 0eb4 b93e 9cc3 d8be 8098 9f3f
000000f0: 9fe1 143f b237 1bbe f7ad c93f 0020 d63e
00000100: 257c a7bf decf 9bbe 97d4 09c0 8a8e 863e
00000110: a4ef 913d 79a0 68bf 9450 1bbf 89de 123f
00000120: 5aa6 2fc0 07ac f2bf 95c2 e0be 56c8 eebf
00000130: cb2a cd3f 892b c43f e00a fe3f f791 acbf
00000140: 7c6b 99be 983b 84bf 5161 383f c60b 473f
00000150: ab76 75bf 9621 d5be 64a8 a13f 5c7a d9bf
00000160: aa8d e4be 52a6 85bf 14f1 89be 097e 823c
00000170: 17fc 60bf fc0b 5dbf 2f58 ab3f 5694 d0bf
00000180: 7a2b 00bf 4018 0ec0 23fb bbbf 4ba3 843e
00000190: d86d 743f 2d0e a6be 8b4c d2ba 7f3f aebe
000001a0: f98d 363f 9349 62be 0f3a ebbe f9f3 2f3e
000001b0: 7b0a 453f 6748 74be 5f57 623f e018 b0be
000001c0: f4ca 433f 76d6 eebf 97f7 95bf 7b0e f2be
000001d0: f7da 2140 7712 f53e 87df 2740 77d9 00bf
000001e0: a04c cc3e d88c 8dbe 07cf 2f3f 72fd babf
000001f0: 6692 ba3f c32a 3a3f f49c 93be c371 aebf
00000200: 99cb 3b3f a7d8 953d fdd3 2ebf fe35 d23e
00000210: bdb2 87be 3460 183f d60c 33bf 33de ebbf
00000220: e2b3 d0bf 7f6b 133f 87d2 163f 20d9 0240
00000230: f9b9 4f3f 9d81 bdbf 98b4 003f 12d7 e4be
00000240: 5b2c 03bf f120 403f e9a8 20be a2a7 50bd
00000250: 53f5 72bf 6f56 b43f 77f0 2cbf 5f0c ba3f
00000260: c9b2 a13e 57c0 043f 0700 d73b eeeb b03e
00000270: 190c 0c3f 0042 3dbe e241 e93f b0e9 edbd
00000280: 8841 2d3e 0354 63bf 0048 213f e974 3dbf
00000290: cc04 d73e 3558 1a40 e7f8 febd abf6 d33f
000002a0: fa0a 603e 5a43 52bf 2d99 223f 50c7 01bf
000002b0: fe73 6dbf 3b88 8ebf 7a89 16bd 9c34 003e
000002c0: ea05 963e c680 a0be 296c da3f 53b6 02c0
000002d0: 3e02 0ebe 494c 4e3e 90aa 0bbd 5c14 853f
000002e0: a753 8bbe c075 4dbf d8f8 8e3e 957b 943f
000002f0: ca93 d3bf 6d69 4c3e bb02 12be 63a6 febf
00000300: 0f2b 8cbf 5e9b 163d ad36 b5be d9ab 853f
00000310: 9e10 1ebf a0d8 b23e fa92 efbe 3303 f1be
00000320: 3af9 54bf 517b c4bd 2ca6 8a3d 8e22 5f3f
00000330: a46c 75bd 83fe ffbe c28e d7bf dd88 47bd
00000340: d40a 893f a6bb 403f a750 a9bf 7dac e73f
00000350: d3c9 c23e e54e c53f 6cba c83f 8833 693f
00000360: be94 c2be 48d8 01c0 839e 2440 08b4 153f
00000370: ea7f 03bf 918c b7be cb6e 953e 8825 e93f
00000380: 3ee3 c23e 0518 74be 3691 cc3f 574f a1bd
00000390: 408f fabf 67c7 b03e 4deb bdbe 666a 83bf
000003a0: 08da b8bf 56ed 9b3d 5e89 30bf f35b 533e
000003b0: d2e7 ba3d 0a1d 13c0 69ef 1d3f a022 8ebf
000003c0: 9969 39bf de0f 8cbf e872 0a3f f157 9c3f
000003d0: c6f1 6b3f 32b5 9fbe 5f42 653f 52a5 753f
000003e0: daee 06be eafa c33f 1df5 95be 2258 df3f
000003f0: 29d9 e73f 5538 ea3e d373 1240 52fc 2340
-0.13597457 0.5460837 0.7272814 -0.04488797 -0.36527216 0.8359534 -0.22943746 -0.8699701
-0.74588364 0.18643358 -0.24434744 0.6834502 1.3223541 -1.0853332 -1.8091667 0.29841527
-0.50768995 0.22258492 1.8702463 1.1674831 0.7217363 0.35879946 -0.7777891 0.20420955
0.90058756 -1.051587 -0.593448 -1.0921652 1.1835585 1.2363602 -0.49492997 0.32412112
-0.23792027 -0.2917637 -0.0070755957 -0.66343904 -0.73325574 0.09047301 0.13154839 -0.8693184
0.6504699 0.422679 2.2223468 -0.060325935 0.8563068 -0.038671743 -0.8344315 -0.13137655
-0.55809045 -0.47556713 -0.64256907 1.3008127 0.024702713 -2.2549183 0.12944642 -0.38326648
-0.10596865 0.36270183 -0.42336738 1.2468414 0.5815677 -0.15157965 1.5756215 0.4182129
-1.3084761 -0.30432028 -2.1536005 0.26280624 0.07125786 -0.9086986 -0.6066983 0.5737081
-2.7445283 -1.8958749 -0.43898454 -1.8654888 1.6028684 1.5325786 1.9847069 -1.3482045
-0.29964817 -1.0330687 0.72023493 0.7775234 -0.958842 -0.41627187 1.2629514 -1.6990466
-0.4463933 -1.0441382 -0.2694174 0.015929239 -0.8788466 -0.8634641 1.3386286 -1.6295269
-0.5006634 -2.22023 -1.4686016 0.25905833 0.9548011 -0.3243269 -0.001604454 -0.3403282
0.71310383 -0.22098379 -0.45942733 0.17182912 0.76969117 -0.23855744 0.8841457 -0.34393978
0.76481557 -1.8659198 -1.1716183 -0.47276673 2.5289896 0.4786565 2.623018 -0.50331825
0.3990221 -0.27646518 0.68675274 -1.4608595 1.4575927 0.727215 -0.28830683 -1.3628467
0.7335754 0.07316714 -0.6829222 0.41056818 -0.26503554 0.59521794 -0.6994146 -1.8427185
-1.6304896 0.575859 0.5891499 2.0445023 0.81143147 -1.480518 0.50275564 -0.44695336
-0.51239556 0.75050265 -0.15689434 -0.050941117 -0.94905585 1.4088877 -0.6755442 1.4535025
0.31581715 0.5185599 0.0065612826 0.34555 0.5470596 -0.18482208 1.8223231 -0.11616838
0.1691953 -0.88800067 0.6300049 -0.74006516 0.41995847 2.4116337 -0.12449818 1.6559652
0.21879187 -0.8213402 0.6351498 -0.5069475 -0.92755115 -1.1135324 -0.0367522 0.12520069
0.29301387 -0.31348246 1.7064258 -2.0423782 -0.13868043 0.20146288 -0.034098208 1.0396838
-0.2721226 -0.802578 0.27924228 1.1600214 -1.6529477 0.19962092 -0.14258854 -1.9894527
-1.095064 0.036769263 -0.35393277 1.0443069 -0.61744106 0.34930897 -0.46791822 -0.47072753
-0.8319279 -0.09593833 0.06769976 0.871621 -0.05991806 -0.49998865 -1.6840441 -0.048714507
1.070643 0.7528633 -1.3227738 1.8099514 0.38044605 1.5414702 1.5681891 0.91094255
-0.38004106 -2.0288258 2.5721748 0.5847783 -0.51367056 -0.3584943 0.2918609 1.8214579
0.38063997 -0.23837288 1.5981815 -0.07876461 -1.9574966 0.34527132 -0.37093583 -1.0266845
-1.4441538 0.076136276 -0.68959606 0.20640545 0.091262475 -2.2986474 0.61693436 -1.1104317
-0.72426754 -1.0942342 0.54081583 1.2214338 0.9216579 -0.3119293 0.895544 0.95955384
-0.13177052 1.5310948 -0.2928857 1.7448771 1.8113147 0.45746103 2.2883193 2.5622754

lstm.weight_ih_l0 f4 [8, 5]
00000000: 9b93 0e3f 817c 423e 6db7 e4be 2e73 ecbe
00000010: c407 3f3f 79af fd3e 305d 8bbe 28f7 20bf
00000020: d789 f43e d6c5 643f bf98 bb3e 0dc2 d73e
00000030: 310b 0cbf 8571 a23e d4d5 5f3f 7a4d 72be
00000040: 751d bdbe 3f09 813e dd7d 703e 7259 063e
00000050: c545 d4bd 4944 053e 4153 5dbf c05c 153e
00000060: f24e d73e 6ca1 b0be bf4c 82be cce8 953f
00000070: 1014 933d b80b ef3e b38d f7bd cf01 663d
00000080: f39d 2e3f a382 01bf ea59 aebe 832c 44be
00000090: aaf9 873f adcc 14bf 9107 12bf f39d 1d3f
0.5569398 0.18992807 -0.44671193 -0.46181625 0.74621224 0.49547938 -0.27219534 -0.6287713
0.47761413 0.89364374 0.36639974 0.42140236 -0.54704577 0.31727234 0.8743565 -0.23662367
-0.36936536 0.25202367 0.23485513 0.13120058 -0.1036487 0.1301433 -0.8645516 0.14586163
0.42052418 -0.34498155 -0.25449178 1.1711669 0.07181561 0.46688628 -0.12087574 0.05615407
0.6820976 -0.5058996 -0.34052974 -0.19157605 1.0623066 -0.5812481 -0.57042795 0.61569136

lstm.weight_hh_l0 f4 [8, 2]
00000000: e630 25bf 5acb 4ebe bf54 dbbe 7fa1 cabe
00000010: 662b bbbe e10c 103f e69a bf3e 7f7d 633f
00000020: cf89 49bf 5086 7fbf 8af3 11bd 0b26 f93e
00000030: 50b6 913d 8ad0 14be 7acd 083f 81e7 5f3e
-0.6452774 -0.2019476 -0.42838094 -0.39576337 -0.36556548 0.5626965 0.37422866 0.88863367
-0.78725904 -0.9981432 -0.035632648 0.48661837 0.071148515 -0.14532676 0.5343853 0.21865655

lstm.bias_ih_l0 f4 [8]
00000000: c69d 643e 318f e4bd 9ede 5dbe 2d99 3cbe
00000010: f42b cb3e 020e 9dbf 31d6 01be 478b bebe
0.22325811 -0.11160124 -0.21666953 -0.18417807 0.3968197 -1.22699 -0.12679364 -0.37215635

lstm.bias_hh_l0 f4 [8]
00000000: 9f41 54bf 0b72 b43e f2bc 24bf 4338 9abf
00000010: 5748 133f 248d cbbf 757b 59bf 50fc e33c
-0.8291263 0.35243258 -0.6435081 -1.204842 0.57532257 -1.5902448 -0.84954005 0.027830273

lstm.weight_ih_l0_reverse f4 [8, 5]
00000000: f1ef 393e f222 5fbe d562 afbc 1dec 4f3f
00000010: 9e50 d03e d50b 75be d8eb 253e b45a 2d3f
00000020: 656a 933e 14fa 0f3e 5966 eabc 55d5 003f
00000030: 4f5d 223c 95b5 f2be c1fa 2a3f 10a6 253f
00000040: 4562 d0be 7a15 d6be 3a9a 2e3f 5ae7 22bf
00000050: d65a 85bf 5965 293e 06f4 b4be 7af2 94bb
00000060: db59 54be 879d 8e3e 961d ff3e 8876 08bf
00000070: 6136 21bf 7f1c 73be d5c8 f1be 6f8b 9dbe
00000080: a968 38be e4e3 163f 2195 debc 74c3 b4be
00000090: 0624 60be c87c 39be 34d6 f7be a717 a23d
0.18157937 -0.21790674 -0.021409431 0.81219655 0.40686506 -0.23930295 0.16203249 0.67716527
0.2879211 0.14060241 -0.028613256 0.5032552 0.009909942 -0.4740416 0.6678887 0.64706516
-0.40699974 -0.4181326 0.6820408 -0.63634264 -1.0418346 0.16542567 -0.35342425 -0.004545507
-0.20737402 0.2785456 0.4982726 -0.53305864 -0.629736 -0.23741339 -0.47223535 -0.30770442
-0.18008675 0.58941483 -0.02717072 -0.3530537 -0.21888742 -0.18114007 -0.48405612 0.079146676

lstm.weight_hh_l0_reverse f4 [8, 2]
00000000: 526c 423e 1bca 29bf 4586 073e 011a 15bf
00000010: 202c d43e 65f0 87bd 3320 073f 98be 193d
00000020: 7979 fd3e 5dd8 0d3f ab98 1b3f 3553 27bf
00000030: 5ee8 b13e 5fc1 b5be b13f 873c e8c7 363e
0.18986633 -0.66324013 0.13234814 -0.58242804 0.41439915 -0.066376485 0.5278351 0.03753528
0.4950674 0.5540827 0.6077983 -0.6536134 0.34747595 -0.35499093 0.016509863 0.17849696

lstm.bias_ih_l0_reverse f4 [8]
00000000: 76d3 9fbe 4663 7abf 0b45 6d3e ab2c 003e
00000010: 54ea ea3e 7a48 093f d955 8a3d edc3 19bf
-0.3121602 -0.9780773 0.23170869 0.1251704 0.45881903 0.53626215 0.067546554 -0.60064584

lstm.bias_hh_l0_reverse f4 [8]
00000000: 11e2 bbbe 4c2e a9bd 8717 9bbe ee07 42bf
00000010: 4292 ebbe a653 d63e 576f 103f 5676 36bf
-0.36695912 -0.082607836 -0.30291387 -0.7579335 -0.46010023 0.41860694 0.5641989 -0.71274316

crf.start_transitions f4 [131]
00000000: 9988 8dbd c330 263d 6bf4 8c3e a002 28be
00000010: e539 aabc 5ff8 6b3c 3609 8dbd 80a3 cebd
00000020: 4807 27ba b12d 0db9 ae70 b3bd 0812 81bd
00000030: d0d1 ebbd b938 d8bd 878e b4bd 7e1d 7639
00000040: 1bad 843d da94 2e3d bb81 a5bd 5ae9 933d
00000050: 4991 96bd eb61 ebbc c987 b6bc a8bd e7bc
00000060: f32e a8bd 3a18 e2bd 3726 f2bc c83c 7fbd
00000070: 1802 d1bd 6ab8 c0bd cf55 6bbd d6ef a2bd
00000080: bcc4 97bb 1981 bc3c 6aec 3b3d 62c4 af3a
00000090: ee02 d9bd 67e3 b9bd f11f ddbc 6b1b 08be
000000a0: 2042 fa3c 518e 103d 7fc9 713d f39e fe3c
000000b0: 2e20 cb3b 05e4 303d e9e0 6f3c 68fa b7bd
000000c0: 2aa8 00bd 7aef 7dbd 1cf9 ab3e 79d4 a2bc
000000d0: 4891 503d 0f41 9d3c e9d3 163d 9be3 cc3c
000000e0: 0a30 c0bc 8f77 813d babb 933d 9e95 86bd
000000f0: fbc5 adbd edcc e8bd fb37 d5bd 4fc2 a7bd
00000100: a127 e2bc 7e95 a13c 8006 4939 1954 85bd
00000110: 1f7d c33e 6df7 adbd 9630 74bd 377f 29bd
00000120: 6903 36bd e849 a8bd 61d6 673d 6c97 f4bd
00000130: 43b8 a7bd 1fee f7bd 458e 303d 71c6 e4bd
00000140: 204d 8f3d 202c 2bbd 9c48 8abd 7d1c 303d
00000150: 1a5c a7bd fea9 5fbd 5f38 2b3c 0b8a 04be
00000160: a78e c6bd 5809 023c 9d36 55bc 7d8d 6e3c
00000170: 6e19 c23c 6557 81bd 3327 97bc 58c9 9dbd
00000180: 0d05 893d 6572 d0bc b8e2 303a cd9f ccbd
00000190: c46d 6c3d 0b21 86bd a7e9 453d 5b74 74bd
000001a0: 3f58 88bc 3a22 433d d8c5 f9bd e82d 96bd
000001b0: c7e5 e1bd bb58 aa3c a01c 913d 2730 19bd
000001c0: cf75 e6bd 2b37 803d 2c08 bdbd 9107 9e3d
000001d0: 3090 60bd 3453 aabc 46cf b4bc b9c2 49bd
000001e0: 35b6 6a3e a33f 34bd 7cf5 78bd 90d7 7ebd
000001f0: 4ee7 33bd 99d8 48bd 7791 f6bd 0176 4fbd
00000200: 2bd7 ddbd 3713 8abd 96aa 0f40
-0.069108196 0.040573847 0.27530226 -0.16407251 -0.02077956 0.014402478 -0.068865225 -0.10089779
-0.00063716294 -0.00013463829 -0.08761726 -0.06302267 -0.11514628 -0.10557694 -0.088162474 0.00023471375
0.0647833 0.042622425 -0.08081385 0.07222243 -0.0735193 -0.028733214 -0.022281544 -0.028288677
-0.0821208 -0.11039777 -0.029559238 -0.062313825 -0.102054775 -0.09410174 -0.05745488 -0.07955901
-0.004631607 0.023010777 0.04587976 0.0013409967 -0.10596262 -0.09076577 -0.02699277 -0.13291709
0.030549109 0.035291974 0.059030052 0.031081652 0.0061989045 0.043186206 0.014641025 -0.08983308
-0.031410374 -0.06199596 0.33588493 -0.019876705 0.0509198 0.019196061 0.036823187 0.025010874
-0.023460407 0.06321632 0.072135404 -0.06571506 -0.084850274 -0.113672115 -0.10411068 -0.08191358
-0.027606787 0.019724604 0.00019171275 -0.06510181 0.38181397 -0.08494458 -0.059616648 -0.041381087
-0.044436846 -0.082172215 0.056600932 -0.11942944 -0.08189442 -0.12105965 0.04310443 -0.11170662
0.06997132 -0.041790128 -0.067521304 0.04299592 -0.08171864 -0.054605477 0.010450452 -0.12943284
-0.096951775 0.007936798 -0.013013509 0.014560101 0.023693766 -0.06315497 -0.018451309 -0.07704419
0.066904165 -0.025445173 0.0006747651 -0.09991417 0.05772187 -0.06549271 0.04831853 -0.059681278
-0.016643642 0.047640063 -0.12195939 -0.07332975 -0.11030155 0.020794263 0.07085538 -0.037399437
-0.11252939 0.062605225 -0.09230074 0.07716287 -0.054825008 -0.020791627 -0.022071492 -0.049257968
0.22921069 -0.044006 -0.060780987 -0.062217295 -0.04392176 -0.04903469 -0.12039464 -0.050649647
-0.10832056 -0.06741946 2.2447867

crf.end_transitions f4 [131]
00000000: 59ff dcbd 0f7b 49bc d28c 99be 9ad5 6a3e
00000010: 3638 b8bd 46ba 013f 11fc d8bd 429a 95bc
00000020: 7ff6 2fbe 5978 6e3f 9741 9bbd 6f2f 0bbe
00000030: 7741 2e3c 6d4c eabd 4b1f 11be 1a5e 143e
00000040: 2cb5 19be 8798 d63c c9ec 10be 8697 a8bc
00000050: 52c0 e2bc 5c87 c1bd 7d54 c3bd 3507 58bd
00000060: cb11 8dbd 192a 15be 1df4 f8bd f911 3dbd
00000070: d0d8 84bc 7893 8d3e 7097 f0bd ae42 483e
00000080: b09c 97bb f476 fabd 9554 99bd f583 15be
00000090: c9f0 00bd 98e0 f7bd 1a0a a4be 2912 903f
000000a0: e375 0dbe b665 193f 0ccd 51bc dcd6 10be
000000b0: e535 73bc 2e11 893b 42c4 f4bc fa60 04be
000000c0: 8e5f 2d3d b198 e7bd c7f6 b3bc 86b4 2ebe
000000d0: 0b4a 42bd beb8 a8bd eb8a d9bc c0b6 15bd
000000e0: 8cdf 24be 5123 68bd e718 a4bd 62c1 853e
000000f0: e3b0 2bbe 2d9a 8e3e af29 d8bc f71f 1bbe
00000100: b9ad db3c f527 b7bd e977 e2bd 3101 3c3a
00000110: 2117 a3bd b4af e0bb 8643 c7bd 40e0 4a3e
00000120: 7547 90bc 7b0a 493e 73c5 ffbd 679f c7bc
00000130: 7260 25be 0c8d 703f 53ba 39bd 3d0d c2be
00000140: 79b8 d7bd 3e0d 1d3f 7fa5 1cbc 575a 0dbe
00000150: 9333 d2bd 9c78 af3e 1596 3cbe 5928 083f
00000160: f93f c9bd 0c8b 01be c8f1 55bc 6e64 373d
00000170: 07b2 13be 2ffa eebd 8b7c 0dbe dc4e 44bd
00000180: 925c d5bd cac2 d1bd c505 03bd c73d 123e
00000190: 9f4d 20bd be87 97bd de30 10bd 0e55 8abd
000001a0: 6db2 cebd 9119 073c c284 28bd e0e6 1c3d
000001b0: 5f31 0dbe 22cb e3bd 9a8e 05be bef0 c5bd
000001c0: 6501 81bd 9748 32bd 4aa0 a4bc 795a 8dbd
000001d0: 49ea b7bd 93f0 e2bc bd20 a1be 8b51 753f
000001e0: 5cb6 03be 2f6c b2bd 8f5a 03be 8a19 80bd
000001f0: ef6f d5bd 57f7 26bd fdef c3bc 582b 94bd
00000200: d607 edbc aaa6 2cbe 1275 c43e
-0.10790891 -0.012297406 -0.2999025 0.22933045 -0.089950964 0.50674856 -0.10594953 -0.018262032
-0.17183875 0.93152386 -0.0758087 -0.13592313 0.010635725 -0.11440358 -0.14172094 0.14489022
-0.15010518 0.026195778 -0.14152826 -0.020580065 -0.027679596 -0.09449646 -0.09537599 -0.05274125
-0.06888159 -0.1456684 -0.12155936 -0.04615972 -0.016216666 0.27651572 -0.117476344 0.19556686
-0.004626833 -0.1222972 -0.07486836 -0.14601119 -0.03147963 -0.12103385 -0.32038957 1.1255542
-0.13814501 0.59920824 -0.012805235 -0.14144462 -0.014844392 0.004182956 -0.02987874 -0.12927619
0.042327456 -0.113084204 -0.021968259 -0.17061052 -0.047433894 -0.08238362 -0.026555499 -0.036551237
-0.16100901 -0.056674305 -0.08012562 0.26124102 -0.16766696 0.27852002 -0.026387064 -0.15148912
0.026816236 -0.08943168 -0.11058027 0.00071718084 -0.07963396 -0.006856883 -0.09729676 0.19812107
-0.017612198 0.19632904 -0.12488832 -0.024368001 -0.16150072 0.9396522 -0.04534371 -0.37900725
-0.10533232 0.6134833 -0.009560942 -0.13803993 -0.10263743 0.34271705 -0.18416627 0.53186566
-0.09826655 -0.12650698 -0.013058133 0.04477351 -0.14423381 -0.116688125 -0.1381704 -0.04792677
-0.10418047 -0.10242231 -0.031987924 0.14281379 -0.039136525 -0.07398938 -0.035202853 -0.06754504
-0.10092626 0.008245842 -0.041142233 0.038306117 -0.13788365 -0.11122729 -0.1304268 -0.096650586
-0.06299094 -0.04352626 -0.020095963 -0.06902022 -0.08980233 -0.027702605 -0.3147029 0.9582755
-0.12862533 -0.08712041 -0.12827514 -0.06254871 -0.1042174 -0.040763225 -0.023918146 -0.0723483
-0.0289344 -0.16860452 0.38370568

crf.transitions f4 [131, 131]
00000000: 3727 d53c 63c1 59bc 78f0 38bd f483 6f3c
00000010: 6f5f 82bd 4670 acbd 58a0 c1bd f638 323d
00000020: d8be ca3c 67c1 a43d b2c8 ff3c dd98 6abd
00000030: c36f 64bd 11d4 b93b 064e 94bd 65ad dabc
00000040: c530 ad3d 0096 11bd 091a 383d 0238 76bc
00000050: b508 16bd e4de 773d d965 93bd 4011 f1bc
00000060: 7f0a b33d 74aa c1bd 8fd1 a8bd dd22 903d
00000070: bc1c c53d 5708 19ba fa91 c4bd 5636 f8bb
00000080: f6ca 04bd 6b75 b5bc 14b7 973c cef3 c4bd
00000090: 662f cbbd aaa9 a6bd daa4 a83c 952c 903b
000000a0: ab98 953d dfcd 14bd cc34 4abc d6b6 cc3c
000000b0: 1cd0 94bd 2234 c7bd adc5 a1bd 1154 4ebd
000000c0: bed8 f1bc da78 7cbd dd00 bdbd 79e2 85bd
000000d0: b747 b6bd ca0e 68bd 463d 9fbc b393 dcbc
000000e0: e95f aa3d f7c6 973d 45f1 5f3d e50d b4bc
000000f0: 94a7 76bd d3bd 953d 7b0b b8bd 8702 c43d
00000100: 7813 8dbd ca06 81bd 002d 823d e81d c73d
00000110: 536c 58bd 92c1 c9bd bf55 773d 69b7 2b3c
00000120: a139 a8bd 1cd4 99bd ce4f acbc 72b7 00bd
00000130: 5813 8abd 3542 bc3d 1b8a 84bd 40ff dcbc
00000140: b77b b3bc 507c 553c f8ea a8bd a66f 94bc
00000150: b58d 8dbd 75fc 95bd 2236 73bd dfb9 9abd
00000160: eea4 663d ac59 86bc b3ed 173d 9bcb 443d
00000170: 222b 773d 2731 ed3b 1a80 bc3d 8630 593c
00000180: 00af b7bc 9e52 a9bd c7d8 623d f52a 233d
00000190: 0870 983c f0f9 1c3d 9821 bbbc 27bd 38bd
000001a0: 1fe4 1d3c 945a 29bb d6e2 c5bd ed87 adbd
000001b0: 7e7b 473c 7b72 493d 8fea 90bd a039 3abd
000001c0: a5d3 6abd 9a3f 93bd df46 c83c a1d4 a63d
000001d0: 0951 0fbd 850f b8bd 3d5d c0bc 4dd9 263d
000001e0: 279d 453d bc10 c03d 8154 283d 6742 02bd
000001f0: 4cf6 dfbb dd6f 6dbd 05c3 a73d 47de 8a3d
00000200: d12a d2bb 73a8 78bd 87fb e9bd 81c3 c23d
00000210: 7a34 66bd 93f1 a9bd 1b02 303d a4de 2dbd
00000220: 898b 77bd fdaa cbbd ca1d 5b3c 1808 a73d
00000230: 37d0 cdbd 1660 343d 7014 383c 9d03 68bd
00000240: 87ff 83bc b2e8 a33d bfab 053d f4b5 743d
00000250: 2f9f 67bd 049f a5bd 6a41 c23c d8b2 bebd
00000260: cd0c a23c e47c adbc 53ad a7bd 4d5a ddbb
00000270: d63d 7fbd 098b 293d 9a7b 063c 8aab 813d
00000280: 55b6 5dbd 755e acbd eb7a e33c 35dc 943d
00000290: 7c4f b1bd 4b05 8c3d 28ae 1cbc f0d6 493d
000002a0: f668 3cbd 3118 48bd 0bb3 763d 3e36 cabd
000002b0: cb3d 053d 95a5 4c3d 17b1 bebd c955 2cbd
000002c0: ad76 3fbd 8a77 6d3d 9b1c 373d f714 613d
000002d0: 48ee 88bc 6675 ee3c 66b0 353d 60f7 a83d
000002e0: b398 28bd f1fa be3d 86da c13b ab9f acbd
000002f0: 5e3d f03c 2c05 b9bd b872 a73d 1344 9cbd
00000300: b16b c83c 88d6 26bd 5691 8c3d b054 74bd
00000310: 114c 8b3d fe28 e43c c936 38bd cba5 af3d
00000320: 5e90 7cbd d283 34bd 4e1d 2d3d abb2 523d
00000330: 21ae 553d 3ae2 77bd 1815 52bd 5751 23bb
00000340: b71d c53d a7ba 6a3d cf66 0e3c 1377 673d
00000350: ed95 c6bd 1c25 f7bb 272c 8c3c f9d2 0e3d
00000360: 47ab b63d badb b03d bfc3 babd 5eff b53d
00000370: 527c 5c3c 4fa3 723d dee1 ebbc 9350 77bd
00000380: 339f 33bc 2697 79bd af5c 953c d886 39bd
00000390: 7426 8fbc 4160 c43d 4de7 d1bd c18d 0f3d
000003a0: b0a8 b0bd b792 293d ed61 aabd b322 aebd
000003b0: 1b5c aebd 484e 353d 6065 e63b 4873 dc3c
000003c0: 8515 833d b729 45bc d1fc 59bc 954b b2bc
000003d0: abef bcbd 5abc a1bd 0ebf 273d 1696 0dbd
000003e0: f384 3fbc e588 7f3d 8968 453d d2cd d8bc
000003f0: 041c 273d 4b9d c3bd b859 0abd 233b b9bd
0.026019676 -0.013290736 -0.045151204 0.014618862 -0.06365859 -0.08419852 -0.09454411 0.043511353
0.024749205 0.08044701 0.031223629 -0.057274688 -0.055770647 0.0056710322 -0.07241444 -0.02669401
0.08456568 -0.03554344 0.044946704 -0.015028002 -0.036629397 0.0605153 -0.0719716 -0.02942717
0.08742236 -0.094563395 -0.08243095 0.070379 0.09624621 -0.00058377295 -0.09598155 -0.0075748367
-0.03242012 -0.022150716 0.018519916 -0.096168146 -0.0992115 -0.081378296 0.02058642 0.004399846
0.0730451 -0.036329146 -0.012341689 0.024989527 -0.07266256 -0.097267404 -0.07899032 -0.05037314
-0.029522296 -0.06163869 -0.0922868 -0.06537337 -0.08900397 -0.05665473 -0.019438397 -0.026925897
0.08319075 0.074109964 0.054673452 -0.021979282 -0.06021841 0.07311597 -0.08986565 0.095707946
-0.06888479 -0.06300123 0.06356239 0.09722501 -0.05283768 -0.09851374 0.06038451 0.01048074
-0.08214117 -0.0751116 -0.021034148 -0.031424947 -0.06741971 0.091923155 -0.06471654 -0.026977181
-0.021909578 0.013030127 -0.08247942 -0.018119644 -0.06911794 -0.07323543 -0.059377797 -0.07554983
0.056309633 -0.01640018 0.037091922 0.048045736 0.06034387 0.0072385254 0.09204121 0.013256198
-0.022422314 -0.08267711 0.055382516 0.03983589 0.018608108 0.038324296 -0.022843167 -0.045102265
0.009636908 -0.0025841342 -0.09662406 -0.084731914 0.012175439 0.049181443 -0.070759885 -0.04546511
-0.057330746 -0.071898654 0.024447856 0.081460245 -0.03498939 -0.08987335 -0.02348196 0.040734578
0.048245575 0.09378192 0.041096214 -0.031801607 -0.006834781 -0.05796801 0.08191494 0.06780677
-0.0064137955 -0.06070752 -0.11424928 0.09509946 -0.05620239 -0.0829803 0.042970758 -0.042448655
-0.060435805 -0.09944723 0.0133738015 0.08155841 -0.100494795 0.044036947 0.011235341 -0.05664407
-0.016113056 0.080033675 0.032634493 0.059743837 -0.056548294 -0.080869704 0.023712832 -0.093114555
0.019781495 -0.021177717 -0.08187356 -0.0067551495 -0.06231483 0.04139236 0.00820818 0.063315466
-0.054128964 -0.08416454 0.027768573 0.07268564 -0.086577386 0.06836947 -0.009563006 0.049277246
-0.045998536 -0.048851196 0.060229342 -0.09873627 0.032529633 0.0499626 -0.09311121 -0.042074
-0.046744037 0.05797533 0.044705015 0.054951634 -0.016715184 0.029108714 0.04435768 0.08250308
-0.04116125 0.09325207 0.0059159426 -0.08428892 0.029326137 -0.090341896 0.08176178 -0.076301716
0.024465414 -0.040731937 0.06863658 -0.059651077 0.06801618 0.027851578 -0.044974122 0.085765444
-0.061661117 -0.044071026 0.042264275 0.051439922 0.052168015 -0.06051848 -0.051289648 -0.0024920308
0.09624808 0.05730691 0.008691504 0.056510042 -0.09696565 -0.0075422656 0.017110897 0.034869168
0.08919387 0.086356595 -0.09119367 0.08886598 0.013457375 0.059237774 -0.028794225 -0.060379576
-0.010963249 -0.060935162 0.018232672 -0.045294613 -0.01747439 0.095886715 -0.10249195 0.035047296
-0.086259246 0.041399684 -0.08319459 -0.08502712 -0.085136615 0.044264108 0.007031128 0.02691044
0.06400589 -0.012033871 -0.013304905 -0.021764556 -0.092254005 -0.07897253 0.04095369 -0.03456696
-0.011689412 0.062386412 0.048195396 -0.02646533 0.040798202 -0.09551486 -0.03377697 -0.090444826

hidden2tag.weight f4 [131, 4]
00000000: d6fa a03e da87 1fbd dc0b 823e 7754 e9bd
00000010: a441 de3e aa79 abbe bc0c 243e ddad c63e
00000020: 2683 b63d 2354 c6be 54ac a0be e04a abbd
00000030: 917f 85be 06b3 e7be ef2a 983e a831 73be
00000040: 4f54 ec3d 340e f6bd 8a02 e6be 468a 09be
00000050: 81cc 8dbe c658 efbe c24e 103e 6b3b 92be
00000060: cb9a 933e a670 f63e bd18 ae3e 3f24 e03e
00000070: 0ac6 9a3e f68e 003f ddb5 4a3e 3302 38be
00000080: a29e 26be 0b25 903e bdad dcbe b6c2 0f3f
00000090: 74fc 143e b302 f2be 3577 1cbd 3bee 2b3d
000000a0: cca6 4c3e 572f 6a3d b134 d4be 7ace 89be
000000b0: e298 bcbe 5dc0 a03e 59b8 813e c428 aabe
000000c0: c742 5ebe 4b47 8bbe f56f a0be 4974 f6be
000000d0: 66a9 383e 875a a7bd d9d3 e13e b4f7 dfb8
000000e0: c920 38be fd75 573e ec8a 033e d437 3fbe
000000f0: 78f7 383d 491a d1be 220b 02bf 4721 cc3e
00000100: 7335 d0be 005a bcbd 6adb 7a3e c79b 043d
00000110: 130c f5bc e7a4 743e 3b40 d13e e68e 3f3e
00000120: e464 63be cac9 93be 526e 55be 1940 ecbe
00000130: e827 e93e 44e0 d1bd ba32 05bf 8c43 ebbe
00000140: b46e f3bd 6d4c 18be 9f8b 82be d024 b4be
00000150: 0d94 bbbe 2c40 cabd 0d78 0c3d 97ae 4b3e
00000160: 6f06 30be 5e51 88be 4110 1cbd ea2a 723e
00000170: d5b3 e63e 3523 ef3b c441 9d3e 147e d83e
00000180: b4ce 23bd def1 a83e 537d d1bd 5c0a bc3e
00000190: 5a32 b5be 9618 0bbe 47e7 6bbe f357 ccbe
000001a0: 2680 efbe a506 fc3e 098c e03e 4843 d73d
000001b0: fd9b ffbe 0115 b93e 4b0e 723e 9841 e63e
000001c0: 3b92 ab3e cf67 87be ab4c 303e 1d68 a1be
000001d0: 5878 c6be f6c6 883e 6ceb 9f3e 537e bfbe
000001e0: e359 cf3d c141 5abe ef45 d53e e46a dabe
000001f0: 40c7 dbbe 00e2 3bbe 9605 2bbd 8ee1 e13e
00000200: ce8e a53d f586 c1bd 0c55 8cbd d9e8 4bbe
00000210: 0a47 eb3e aead d63e 0135 0abd 45f6 453c
00000220: 6637 37be 5a9e 76be e73c 76be 2869 33be
00000230: 92e6 b13c 6a70 55be 5da8 ac3e 0c85 d2be
00000240: 72cc cb3e f0b9 923c e226 c0be b13f f5be
00000250: bcd0 bb3e 87fd 7dbe 2e79 f93e 82bb 653e
00000260: 52de 533e bad3 14bf 2df2 8e3d c86d bfbe
00000270: 52fe b3be cbdb 0b3f 6a8f 27bf 4d29 a1be
00000280: 7c63 3c3e ec7e db3e 8818 3fbc 7dd3 8a3e
00000290: bbe8 42be a33d 523e b050 86bd 6424 7bbe
000002a0: 802d debd 5f9a 0f3f e6f7 a03e cf7b c9be
000002b0: 77d9 85be df2d 83bd dd74 7fbe ca36 c1be
000002c0: a972 983e 9e03 1e3e 4261 7d3e 55ae 6f3e
000002d0: 4e0e c63e d5b1 4e3e 39e0 81be c287 e8be
000002e0: d8ff 29be 988d 093f 481a 5c3e ffc7 19be
000002f0: c1ad dc3e 0340 0d3f 421f c9be cc27 b83e
00000300: dd4e 80be e83f 19be 974c c83e 74f4 a63e
00000310: 46ec e03e 2a50 633e e021 3e3e 386d 3c3e
00000320: c87d a0bd a4d2 6c3e 2f94 e03e cd38 053f
00000330: 463a b0be af98 e0be c099 5ebc 960d ff3e
00000340: 9c1f 42be e93a 3bbe e9f7 c73e 30dc bcbe
00000350: 77f2 993e f105 06bf 4401 c5be 5fbe d43d
00000360: 229c 11be bc1a 8e3e b523 cd3e 8f73 6abe
00000370: 3a6e f63e ee53 a0be 8a62 9f3e c3d4 fdbc
00000380: d80b 50be baf8 5cbe 5084 a8be ee3a 4bbe
00000390: 16db a63e 5cd3 5a3e 2edf 2b3e c3dc f0bd
000003a0: 50e3 9d3e b47e 8abe d2ec d33e c7f5 dd3e
000003b0: 25f1 99be e99c 2d3e e3d1 e33e b911 acbe
000003c0: 9745 ebbe ad23 19bf bfea 71bd 72a7 aebe
000003d0: 6c68 42be 7058 b5be 34e8 983d 534c f2bd
000003e0: 032f a7be e6e2 c53e fe6c cdbc 8e62 ffbd
000003f0: ffd8 cf3e c686 453e 8f3a b8be 1b46 e33e
0.31441373 -0.038947918 0.25399673 -0.113930635 0.43409455 -0.3349126 0.16020483 0.38804522
0.08911733 -0.38736066 -0.31381476 -0.08363891 -0.26073888 -0.45253772 0.29720256 -0.23749411
0.11539518 -0.12014428 -0.44923812 -0.13431653 -0.27695087 -0.46747416 0.14092544 -0.28560957
0.28829035 0.4813282 0.3400325 0.43777654 0.30229217 0.5021814 0.19795938 -0.17969589
-0.16271451 0.28153262 -0.43101302 0.5615648 0.14549428 -0.47267684 -0.038199622 0.04197524
0.19985503 0.057174053 -0.4144645 -0.26915342 -0.3683539 0.31396762 0.2533596 -0.33234227
-0.21705161 -0.2720283 -0.31335416 -0.48135594 0.1803337 -0.081715636 0.4410694 -0.00010679607
-0.17981257 0.21041103 0.12845963 -0.1867364 0.04515788 -0.40840366 -0.5079824 0.3986914
-0.4066578 -0.09196854 0.24497762 0.032375123 -0.029912984 0.2389103 0.40869316 0.18706855
-0.22206455 -0.2886489 -0.20842865 -0.46142653 0.4553826 -0.102478534 -0.5203053 -0.45949972
-0.11886349 -0.14872904 -0.25497147 -0.35184336 -0.3663639 -0.09875521 0.034294177 0.1989082
-0.17189954 -0.26624578 -0.03810144 0.23649183 0.45059076 0.007297898 0.30714238 0.4228369
-0.03999205 0.3299703 -0.10228982 0.36726654 -0.35389978 -0.13583598 -0.23037444 -0.3991085
-0.46777457 0.4922382 0.43856838 0.1051088 -0.49923697 0.36148837 0.23638265 0.4497192
0.33510002 -0.26446387 0.17216747 -0.31524745 -0.3876369 0.26714295 0.312343 -0.37401065
0.101245664 -0.21314146 0.41654918 -0.42659676 -0.42925453 -0.18347931 -0.041753374 0.44117397
0.080838785 -0.09449569 -0.06852159 -0.19913043 0.45952636 0.41929382 -0.033741955 0.012082641
-0.17892227 -0.24083844 -0.2404667 -0.17520583 0.02171639 -0.20843664 0.337222 -0.41117132
0.39804417 0.017910928 -0.37529665 -0.47900155 0.3668269 -0.24803744 0.48725265 0.2243481
0.20690277 -0.5813557 0.06979785 -0.37388444 -0.35154969 0.5463225 -0.6545321 -0.31476822
0.18397325 0.4287027 -0.011663564 0.27114478 -0.19034092 0.20531325 -0.06558359 -0.245256
-0.10848522 0.56094927 0.31439131 -0.3935227 -0.26142475 -0.064052336 -0.24946924 -0.37737113
0.2977498 0.15431067 0.24744132 0.23406346 0.3868279 0.20185025 -0.2536638 -0.45416075
-0.16601503 0.5373168 0.214944 -0.15017699 0.43101314 0.551758 -0.3928166 0.35967863
-0.25060168 -0.14965785 0.39120933 0.32608378 0.43930262 0.22198549 0.1856761 0.18401039
-0.07836491 0.23127228 0.43863055 0.52039796 -0.3441946 -0.43866488 -0.013586462 0.49815053
-0.1895737 -0.18284191 0.39056328 -0.3688674 0.30067798 -0.52352816 -0.38477528 0.10387873
-0.14219716 0.27754772 0.40066305 -0.22895645 0.4813097 -0.31314033 0.31129867 -0.030985242
-0.20317018 -0.21579257 -0.32913446 -0.19846699 0.32589024 0.2136969 0.16784355 -0.11760857
0.30837488 -0.27049792 0.41391617 0.43351576 -0.3006679 0.16954388 0.44496068 -0.3360727
-0.4595153 -0.5982006 -0.059061762 -0.34112126 -0.18985146 -0.35419035 0.07466164 -0.11830964
-0.32653055 0.38649672 -0.025076386 -0.1246997 0.40595242 0.19289693 -0.35982177 0.44389424

hidden2tag.bias f4 [131]
00000000: 9f6c eebe 8221 40be 7e25 833f a354 933f
00000010: 48ed f83e 8f6a 163f ac0f 6abe fc8a 36be
00000020: 585a 6a3f 1d51 aa3f b1bd 21bf 160d 13bf
00000030: 4779 f9bd d11b c3bd 1116 da3e c20f 773f
00000040: 23bf c8bd 24a6 a7bd b19a e0bd a459 d1be
00000050: 9a23 7ebd dfd8 aabe aa28 16bf 1644 0dbf
00000060: 9a4e 603e 4397 2f3d ec32 dabe 6b29 fcbe
00000070: 335f a9be 5ad5 413f 6acd c43c 6c9c 423e
00000080: b4b1 efbe 8a53 fabe dc42 20be abfa 04bf
00000090: b542 dfbd 6f85 d7be 7b7f 6e3f 9034 bb3f
000000a0: 251b 043e 5261 e73d 919d 043e 599e c8be
000000b0: 9fdc 86be db85 d7bd b4aa c7be 2040 7fbe
000000c0: 817c 1ebf d04e 4bbe 9a07 1fbe 2200 2d3e
000000d0: 70d7 e13e 6b46 f83e 86c8 153e 9b18 c4bd
000000e0: c57a 733e 3a66 ce3d 8734 a9be 8b8e 81bd
000000f0: 440a c93e 3831 4a3e 8ac7 b3be 0c01 a8be
00000100: 08b6 2bbf 6b87 64be 649a 97be 776f 92be
00000110: d324 30be 952d f53d 4e78 193d 5414 3a3e
00000120: 8634 babe ce47 24be 2739 b8be 3285 feb9
00000130: 1914 bb3e 9000 a63e 5fe9 bb3e 0055 df3f
00000140: b0c6 ba3c 0917 173e 2673 333c 3fb0 2f3e
00000150: f4e3 9d3e d45b 883e 702f 333f 44c1 663f
00000160: cc5e cabc 167f 0f3e 5447 0fbf 7b1b fcbe
00000170: 904f 17be 3b41 17bf 880e b7be 644c b3be
00000180: 6d08 1cbf 0660 9bbe 0508 823e b347 273f
00000190: a0cf acbe d028 96bc 2658 11bf cdb6 28bf
000001a0: ec51 73bd 93d9 a7bd 1f8c 49be 13da 11bf
000001b0: 20cd 79bd ab4d 0fbf 6dfe d1be 9cdc 12bf
000001c0: e873 8dbe fb60 83be 4118 1bbf c660 23bf
000001d0: b530 02bf 7854 7bbe 04e6 723f 4b1f bf3f
000001e0: efe0 2d3e 519c f23d 8618 553d 6898 f3bc
000001f0: 1ded 01be a5c8 20bf 77ad 8e3e 3039 693d
00000200: 2d89 983e b466 b83e 417f 4740
-0.46567246 -0.18762782 1.0245817 1.1510204 0.4861853 0.58756346 -0.22857541 -0.17826456
0.91544104 1.3306004 -0.6318007 -0.5744184 -0.12181335 -0.0952679 0.4259496 0.9650842
-0.098020814 -0.08185986 -0.10967005 -0.40888703 -0.06204567 -0.33368585 -0.586558 -0.55182016
0.21904984 0.042868864 -0.42616975 -0.4925035 -0.33080444 0.75716174 0.02402373 0.19004983
-0.46815264 -0.4889186 -0.15650505 -0.5194499 -0.10901395 -0.4209399 0.9316327 1.4625416
0.1290098 0.11297859 0.12950732 -0.3918331 -0.26340196 -0.10523578 -0.38997424 -0.24926805
-0.6190873 -0.19854283 -0.15530244 0.16894582 0.44109678 0.48491225 0.14627275 -0.095750056
0.23777302 0.10078092 -0.33047888 -0.06326016 0.39265645 0.19745338 -0.35113174 -0.328133
-0.6707463 -0.22317283 -0.29609978 -0.28600666 -0.17201547 0.11971585 0.037468247 0.18171817
-0.36368197 -0.16043016 -0.35981104 -0.00048545894 0.3653877 0.32422304 0.36701486 1.7447815
0.02279982 0.14754881 0.0109527465 0.17157076 0.30837977 0.2663256 0.6999426 0.9013865
-0.024703406 0.14013323 -0.55968213 -0.49239716 -0.14776444 -0.5908391 -0.35753274 -0.3501922
-0.60950357 -0.30346698 0.25396743 0.6534378 -0.33752155 -0.018330008 -0.5677513 -0.6590393
-0.0594043 -0.08195796 -0.19682358 -0.5697338 -0.060986638 -0.55977887 -0.41014424 -0.57367873
-0.27627492 -0.25659928 -0.60583884 -0.6381954 -0.5085557 -0.24543941 0.94882226 1.4931425
0.16980337 0.11846221 0.05202534 -0.029735759 -0.12688108 -0.6280616 0.27866718 0.056939304
0.29792157 0.36015856 3.117142
