temp/best_modellr=0.01_1.model (torch, 155693 bytes, 14 tensors)

word_embeds.weight f4 [3918, 5]
000000 73 26 14 bf f7 5b c4 3e cb ce 08 be ab b9 bc bf
       -0.5787117 0.38351414 -0.13360135 -1.4744161
000010 31 e3 1b be eb 1a d2 3e 08 f1 f7 bc b4 ac 24 c0
       -0.15223385 0.41036162 -0.0302663 -2.573041
000020 3a c5 25 3f f7 62 47 3e 0e 69 51 c0 af 53 2b be
       0.6475407 0.19471346 -3.272037 -0.16731142
000030 c5 42 dc 3f ad f0 5b bf 38 ed 6c bf 07 69 74 3e
       1.7207876 -0.8591412 -0.9254947 0.2386819
000040 65 bc b3 bf 79 07 50 3e 4b 88 48 c0 1f 64 29 bf
       -1.4041868 0.2031535 -3.1333187 -0.661684
000050 19 09 0f bf 56 34 1f 3f d7 0e ed be c2 38 2f bf
       -0.55873257 0.62189233 -0.46300384 -0.6844598
000060 ee d5 0b c0 a7 b0 90 bf df 9c 02 bf e9 eb 21 40
       -2.1849322 -1.130391 -0.51020616 2.5300238
000070 23 86 55 bf 1b bc 7e 3f 39 b0 38 be f0 c0 cd 3a
       -0.834078 0.99505776 -0.18035974 0.0015697759
000080 77 c7 57 3f 69 5b 6a be 8e 3f 87 bf cf 37 7e be
       0.84288734 -0.22886433 -1.056627 -0.24825977
000090 31 01 19 bd a6 56 f9 3e 96 77 01 c0 2f 91 69 be
       -0.03735465 0.4869892 -2.022924 -0.2280929
0000a0 d4 fe 4d 3f fc e8 85 3f 4c d0 aa 3f 49 8f 21 bf
       0.8046696 1.0461726 1.3344817 -0.6310926
0000b0 2f 90 f9 bd dc 3a a3 bf 7e 69 16 3f b3 30 53 3e
       -0.12185704 -1.2752337 0.5875472 0.20624046
0000c0 75 a6 15 c0 a0 01 9e bf 55 29 98 bf d6 4c 60 3f
       -2.3382847 -1.2344246 -1.1887614 0.8761724
0000d0 cc f5 c4 be 40 07 8b bf 53 4e 99 bf 3a 01 bd bf
       -0.38468778 -1.0861588 -1.1977028 -1.4765999
0000e0 f6 45 45 be ee b7 56 40 9b b7 f6 bf 2b 3f d7 be
       -0.19264969 3.3549762 -1.9274782 -0.4204038
0000f0 42 78 9e bf 91 14 79 3e e5 79 c1 3f 1e 77 0b bf
       -1.238045 0.24324252 1.5115324 -0.54478633
000100 ae e4 86 bf a0 9b 8b 3f fd b1 80 bf 9d 59 d3 3e
       -1.0538538 1.0906868 -1.0054318 0.41279307
000110 c9 13 15 c0 5e 97 4f 3e 9f 8b b5 bf ec 4c 7c 3f
       -2.3293326 0.20272586 -1.4183234 0.98554873
000120 e1 e3 8e 3f 43 6f ae bf cc b9 28 be f7 de 94 be
       1.1163293 -1.3627704 -0.16477126 -0.2907636
000130 84 0a a0 bc 78 7b c8 3f d0 c0 0a bf 73 1d 13 bf
       -0.019536264 1.566268 -0.5420046 -0.5746681
000140 0c 03 da 3e c7 a8 09 3f 0c c7 5d 40 9d 9b 43 3e
       0.4258045 0.5377316 3.4652739 0.1910233
000150 7f ed aa bf 67 41 ad bf 9f 1b 9f be 24 2d 69 3f
       -1.3353728 -1.3535584 -0.3107576 0.91084504
000160 1c 8a 21 c0 20 3c dd bf ba 7e 7b bf 64 41 75 3f
       -2.5240545 -1.7283974 -0.98240244 0.95802903
000170 50 07 66 3f f7 c8 dd 3e 4a 33 04 c0 24 50 e0 be
       0.8985491 0.43317387 -2.0656304 -0.43811142
000180 ae 4c d9 3f 52 4c b5 3f 5f ff cc bf a1 3b 22 be
       1.6976526 1.4163916 -1.6015433 -0.15843059
000190 c8 f0 f7 3f ae 75 a1 bf 52 a0 0c 3f a1 68 b5 3d
       1.9370356 -1.2614038 0.5493213 0.08857847
0001a0 a5 0c a6 3f 69 f7 07 c0 14 5c bd be 29 64 fd 3e
       1.2972609 -2.1244757 -0.36984313 0.4949048
0001b0 4b 84 8f bf d3 9d 45 be 9d 47 39 bf 5c 03 66 bf
       -1.1212248 -0.19298486 -0.723749 -0.89848876
0001c0 51 d8 12 3f 58 81 07 c0 39 44 14 bf b8 68 98 bf
       0.5736132 -2.1172695 -0.579166 -1.1906958
0001d0 0c 5d 44 bf 4d 13 33 3f d0 d2 53 bd 29 af 8f 3f
       -0.7670448 0.69951326 -0.05171472 1.122533
0001e0 ce c2 89 3f 50 33 09 c0 70 43 a4 3d 49 0d 0a 3f
       1.0762575 -2.1437569 0.08020675 0.5392652
0001f0 42 61 87 3d aa 67 43 3f 8d e7 70 3e 31 e4 f8 3e
       0.06610347 0.76330054 0.2352583 0.48611596
000200 b9 37 93 3e 38 f0 35 bf c9 fd c1 bf 18 f8 c5 3d
       0.2875345 -0.7106967 -1.5155574 0.09666461
000210 90 eb a9 3f ed a7 97 bf ff e4 5c be e1 a9 9c 3f
       1.3275013 -1.1848122 -0.2157173 1.2239343
000220 02 7d f3 3e fb 49 bf 3f 00 1e 2e c0 76 b0 d0 be
       0.4755631 1.4944452 -2.720581 -0.4075963
000230 93 ed c1 bf 5e 18 a2 3e d2 5a 31 be 0b a4 ee bf
       -1.5150627 0.31659216 -0.17319801 -1.8643812
000240 2f 84 95 bf 2e a9 8c bf 90 fe f4 3c 94 07 c9 3e
       -1.1680964 -1.098913 0.029906541 0.39263594
000250 dc cd cc bf e5 38 b2 bf 3d ca 8c bf 58 66 7e 3f
       -1.6000323 -1.3923613 -1.0999218 0.99374914
000260 44 74 a3 3e f6 9f b0 bf cc 92 b3 be a3 19 b9 bf
       0.3192464 -1.3798816 -0.35072935 -1.4460949
000270 72 ff 21 bf ae fd 9c 3f 09 af aa bf d4 c3 dd bd
       -0.63280404 1.2264917 -1.3334666 -0.10828367
000280 ad 61 06 3f 52 ff 34 bf 9c 92 4f 40 c3 98 01 c0
       0.5249279 -0.7070209 3.2433233 -2.0249488
000290 e3 82 7a 3e d3 dc 4a bf b1 e5 2c bf e8 3c 9f bf
       0.24463992 -0.792432 -0.6753798 -1.2440462
0002a0 93 40 e0 3f 1e 22 5e 3e 95 f2 13 3f fd a0 86 3f
       1.7519706 0.21692702 0.57792026 1.051788
0002b0 1a 03 5e 3f ed bd 5d bf 9a f9 0a be eb b5 90 bf
       0.8672348 -0.8661793 -0.13571778 -1.1305517
0002c0 07 c9 17 bf 61 f2 89 3f 1d 50 9b bf 32 b7 6e bf
       -0.5929112 1.0777093 -1.2133824 -0.93248284
0002d0 49 05 24 bf e8 cf 51 bf e7 18 15 40 a8 28 13 bf
       -0.64070565 -0.81957865 2.329645 -0.5748391
0002e0 30 93 27 bf cf f2 1b bf 09 ce 8b 3f 4f cd 13 3f
       -0.65458965 -0.6091737 1.0922252 0.5773515
0002f0 4c 9d cd bf 60 a2 95 3c 31 eb 25 bf 36 0e 1c 3f
       -1.6063628 0.018265903 -0.64812 0.60959184
000300 32 55 f0 3f 38 30 cd be 28 e4 27 bf 84 98 4e 3e
       1.8776 -0.4007585 -0.65582514 0.20175368
000310 18 7a 59 bf 8b fd ba 3f 20 c7 b3 bf 9a b7 88 bf
       -0.84951925 1.4608625 -1.4045143 -1.0681031
000320 98 81 f9 3f e4 fb 48 3f 39 8f d7 bf 2a 6d 73 3f
       1.9492674 0.78509355 -1.6840583 0.95088446
000330 48 ec 7e 3f 67 95 ec 3d eb 7f 30 3f aa 00 9d 3f
       0.99579287 0.11551934 0.6894519 1.2265828
000340 c3 ef e9 be cb c3 05 bf b2 84 41 3e 3c b5 05 40
       -0.45690736 -0.5225188 0.18898275 2.0891867
000350 8e 00 04 3f 80 04 17 be b3 42 b6 3f 09 fb 88 bf
       0.51563346 -0.1474781 1.4239105 -1.070161
000360 89 1c 01 be ce ca 7d 3f d5 25 56 bf 0d 73 ed be
       -0.12608542 0.9913758 -0.8365148 -0.4637684
000370 a2 b2 90 3e 49 a0 ad 3f b6 fa 89 3f 36 d0 93 3d
       0.28261286 1.356454 1.0779636 0.072174475
000380 a0 9e 02 bf 7c 27 6a bf a6 d3 02 be e4 28 03 40
       -0.5102329 -0.914665 -0.1277605 2.0493708
000390 b9 65 27 bf b5 1a b2 be f4 0b 21 3f bd 11 4b 3f
       -0.6538959 -0.34786 0.62908864 0.7932394
0003a0 40 b9 c6 bf e8 04 90 3e b4 78 81 3f ac 14 1f 3e
       -1.5525284 0.28128743 1.0114961 0.1553523
0003b0 68 54 8a 3e 02 90 ad bf d5 25 39 40 f8 af 8f bf
       0.27017522 -1.3559573 2.892934 -1.1225576
0003c0 c6 00 69 bf a4 2a 9c 3f 5c a7 e9 3f af 8b 0b c0
       -0.91016805 1.2200513 1.8254199 -2.1804006
0003d0 d6 8f 2e bd 6c 80 d4 bd 62 9a 9c 3f 42 59 32 be
       -0.04261764 -0.10376057 1.2234614 -0.17416862
0003e0 31 2e 16 3f 00 2c d8 bf 2e 9a 34 bf fa 47 ad 3e
       0.5866423 -1.6888428 -0.7054776 0.33843976
0003f0 48 bd a2 bf f6 92 cf 3e ec 1a f2 bf ad c3 65 bf
       -1.2714014 0.4054181 -1.8914466 -0.897517

lstm.weight_ih_l0 f4 [8, 5]
000000 60 21 52 bf 12 76 fa 3e ea 88 0a 3f 21 18 95 be
       -0.82082176 0.48918205 0.54115164 -0.2911997
000010 39 80 94 3f d6 d0 a3 3e 84 50 03 40 1d 3f 07 bf
       1.160163 0.31995267 2.0517893 -0.5283068
000020 05 ee 0d 40 b2 42 4b 3e 52 77 2a 3f 2f 5f a7 bf
       2.2176526 0.19849661 0.6658832 -1.3075923
000030 fb 51 57 bf 5c b8 08 bf 26 3f af be be 97 c2 3e
       -0.8410947 -0.5340631 -0.34227866 0.38006395
000040 b4 60 d1 3f 09 7b cd 3f a2 9b f6 bd eb 24 ef 3e
       1.6357636 1.6053172 -0.12041403 0.46707854
000050 29 05 d0 3f ac 37 15 3f e6 96 1a bf 3c 20 08 3f
       1.6251575 0.58288074 -0.603865 0.53174186
000060 8c ac 14 bf 8c b4 29 bf 7f 78 3a 3e ff 96 9a bf
       -0.58075786 -0.6629112 0.18210028 -1.207733
000070 b2 3f 13 3f 09 11 15 c0 f6 a8 2c c0 57 69 90 bf
       0.57519066 -2.3291647 -2.6978126 -1.1282147
000080 ab 92 02 bd ac de d2 bf c4 cf ac 3f 88 d3 cb 3d
       -0.031878155 -1.6474204 1.3500905 0.09952456
000090 44 bd 4e 40 42 53 4d bf 1f 6a 20 40 70 c6 ab 3f
       3.2303019 -0.80205166 2.506477 1.3419933

lstm.weight_hh_l0 f4 [8, 2]
000000 20 c2 2a bf 3f 6a 59 3f 66 55 f5 be 14 ce b1 3d
       -0.6670246 0.84927744 -0.47916716 0.086818844
000010 e9 01 cc bf ae d2 1f be 8d 36 d5 bd 88 7a 46 3e
       -1.5938083 -0.15607712 -0.10410795 0.1938268
000020 e0 e4 11 be 9a b2 fc be 23 3e 93 be 7a 1b ab bd
       -0.14247465 -0.49355012 -0.28758344 -0.0835485
000030 65 9a 5c bf 8b 8e 02 3e a5 51 1f 3f f9 0c 9b be
       -0.8617309 0.12749688 0.62233955 -0.30283335

lstm.bias_ih_l0 f4 [8]
000000 52 09 a2 3f de 74 43 3f 42 04 97 3e fd c0 e4 3e
       1.2659094 0.763502 0.29495436 0.44678488
000010 6f 32 b2 bf 5b 20 5b bf 5b 0c 3b 3f da 60 60 be
       -1.3921641 -0.85596246 0.7306573 -0.21911946

lstm.bias_hh_l0 f4 [8]
000000 9a 57 98 3f 01 22 6f 3f 70 9f 79 3f a0 2d 56 3f
       1.1901734 0.9341126 0.9750891 0.8366337
000010 20 22 dd be 80 30 5c bf 4a a5 7b be fc 72 80 3c
       -0.43190098 -0.86011505 -0.24574772 0.015679829

lstm.weight_ih_l0_reverse f4 [8, 5]
000000 3f 45 13 3e 20 41 d4 bc e4 c4 a4 3f ee a1 ab bf
       0.14381884 -0.02590996 1.2872586 -1.3408792
000010 cc d7 54 be 03 08 72 3f 67 99 80 3f 4a 8d b1 be
       -0.20785445 0.94543475 1.0046815 -0.34678108
000020 e4 97 0d bf 64 09 41 be 77 19 eb 3f 74 15 0e 3e
       -0.5530989 -0.18851238 1.8367146 0.13875371
000030 0e ba f4 bc 6a f2 05 bf 76 1a df bf 4c 86 22 be
       -0.029873874 -0.5232302 -1.742995 -0.15871543
000040 82 ad 0e be 69 37 05 be 7d a2 3a 3e bc 08 00 3e
       -0.13933375 -0.13009419 0.18226047 0.12503332
000050 bf 41 85 bf 2d 0a a4 3e d5 6b 15 40 55 43 54 be
       -1.0410689 0.32039014 2.3347065 -0.2072881
000060 1f 09 68 3f d1 14 e3 3e 51 ed bb 3e 3a e6 81 be
       0.9063892 0.4435182 0.36704496 -0.2537096
000070 3a de bf bd 09 02 41 bd ea 24 90 bf b4 27 45 be
       -0.09368558 -0.04712108 -1.1261265 -0.19253427
000080 59 d0 cd 3f c9 df c1 bf 5b 08 ac bf 6e 34 de 3e
       1.6079208 -1.5146419 -1.344005 0.43399376
000090 fd 69 f5 3f be 35 70 3f fd 2c ed bf 3e be a4 bf
       1.917297 0.93832004 -1.8529354 -1.2870557

lstm.weight_hh_l0_reverse f4 [8, 2]
000000 1d 9e e0 3e 8b 2a 9b bf 6b 3c 8d be 17 7e 21 3f
       0.4387063 -1.2122358 -0.27585158 0.6308302
000010 00 6c cd 3f db 12 0a be 0a a4 2d 3f cd ae 23 3f
       1.6048584 -0.13483755 0.6782843 0.639386
000020 aa 9a d2 3f c8 50 33 3f b2 5a 8e 3e 20 21 53 3f
       1.645345 0.7004514 0.2780357 0.8247242
000030 88 ee c5 bd d2 33 4c 3f 87 2d d8 3e 86 00 85 be
       -0.09664637 0.7976657 0.42222235 -0.25976962

lstm.bias_ih_l0_reverse f4 [8]
000000 e9 b4 c6 3f be ed 79 3e 9e 95 31 be 5c 8f f8 3e
       1.5523959 0.24407098 -0.1734223 0.48546875
000010 60 8b 19 3e 0e e0 97 3e 20 94 8a 3e 89 8c 37 3e
       0.14994574 0.29663128 0.27066135 0.17924704

lstm.bias_hh_l0_reverse f4 [8]
000000 d9 b8 36 3f d8 59 a9 3f c0 8f bf 3e ef 47 67 3f
       0.71375805 1.3230543 0.3741436 0.90344137
000010 63 f7 3d 3f 0b 97 9d 3f aa 2f f9 3e 0c b8 aa 3e
       0.7420561 1.231172 0.48669177 0.33343542

crf.start_transitions f4 [131]
000000 f6 1a dd bf ae ac d5 bf 89 c3 ed 3e fa 84 76 c0
       -1.7273853 -1.6693323 0.46438244 -3.8518662
000010 82 ee 02 c0 b2 87 28 c0 e8 9f d8 bf d7 d2 ce bf
       -2.0458074 -2.6332822 -1.69238 -1.6158093
000020 93 14 2e c0 df 66 59 c0 38 ef dd bf d6 1c e7 bf
       -2.7200058 -3.3969038 -1.7338629 -1.8055675
000030 24 94 fd bf 16 32 65 c0 d8 8b 0c c0 b4 ce 72 c0
       -1.9810834 -3.581182 -2.1960354 -3.7938662
000040 91 2c 10 c0 ec fc 66 c0 a3 47 fb bf 3d cd 70 c0
       -2.25272 -3.6091871 -1.9631237 -3.7625268
000050 7d 52 dc bf d8 75 d2 bf a6 21 dd bf 54 f0 e4 bf
       -1.7212673 -1.6442213 -1.7275894 -1.7885842
000060 36 f7 07 c0 d8 ec 22 c0 19 ee d5 bf 2b d5 cb bf
       -2.1244636 -2.5457058 -1.6713287 -1.5924429
000070 f3 a8 dc bf 14 83 34 c0 0f 95 e5 bf f8 76 06 c0
       -1.7239059 -2.8205004 -1.7936114 -2.1010113
000080 b5 36 e2 bf 98 67 df bf 48 ac d6 bf 9d c2 d5 bf
       -1.7672945 -1.7453489 -1.6771326 -1.6700016
000090 3d 6d d7 bf 3b 78 da bf 5a 17 10 c0 16 4c 44 c0
       -1.6830212 -1.7067941 -2.2514253 -3.067144
0000a0 af f2 c9 bf 50 27 14 c0 7e 87 04 c0 4f 6c 67 c0
       -1.5777186 -2.3148994 -2.0707698 -3.6159856
0000b0 02 aa e2 bf 2d 8e d4 bf b6 ec e0 bf 61 1b c9 bf
       -1.7708132 -1.6605889 -1.7572238 -1.571148
0000c0 97 ee e2 bf 66 06 da bf 6f ff 5e 3f 62 dd 28 c0
       -1.7729062 -1.7033203 0.8710851 -2.6385121
0000d0 9b ee 26 c0 94 ea 4d c0 21 b7 e7 bf 4d 5d 57 c0
       -2.6083133 -3.2174425 -1.8102762 -3.3650696
0000e0 a8 7c 19 c0 a6 e2 48 c0 ca 43 fc bf 04 9e 0f c0
       -2.3982334 -3.1388335 -1.9708188 -2.2440195
0000f0 7f 0f 14 c0 b8 1e 40 c0 28 cb e2 bf f0 00 dd bf
       -2.3134458 -3.001875 -1.7718248 -1.7265911
000100 0e 6a e7 bf c9 1b e2 bf 24 d5 e4 bf a8 46 d6 bf
       -1.807924 -1.7664729 -1.7877545 -1.6740313
000110 62 23 3e 3f 26 79 2f c0 9c 85 d4 bf e0 45 07 c0
       0.7427274 -2.7417693 -1.6603274 -2.1136398
000120 74 4f f1 bf 53 ff 02 c0 90 50 07 c0 1f d6 2e c0
       -1.8852372 -2.0468338 -2.1142921 -2.731819
000130 41 c1 ed bf da 9d 17 c0 0d 32 28 c0 c8 2b 92 c0
       -1.8574601 -2.3690095 -2.6280549 -4.5678444
000140 08 dc 01 c0 26 3c 1f c0 e1 13 1e c0 6e b4 46 c0
       -2.0290546 -2.4880462 -2.4699633 -3.1047626
000150 d3 b5 00 c0 f4 8a 2a c0 de be 14 c0 04 7a 32 c0
       -2.0110977 -2.664731 -2.3241496 -2.7886972
000160 17 5c 09 c0 ea 91 47 c0 9b 7f d8 bf 2d cc d8 bf
       -2.1462457 -3.118281 -1.6913942 -1.693731
000170 39 9c cd bf 42 1a e4 bf 3d 8c dc bf df da de bf
       -1.60633 -1.7820513 -1.7230297 -1.7410544
000180 ed b0 db bf 93 46 e0 bf 7c f6 16 c0 2c d0 4d c0
       -1.7163368 -1.7521538 -2.3587942 -3.2158308
000190 38 bb df bf ed 5f e2 bf 9d 05 e0 bf 52 78 e4 bf
       -1.747901 -1.7685524 -1.7501713 -1.7849219
0001a0 7d 46 e1 bf e2 05 cd bf 23 59 df bf 94 fb cf bf
       -1.7599636 -1.601742 -1.7449077 -1.624865
0001b0 cc 26 d8 bf a7 38 cf bf d6 93 db bf 4f e2 c9 bf
       -1.688684 -1.6189164 -1.7154491 -1.5772189
0001c0 82 4f db bf 17 24 db bf 73 68 ce bf f6 b2 d5 bf
       -1.7133639 -1.7120389 -1.6125625 -1.669524
0001d0 e0 c9 d4 bf 7f e4 dc bf e4 ef 26 c0 48 f8 86 c0
       -1.6624107 -1.7257231 -2.6083918 -4.217808
0001e0 ed 84 66 3f 95 21 32 c0 7c 78 09 c0 07 fa 48 c0
       0.9004658 -2.7832997 -2.1479788 -3.1402605
0001f0 c6 16 e0 bf f9 7c d4 bf a1 1b 23 c0 bd 37 6e c0
       -1.750695 -1.6600639 -2.5485613 -3.722152
000200 75 33 2d c0 0c f1 6c c0 95 62 68 3e
       -2.7062657 -3.7022123 0.22693856

crf.end_transitions f4 [131]
000000 b7 00 23 c0 fa 1e 2c c0 c4 91 81 c0 7b bc 27 bf
       -2.5469186 -2.6893907 -4.0490437 -0.65521973
000010 c0 1a 7b c0 2a ee 7f 3e e0 33 23 c0 77 06 2c c0
       -3.9235077 0.24993196 -2.5500412 -2.6878946
000020 26 c1 a7 c0 28 ad 9d 3f c5 15 25 c0 21 1b 26 c0
       -5.2423277 1.2318468 -2.5794537 -2.5954058
000030 6c 32 77 c0 ab db 5a c0 3a 74 70 c0 2d 62 b2 be
       -3.8624525 -3.4196575 -3.757094 -0.34840527
000040 99 4c 92 c0 b2 a1 71 c0 00 66 83 c0 77 43 61 c0
       -4.5718503 -3.775494 -4.106201 -3.5197427
000050 ea bd 2a c0 9f 95 25 c0 0e 29 25 c0 78 b6 26 c0
       -2.6678414 -2.5872571 -2.5806308 -2.604887
000060 7f 31 89 c0 ad 7a 47 c0 d7 a3 26 c0 96 59 2b c0
       -4.287292 -3.1168625 -2.60375 -2.677343
000070 40 c9 7b c0 4c f8 39 3e d4 2c 62 c0 91 41 05 3f
       -3.9341583 0.18161124 -3.533986 0.5205317
000080 58 d9 25 c0 92 d9 25 c0 82 b8 23 c0 8f b3 27 c0
       -2.5913906 -2.5914044 -2.5581365 -2.6203344
000090 65 e2 29 c0 eb 41 26 c0 5a de 8b c0 0d 2d c0 3e
       -2.654443 -2.5977733 -4.3708925 0.3753437
0000a0 72 17 73 c0 b2 1f 3b 3f e2 ab 77 c0 c2 78 4b c0
       -3.798306 0.7309524 -3.869866 -3.1792455
0000b0 9e 53 24 c0 4b d7 22 c0 3d 67 22 c0 25 d0 2a c0
       -2.5676036 -2.5443904 -2.5375512 -2.6689541
0000c0 4f 03 28 c0 8d fd 2b c0 c5 68 57 c0 83 0d 40 c0
       -2.625202 -2.6873505 -3.3657696 -3.0008247
0000d0 75 03 9e c0 69 c5 81 c0 b1 04 68 c0 41 e8 53 c0
       -4.937922 -4.055348 -3.6252863 -3.3110507
0000e0 22 f4 80 c0 f7 10 37 c0 63 d7 7e c0 6e 9d bf 3e
       -4.0298014 -2.8604105 -3.9818962 0.37424797
0000f0 2d 87 8d c0 52 ed b7 3e 12 1e 2d c0 c5 78 23 c0
       -4.422751 0.3592325 -2.7049603 -2.5542462
000100 3f b9 26 c0 97 21 2b c0 a7 a6 2b c0 ae 7d 31 c0
       -2.6050565 -2.6739252 -2.6820467 -2.7732959
000110 7b 76 6a c0 c7 56 38 c0 fa 34 5c c0 03 6e b0 3e
       -3.6634815 -2.8802965 -3.4407334 0.34458932
000120 09 7e 86 c0 22 50 ad 3e d8 8a 70 c0 20 3b 43 c0
       -4.202885 0.338502 -3.7584743 -3.0504837
000130 9b 3f 71 c0 e3 39 32 3f 11 44 82 c0 b0 37 5b bf
       -3.7695072 0.6961958 -4.070809 -0.8563185
000140 0f 0d 8c c0 4c ac 26 3f df 5c 9b c0 20 cf 79 c0
       -4.376594 0.65106654 -4.855087 -3.903267
000150 1d 7a 93 c0 2e 64 b2 3d e0 f5 85 c0 fc f0 b5 3e
       -4.6086564 0.08710514 -4.186264 0.3553542
000160 6c cd 8f c0 61 b0 4a c0 4b 6d 25 c0 87 ac 27 c0
       -4.493826 -3.1670153 -2.5847957 -2.6199052
000170 0b 30 2a c0 10 92 2b c0 b8 4f 22 c0 0a e5 2c c0
       -2.6591823 -2.68079 -2.5361156 -2.7014794
000180 8d 6f 25 c0 ab 50 2a c0 d2 c2 85 c0 45 4b 04 be
       -2.5849335 -2.6611736 -4.180032 -0.12919338
000190 2b 73 2a c0 58 56 2a c0 a4 09 2a c0 38 ab 2d c0
       -2.6632793 -2.66152 -2.6568384 -2.7135754
0001a0 2c da 23 c0 bb 68 23 c0 e4 07 22 c0 46 2e 21 c0
       -2.5601912 -2.5532672 -2.5317316 -2.5184493
0001b0 2f 8e 23 c0 80 a0 2d c0 8a 3f 2e c0 79 87 2c c0
       -2.5555532 -2.7129211 -2.722628 -2.6957686
0001c0 23 c4 2c c0 58 f0 22 c0 66 e9 20 c0 9b d2 26 c0
       -2.6994712 -2.5459194 -2.5142455 -2.6066043
0001d0 41 bd 29 c0 6b 10 27 c0 ba b6 82 c0 9e d4 82 bc
       -2.6521761 -2.610377 -4.0848055 -0.015970524
0001e0 c6 89 50 c0 d2 22 37 c0 d1 bc 7e c0 70 e6 43 c0
       -3.258409 -2.8615003 -3.9802744 -3.0609398
0001f0 42 e8 27 c0 0d 1e 30 c0 09 83 8b c0 55 fc 47 c0
       -2.623551 -2.7518342 -4.3597455 -3.1247761
000200 aa c5 8c c0 15 39 83 c0 50 ae a3 be
       -4.399129 -4.100718 -0.31968927

crf.transitions f4 [131, 131]
000000 29 15 58 bf 44 4b 6b bf 32 18 cf bf 61 37 43 c0
       -0.8440729 -0.9191172 -1.6179259 -3.050255
000010 de 20 92 bf c2 f2 fc bf ac 2e 77 bf ed 6a 7f bf
       -1.141628 -1.9761584 -0.9655559 -0.9977253
000020 69 18 0a c0 fc 4d 43 c0 cb 09 73 bf 3e 10 5e bf
       -2.1577399 -3.0516348 -0.9493682 -0.86743534
000030 8d db 8d bf ce c4 1b c0 61 a0 a9 bf 6e 10 45 c0
       -1.1082627 -2.433887 -1.3252069 -3.0791278
000040 15 25 ac bf f9 4e 2c c0 b1 7c a8 bf 01 53 1d c0
       -1.3448817 -2.69232 -1.3163053 -2.4581912
000050 ac af 71 bf 6b 94 7c bf db 1b 84 bf d8 a7 51 bf
       -0.9440868 -0.9866397 -1.0321001 -0.81896734
000060 bd 47 a8 bf 1d 47 dc bf 6c 78 60 bf be e3 6b bf
       -1.3146893 -1.7209202 -0.8768375 -0.9214438
000070 81 bb 8b bf 04 78 1b c0 ff f1 6d bf 18 08 df bf
       -1.0916597 -2.4292002 -0.9294738 -1.7424345
000080 4a ff 76 bf 28 09 67 bf 12 98 77 bf 8b 82 63 bf
       -0.9648329 -0.90248346 -0.96716416 -0.8887107
000090 b9 82 73 bf 4f 93 58 bf 97 6f d5 bf b7 72 25 c0
       -0.9512134 -0.84599775 -1.667468 -2.5851266
0000a0 13 6f 90 bf 22 68 11 c0 11 7b 92 bf 02 38 23 c0
       -1.1283897 -2.2719808 -1.1443807 -2.5502934
0000b0 e8 f3 7b bf a3 9c 66 bf 94 20 6b bf 84 e2 85 bf
       -0.98419046 -0.9008276 -0.91846585 -1.0459752
0000c0 a0 5b 69 bf 62 dd 77 bf 67 fd b7 bf 7c 79 de bf
       -0.91155434 -0.9682218 -1.4374207 -1.7380824
0000d0 0d 4a cc bf a2 ac 33 c0 62 a3 7b bf 1d fe 03 c0
       -1.5960099 -2.8074117 -0.9829618 -2.0623848
0000e0 68 ef ae bf cb d4 08 c0 45 45 86 bf c4 02 e6 bf
       -1.3666811 -2.1379879 -1.0489889 -1.7969594
0000f0 78 08 91 bf ba ea 28 c0 1f a1 5f bf 33 45 4f bf
       -1.133071 -2.6393266 -0.87355226 -0.80964965
000100 e6 f2 7c bf 81 a3 5d bf 11 2e 53 bf f6 7f 60 bf
       -0.98808134 -0.8657761 -0.82492167 -0.8769525
000110 53 f5 c6 bf 07 8f e0 bf bc 55 8a bf ff e9 d2 bf
       -1.5543617 -1.7543648 -1.0807414 -1.647766
000120 de cb 90 bf 2e fb e1 bf 70 bd 8b bf 01 9c e9 bf
       -1.1312215 -1.7654779 -1.0917187 -1.8250734
000130 31 ce a3 bf 02 5e 19 c0 dc ec e4 bf 31 78 64 c0
       -1.27973 -2.3963628 -1.7884784 -3.569836
000140 1e 1d 9f bf cf 3b 2d c0 aa 2d a7 bf 2f cf 28 c0
       -1.2430761 -2.7067754 -1.306081 -2.6376455
000150 46 c7 a7 bf 6b 21 12 c0 e5 19 c9 bf 14 24 11 c0
       -1.3107688 -2.2832897 -1.5711027 -2.267827
000160 c4 79 97 bf 12 b0 0b c0 12 06 86 bf 80 fd 7e bf
       -1.1834035 -2.1826215 -1.0470603 -0.9960556
000170 ac d0 68 bf fe bd 65 bf 36 0d 76 bf 09 8b 77 bf
       -0.9094341 -0.8974303 -0.9611391 -0.96696526
000180 cc 9a 74 bf ba a1 56 bf 6b b9 a9 bf 7f 88 35 c0
       -0.955487 -0.83840525 -1.325971 -2.836456
000190 8e c8 59 bf 4c aa 73 bf 8e 2a 75 bf 70 38 67 bf
       -0.8507165 -0.9518173 -0.9576806 -0.9032049
0001a0 bf 24 71 bf 98 82 86 bf fe ad 82 bf 2b 84 76 bf
       -0.94196695 -1.0508604 -1.0209348 -0.9629542
0001b0 0c 89 4a bf 8f fd 6a bf b7 9f 74 bf 13 e2 77 bf
       -0.79115367 -0.9179315 -0.95556206 -0.96829337
0001c0 f2 ba 4e bf 3c ec 5d bf 36 f6 71 bf 3c 28 56 bf
       -0.80754006 -0.8668859 -0.94516313 -0.8365514
0001d0 9d a6 60 bf e2 cb 7e bf 29 f3 c8 bf ea 10 73 c0
       -0.8775423 -0.9952985 -1.5699207 -3.7979074
0001e0 a1 9e 9e bf 10 72 fc bf 65 10 8a bf 7e c5 fd bf
       -1.239216 -1.9722309 -1.0786253 -1.9825895
0001f0 f9 67 80 bf 27 0b 6a bf ea d5 96 bf 11 37 24 c0
       -1.003173 -0.9142327 -1.1784031 -2.565861
000200 a2 ef d3 bf 98 53 44 c0 74 58 51 c0 b9 97 72 bf
       -1.6557505 -3.0676022 -3.2710238 -0.9476276
000210 42 a5 72 bf 0a b8 dc bf ae 9f 45 c0 82 59 a0 bf
       -0.94783413 -1.7243664 -3.087871 -1.2527316
000220 c8 39 00 c0 a0 99 4e bf 48 60 67 bf 53 bd 07 c0
       -2.0035267 -0.80703163 -0.9038129 -2.1209304
000230 b5 d9 3e c0 d0 b3 6e bf 69 cf 5f bf 05 ac 8c bf
       -2.9820378 -0.9324312 -0.8742586 -1.0989996
000240 49 03 16 c0 0c 4d a1 bf 86 df 49 c0 d3 b1 a7 bf
       -2.3439505 -1.2601638 -3.1542678 -1.3101143
000250 98 2b 32 c0 04 4f 97 bf d8 78 27 c0 0b a9 6d bf
       -2.7839108 -1.1820989 -2.6167507 -0.92836064
000260 f5 90 52 bf 77 d4 69 bf 1a 55 7a bf fc 1e 91 bf
       -0.82252437 -0.9133982 -0.97786105 -1.1337581
000270 4a 44 df bf a1 d8 74 bf 80 d6 82 bf 84 33 8e bf
       -1.7442715 -0.9564305 -1.022171 -1.1109471
000280 00 16 1b c0 a6 71 84 bf 88 1f f3 bf 5f a4 74 bf
       -2.4232178 -1.0347183 -1.8993998 -0.9556331
000290 42 f5 61 bf 82 cd 70 bf b6 4b 59 bf 29 08 73 bf
       -0.8826486 -0.9406358 -0.8488115 -0.94934326
0002a0 20 ae 64 bf 70 32 cc bf 41 bb 26 c0 53 92 8f bf
       -0.89328194 -1.5952892 -2.605179 -1.121653
0002b0 02 34 10 c0 b8 00 92 bf a3 43 21 c0 e6 71 61 bf
       -2.2531743 -1.1406469 -2.5197532 -0.8806442
0002c0 52 dc 5d bf 99 75 53 bf d8 70 6b bf 2f 97 68 bf
       -0.8666431 -0.82601315 -0.9196906 -0.9085569
0002d0 f1 0d 6f bf 4d 79 cd bf 94 96 e2 bf 3a 2f be bf
       -0.9338065 -1.6052643 -1.7702203 -1.4858162
0002e0 7f a4 2c c0 ce 62 80 bf 81 bb 0b c0 9e 24 b5 bf
       -2.69754 -1.0030153 -2.1833193 -1.41518
0002f0 e0 9a 0f c0 2f 0d 87 bf b6 37 e7 bf 28 d8 8d bf
       -2.2438278 -1.0550898 -1.8063877 -1.1081591
000300 7a 9e 27 c0 19 c7 70 bf e0 95 47 bf 7d b3 73 bf
       -2.6190476 -0.940538 -0.77963066 -0.9519575
000310 83 cf 69 bf 19 56 4c bf a6 84 54 bf ca 96 bf bf
       -0.9133226 -0.79818875 -0.83014905 -1.4967892
000320 d7 8d ef bf 74 3e 87 bf dc af d3 bf d7 ab 8b bf
       -1.8715161 -1.0565934 -1.6538043 -1.0911816
000330 0c 8b ee bf 1d b8 8d bf ab e0 ea bf 30 9b 9f bf
       -1.8636184 -1.1071812 -1.8349813 -1.2469234
000340 9b 67 1c c0 ba 47 fb bf 0e 34 6e c0 99 43 9d bf
       -2.4438236 -1.9631264 -3.7219272 -1.2286254
000350 53 6e 2f c0 10 b2 ae bf ca 79 1d c0 8a 9a a3 bf
       -2.7411087 -1.364809 -2.4605584 -1.2781537
000360 7b 31 12 c0 0d 4b ca bf f7 2a 11 c0 fa 65 9b bf
       -2.28427 -1.5804154 -2.2682474 -1.2140496
000370 80 66 0d c0 6c b2 70 bf 24 59 63 bf 82 27 4f bf
       -2.209381 -0.9402225 -0.8880789 -0.8091966
000380 25 77 58 bf 10 31 60 bf 63 03 81 bf f6 01 6d bf
       -0.845568 -0.87574863 -1.0079159 -0.9258112
000390 6d fe 5d bf f8 55 ac bf 3f 77 2f c0 be 70 74 bf
       -0.8671635 -1.3463736 -2.7416532 -0.9548453
0003a0 62 ce 7b bf ea 3a 4f bf 2f 47 81 bf 52 1a 7e bf
       -0.9836179 -0.8094927 -1.0099849 -0.9925891
0003b0 5e 11 59 bf 9b 30 6b bf 3b e7 6f bf 63 43 51 bf
       -0.84792125 -0.9187104 -0.93712205 -0.8174345
0003c0 77 ff 64 bf f8 c9 83 bf 84 6d 6a bf e1 4a 4b bf
       -0.8945231 -1.0296011 -0.9157336 -0.7941113
0003d0 a0 f6 5c bf 56 b7 63 bf 44 00 74 bf 8d 42 68 bf
       -0.8631382 -0.88951623 -0.95312905 -0.9072655
0003e0 c7 4c 7c bf ff e2 be bf 58 90 6b c0 49 66 9f bf
       -0.9855465 -1.4913024 -3.680685 -1.245309
0003f0 b2 83 f1 bf 20 37 96 bf ca 32 f8 bf 3a 13 5e bf
       -1.8868315 -1.1735573 -1.93905 -0.8674809

hidden2tag.weight f4 [131, 4]
000000 72 55 c7 3f 76 14 86 3f dd a3 a4 bf 23 f9 f2 bf
       1.5572951 1.0474994 -1.2862507 -1.898228
000010 77 77 b6 3f 6a 03 81 3f c7 a9 c4 bf 8a 26 06 c0
       1.4255208 1.0079167 -1.5364312 -2.0961022
000020 31 7b 36 40 44 f6 a5 bf 0c 60 d4 bf be 43 8d 3e
       2.851269 -1.2965779 -1.6591811 0.27590746
000030 85 94 a3 3e e2 38 c7 be e4 9c 8c bf c1 8e 68 bf
       0.3194925 -0.38910586 -1.0985379 -0.90842825
000040 55 a4 3f 40 a4 70 20 40 a4 cd e7 bf 95 64 98 be
       2.994405 2.506875 -1.8109632 -0.29764238
000050 1a 7b e8 bc 44 20 73 3f 69 ec 2f bf 74 3c e6 bf
       -0.028379012 0.9497111 -0.6872011 -1.7987199
000060 fc 9d 03 40 17 39 75 3f 6e e7 e7 bf 94 ac 19 c0
       2.0565176 0.9579024 -1.8117502 -2.4011583
000070 f3 da d1 3f af 89 7c 3f de 99 f6 bf 2e 49 fb bf
       1.6394943 0.9864759 -1.9265707 -1.9631708
000080 64 e1 88 be 7e df b9 3f 78 3d e2 3d 1e 39 db 3d
       -0.2673446 1.4521329 0.110468805 0.107042536
000090 d7 c2 d2 3f 21 04 0a 40 8e b1 8c bf 60 72 2f 3c
       1.646571 2.156502 -1.0991685 0.0107084215
0000a0 33 22 ec 3f 72 8e 77 3f 03 fa 89 bf a6 bb 14 c0
       1.8447937 0.9670173 -1.0779423 -2.3239532
0000b0 6e df f5 3f 95 ad 70 3f cd c4 ee bf c8 d5 1a c0
       1.920881 0.94014865 -1.8653809 -2.4192982
0000c0 d2 54 47 be a6 8f bf be a7 ec 82 bf 2c 13 12 c0
       -0.1946595 -0.37414283 -1.022847 -2.2824202
0000d0 aa 6d c8 be b3 df f6 3f 40 70 86 bf 63 e0 b8 be
       -0.39146167 1.9287018 -1.0503006 -0.36108693
0000e0 79 db 80 be 32 21 b5 3f 11 12 41 bf f0 a1 ca bf
       -0.25167444 1.4150755 -0.7541819 -1.5830669
0000f0 53 50 96 bf c8 4f 9e 3e b8 1d 6b bd 24 c2 23 bf
       -1.1743263 0.30920243 -0.05740139 -0.6396811
000100 e4 73 3a bf 4a ca 8e 3e 80 14 b6 bf 39 2a 3f bf
       -0.72833085 0.2788871 -1.4225006 -0.746738
000110 69 fe a0 bf e7 07 d7 3f 7e 53 05 bf 21 ff 01 c0
       -1.257764 1.6799287 -0.52080524 -2.0311968
000120 38 ad 21 40 ab 23 79 bf a7 b3 8a bf 57 5b 66 3d
       2.5261974 -0.9732005 -1.0836076 0.056239452
000130 bc 17 08 bf bd b0 3f bf 5f f8 1b bf 7a 87 2f bd
       -0.53161216 -0.74879056 -0.6092586 -0.04285381
000140 0e 13 f4 3f 7c 38 76 3f ef 56 cd bf 2d 72 e9 bf
       1.9068315 0.9617994 -1.6042155 -1.8237969
000150 1b 74 e9 3f 47 f1 78 3f fe 05 cb bf 88 de 11 c0
       1.8238558 0.9724316 -1.5861204 -2.2792072
000160 9d 96 e1 3f 71 c1 7f 3f b2 42 a2 bf a8 97 ed bf
       1.7624089 0.99904543 -1.2676604 -1.8561907
000170 05 db d5 3f e2 dc 81 3f e2 28 e3 bf a5 3b ef bf
       1.6707464 1.0145533 -1.7746851 -1.8690077
000180 07 0b 4c bf 45 95 78 3f f0 9f f4 be 6c 8d 44 bf
       -0.79704326 0.9710277 -0.47778273 -0.7677829
000190 9f 7f ba 3e 16 53 bc 3f ce 09 04 c0 dd 29 ff bf
       0.36425492 1.4712856 -2.0630984 -1.9934651
0001a0 7c 90 ec 3f 43 86 79 3f f3 0b a6 bf b4 03 02 c0
       1.8481593 0.9747049 -1.2972397 -2.031476
0001b0 6c 84 a8 3f aa 21 82 3f 1b da a5 bf ad 2c cf bf
       1.3165412 1.0166523 -1.2957186 -1.6185509
0001c0 7e a4 fb bd 1f 23 1c be e0 bf 10 c0 89 d7 2e c0
       -0.12287234 -0.15247773 -2.2617111 -2.7319052
0001d0 74 33 83 3f a7 29 14 40 18 a7 ad 3e 20 9a af bd
       1.0250077 2.3150423 0.33916545 -0.08574319
0001e0 1d 30 37 be 58 64 bd 3e 58 d6 fd be 77 a2 e0 bf
       -0.17889448 0.3699062 -0.49577594 -1.754958
0001f0 f4 13 b5 3f 1c fa bd 3f b2 4e 2c c0 7c 1c 22 3e
       1.4146714 1.4841952 -2.6923032 0.15831178
000200 c2 80 c2 3f 94 8c 82 3f a2 d8 9d bf 48 54 c6 bf
       1.5195544 1.0199151 -1.2331736 -1.5494471
000210 68 bc bc 3f 99 4c 85 3f 1b ef 9d bf c2 4f 11 c0
       1.4744997 1.0414001 -1.2338594 -2.270493
000220 39 33 f2 3f d3 2e 78 3f 04 1b bf bf 73 87 05 c0
       1.8921882 0.9694645 -1.493012 -2.0863922
000230 59 67 b6 3f 08 67 85 3f 53 0d bb bf 2a 94 e9 bf
       1.4250289 1.0422068 -1.4613441 -1.8248341
000240 53 98 e8 3f 70 66 7c 3f b6 a5 a6 bf 89 82 18 c0
       1.8171486 0.9859381 -1.3019321 -2.3829672
000250 3f c7 01 40 50 6a 76 3f 81 6d b1 bf ab cf 16 c0
       2.027786 0.9625597 -1.3861543 -2.356425
000260 b9 59 8d 40 5c f5 cb bf a8 ad ba bf 7f ce 27 c0
       4.4172025 -1.5934253 -1.4584246 -2.6219785
000270 cd 84 86 bf 38 ab 0e 40 82 1a da bf e0 c8 06 c0
       -1.0509278 2.2292004 -1.703934 -2.1060104
000280 de 1c 35 40 3a 80 51 3f d3 1c 4b c0 d9 36 0b be
       2.829887 0.81836283 -3.1736343 -0.13595141
000290 9b 77 9a 3e f8 96 b7 3f ac 6a 3e c0 ef 8a fa 3d
       0.30169377 1.4342947 -2.9752607 0.12233531
0002a0 a5 b8 25 40 d2 c6 f6 bd 58 17 38 bf e3 4b 99 bf
       2.5893948 -0.12049641 -0.7191062 -1.1976284
0002b0 f8 10 89 3e 00 d1 93 3f c6 b5 87 be 81 b4 04 bf
       0.2677076 1.1548157 -0.2650587 -0.5183793
0002c0 0a 25 bf 3f d6 72 7f 3f 74 6f d3 bf 47 d2 f3 bf
       1.4933178 0.997846 -1.6518388 -1.9048547
0002d0 91 c8 f0 3f b9 6a 7a 3f b9 7d c6 bf f2 4c ff bf
       1.8811208 0.97819096 -1.5507118 -1.9945357
0002e0 5c 99 f2 3f 83 ea 72 3f a6 5c d1 bf 1b 14 d9 bf
       1.8953052 0.94889086 -1.6356399 -1.6959261
0002f0 e4 ed ee 3f 8e 66 74 3f 5a bc b0 bf 97 34 b5 bf
       1.8666348 0.95468986 -1.380748 -1.4156674
000300 fd 95 f3 3f df ee 7b 3f 77 76 d2 bf b9 89 f5 bf
       1.9030148 0.98411363 -1.6442403 -1.9182655
000310 db 8f f2 3f 14 f9 75 3f 08 56 f1 bf 88 48 da bf
       1.8950151 0.9608319 -1.885438 -1.7053385
000320 b9 82 aa 3f 4f e1 02 40 12 e8 91 bf d0 f6 da be
       1.3321143 2.0450017 -1.1398947 -0.42766428
000330 c6 f0 45 3f 2d f7 06 bf 83 d9 83 bf 1f e6 00 c0
       0.77320516 -0.5272091 -1.0300754 -2.0140455
000340 16 aa b7 bf c3 2b b5 3f df 50 3c c0 11 44 cb be
       -1.4348781 1.415398 -2.942436 -0.39700368
000350 76 13 48 40 f5 dd d0 bf 7f 9e 89 bf 04 44 22 c0
       3.1261878 -1.6317736 -1.0751494 -2.5354013
000360 2b 59 45 40 04 25 4e bf 5c 8d 9d bf cf 5f f2 bf
       3.0835674 -0.8052523 -1.2308764 -1.8935488
000370 bd 9f 9a bf 32 55 ad 3f 37 bd ad 3c 35 d2 67 bf
       -1.2079998 1.3541625 0.021208389 -0.90555125
000380 9b be 58 40 2b 8f c5 3f ce 2b bf bf ae 21 e5 bf
       3.3866336 1.5434316 -1.4935243 -1.7900903
000390 ce af 4a 40 45 43 03 40 ae cb 2c bf 31 9a 38 be
       3.1669803 2.0509808 -0.6749829 -0.1802757
0003a0 1e 34 0f bf c5 c5 0e 40 42 a3 00 bf 76 05 30 bf
       -0.559389 2.230821 -0.5024911 -0.6875833
0003b0 e9 42 1b 40 9f 3b bf 3e e1 d7 c1 bf 7e 81 b5 bf
       2.4259589 0.37350175 -1.5144006 -1.4180143
0003c0 66 a4 57 40 29 b4 26 40 d4 9d 9d bf 01 38 df bf
       3.369409 2.604746 -1.231379 -1.7438966
0003d0 a1 13 63 40 a9 7f 0f bf 19 ae a3 bf e3 1f ee bf
       3.548073 -0.5605417 -1.2787505 -1.8603481
0003e0 60 a7 ae 3f 74 24 88 3f d7 a4 ed bf 3f 06 05 c0
       1.3644829 1.0636125 -1.856593 -2.0785062
0003f0 e1 28 02 40 55 f4 6d 3f 2a df f1 bf f1 fa 1c c0
       2.033745 0.92950946 -1.8896229 -2.4528162

hidden2tag.bias f4 [131]
000000 15 fd 17 c0 3d 33 12 c0 92 5c dc be 69 ef 8e be
       -2.374822 -2.2843773 -0.43039376 -0.2791703
000010 68 50 9f be 39 40 86 bd 88 7d 14 c0 89 b0 d3 bf
       -0.31116033 -0.06555218 -2.3201618 -1.6538249
000020 54 15 c5 3c 06 e0 81 3e 81 82 f4 bf 21 8a ce bf
       0.024058022 0.2536623 -1.9102327 -1.6135904
000030 b6 c2 9c be f2 8a 6b bd f8 63 62 bf 12 02 97 3d
       -0.30617303 -0.057505555 -0.8843379 0.07373442
000040 ca fc 10 bf 5e ae e8 be 5b e9 73 bf 67 4a 9a bf
       -0.56635725 -0.45445532 -0.9527795 -1.2053956
000050 d4 8e 0d c0 d1 86 1a c0 22 b7 dd bf 3b 2a 07 c0
       -2.2118425 -2.4144785 -1.7321513 -2.1119525
000060 6a bc fd be e4 c2 ab bc 54 fe 08 c0 88 34 0d c0
       -0.4955781 -0.020966955 -2.140523 -2.2063313
000070 3d 8b 75 bf 75 74 ee 3c 8b 1a 66 bf 69 d2 33 bf
       -0.95915586 0.029108265 -0.8988425 -0.70242935
000080 64 70 17 c0 eb e6 0d c0 95 04 14 c0 bb e6 dd bf
       -2.3662348 -2.217219 -2.3127797 -1.7336038
000090 9d c1 d1 bf 76 ea eb bf 14 56 a3 be 50 d3 b5 bd
       -1.6387211 -1.8430927 -0.3190161 -0.08878195
0000a0 ad ae 29 bf 6c b3 04 bf ec 6f 8e be 46 09 d9 be
       -0.6628216 -0.51836276 -0.27819765 -0.42389888
0000b0 9f 69 0d c0 6f 1c 03 c0 42 65 02 c0 2d af d5 bf
       -2.2095716 -2.0486104 -2.0374303 -1.6694084
0000c0 0d a1 02 c0 68 16 be bf a6 c5 c0 bd b5 26 61 be
       -2.0410798 -1.4850588 -0.094126984 -0.21987422
0000d0 07 8f 35 bf e6 ae 2c bf c3 cd a8 bd a0 dd 17 bf
       -0.7092137 -0.67454374 -0.08242371 -0.5932255
0000e0 c5 95 66 be 50 1e 19 bf 9c a2 fc be 7f c3 ba bd
       -0.2251807 -0.5981188 -0.4934281 -0.09119319
0000f0 5a db 50 3e 07 9d c4 3e 70 54 03 c0 e0 2a ec bf
       0.20396176 0.38401052 -2.0520287 -1.8450584
000100 ab 08 1a c0 a1 bd d6 bf d3 ed f6 bf 3a b4 e6 bf
       -2.406779 -1.677662 -1.9291328 -1.8023751
000110 e6 5d 24 be 7c 94 8f 3d ed fc 22 bf fc 3e 4d bf
       -0.16051444 0.07010743 -0.63667184 -0.8017423
000120 1f d6 d9 be 22 06 c8 be 27 21 89 bd 70 7f 90 be
       -0.42546174 -0.3906718 -0.066957764 -0.28222227
000130 c4 8f d5 be 97 06 4d be 7e 03 1c bf d4 72 00 3f
       -0.41711247 -0.20022045 -0.6094283 0.50175214
000140 bc 75 24 bf 3d c9 cc be c8 81 91 be d5 ec d2 be
       -0.6424215 -0.39997283 -0.28419328 -0.41196314
000150 5e 07 8d bf ac 14 06 bf 01 9f 8a bf 61 6c a7 3d
       -1.1017873 -0.5237529 -1.0829774 0.081749685
000160 53 e5 82 bf 10 d3 63 bf 67 49 dd bf 92 b1 d1 bf
       -1.0226234 -0.8899393 -1.7288026 -1.6382315
000170 62 4d bd bf 34 c1 c8 bf 73 b1 09 c0 f4 b5 f5 bf
       -1.478924 -1.5683961 -2.1514556 -1.9196153
000180 1a f0 13 c0 62 a1 1b c0 06 f7 ad be c4 b1 bd 3c
       -2.3115296 -2.431725 -0.33977526 0.023156054
000190 de 2b d0 bf a4 84 02 c0 36 4b d3 bf 8d c5 d3 bf
       -1.6263387 -2.0393457 -1.6507328 -1.6544663
0001a0 2f ab d0 bf 5d 7b f9 bf 14 1d d7 bf ad eb f1 bf
       -1.6302241 -1.9490772 -1.6805749 -1.8900048
0001b0 e9 fb c3 bf 44 43 0d c0 bc a7 0b c0 79 0d 08 c0
       -1.5311252 -2.2072306 -2.1821127 -2.1258223
0001c0 10 aa e0 bf 7e 14 09 c0 3e d5 12 c0 f6 3d c7 bf
       -1.7551899 -2.1418757 -2.2942653 -1.5565784
0001d0 65 c2 d1 bf 46 42 ee bf 20 75 27 bc 28 4f 8c 3c
       -1.638745 -1.8613975 -0.010220796 0.017127588
0001e0 9f d7 da 3e 36 82 66 bd b0 60 ad be 53 4a d1 be
       0.4274263 -0.056276523 -0.3386283 -0.40877017
0001f0 31 18 e9 bf 8d a9 f7 bf f2 fa a9 be e0 2d 52 be
       -1.8210508 -1.9348618 -0.3319927 -0.20525312
000200 c2 d7 2f bf ba ce 03 bf 26 77 aa 3e
       -0.68688595 -0.51487315 0.33294028
