temp/role_model.pth (torch, 326381 bytes, 14 tensors)

word_embeds.weight f4 [3918, 5]
000000 65 42 29 3f 44 80 a4 3d 26 57 8d bf 5d 89 7e bf
       0.66116935 0.08032277 -1.104222 -0.9942835
000010 01 5e 2c bf 9b b5 e5 bd 5c 63 29 be 8a 31 36 3f
       -0.6733094 -0.11216279 -0.16541809 0.7116934
000020 89 0c ae bf dc 84 0d bf d1 51 1e bf 29 ab 0f bf
       -1.3597575 -0.5528085 -0.6184359 -0.56120545
000030 9d c2 90 3f 04 af 9a bf 15 66 96 3f 10 eb 31 bf
       1.1309391 -1.208466 1.1749903 -0.694993
000040 18 c1 a8 bf b2 17 05 bf 2f be 5c bf 7a ec 47 bf
       -1.3183928 -0.5198928 -0.862277 -0.7809521
000050 0f 1f 7a be 69 d5 db 3d ea c8 94 3f 09 4b d9 be
       -0.2442591 0.10734064 1.1623814 -0.4244006
000060 ee c1 b5 be e7 46 6c 3f 0f 86 00 3e c9 69 c3 be
       -0.3549952 0.9229569 0.1255114 -0.38166645
000070 d7 b0 69 3f b9 fe 62 3f b5 a7 46 3e 48 8e ce be
       0.9128546 0.88669926 0.19399913 -0.40342927
000080 9c e3 6e bf 08 b1 ed bf 40 7f a4 3f 23 d7 0a bf
       -0.93316054 -1.8569651 1.2851334 -0.5423452
000090 d2 f4 c4 3e 1d 73 bf 3e bd 01 40 bf 3e 19 0b 3f
       0.38468033 0.37392512 -0.7500265 0.5433539
0000a0 be 0e c8 bf 6a 60 57 bf 56 d2 c0 3f d1 21 15 c0
       -1.5629499 -0.8413149 1.506419 -2.330189
0000b0 d0 46 06 3f 49 31 94 bf 07 d9 27 bf 58 08 6c 3f
       0.524518 -1.1577541 -0.6556553 0.9220023
0000c0 4d af 01 bf 7d ea 8f 3e 34 00 fd bf c0 d3 0f 3e
       -0.5065811 0.28108588 -1.9765687 0.1404562
0000d0 22 f5 a6 bf 3c 18 e3 bf 7b a1 fa 3e ac 0c 84 3d
       -1.3043559 -1.7741771 0.48951325 0.064477295
0000e0 c7 2b 20 3f 44 cc 5b bf cc 18 c1 3e e4 f4 43 3e
       0.625668 -0.8585856 0.3771423 0.19136387
0000f0 3c de b6 be c4 96 62 3f 85 c6 db bd a6 37 aa be
       -0.35716426 0.885113 -0.10731224 -0.3324558
000100 e2 1e 37 3f 47 6d 2d bf f4 df 18 bf a1 55 31 3f
       0.715315 -0.6774487 -0.59716725 0.69271284
000110 4c fa 8c bd bf eb 55 be 3a 20 56 3f 16 bd bc 3f
       -0.06883678 -0.20890711 0.83642924 1.4745204
000120 b7 51 82 bd 84 fb cb bf c1 ad aa 3f eb 0f 21 bf
       -0.06363242 -1.5936131 1.3334275 -0.62914914
000130 16 ae 2d 3f 7f b4 33 c0 93 65 03 be 88 65 f1 3e
       0.6784376 -2.8078916 -0.12831716 0.47147775
000140 ed 16 64 bf eb a6 2b bd 2b d4 d3 bf 07 ed 92 3f
       -0.8909748 -0.041907232 -1.6549124 1.1478585
000150 2a de 20 bf af a8 55 3f 47 e1 16 bf 7c 0d c3 bf
       -0.62838995 0.83460516 -0.58937496 -1.523849
000160 e3 38 c8 bf dd 22 f7 be 35 44 61 bf 6e 4d d2 3f
       -1.564236 -0.48268786 -0.879947 1.642988
000170 7b 96 b5 3f bc 8d 8c be cc ae 00 3f c8 f5 91 bf
       1.4186548 -0.27451885 0.5026672 -1.1403131
000180 12 8c 8c 3f f5 dd 92 bc fe f7 16 3f 7a 2e bf bd
       1.0980246 -0.017928103 0.58972156 -0.093350366
000190 38 f3 6f 3f e7 ac 32 bf bd 5a 6b bf 82 02 eb 3f
       0.937305 -0.6979508 -0.9193533 1.836014
0001a0 ce 5b 9d 3f f9 2a 42 3f 7d 41 47 3f dc 7b 19 3f
       1.2293642 0.7584682 0.778343 0.5995462
0001b0 3b 0c ad be 9d 13 e3 3e 8d 10 78 3d 0e 73 54 bf
       -0.33798394 0.443509 0.06056266 -0.8298806
0001c0 ab b4 9c 3f d6 af 4d 3e 4d ca 0c 3f 81 70 d2 3d
       1.2242635 0.20086607 0.54996186 0.10275365
0001d0 57 e1 0a 3f f0 5e 39 c0 c4 a3 11 bf 28 c4 d2 be
       0.5425009 -2.8964195 -0.5689051 -0.4116528
0001e0 ed f5 b2 be 6a ad 92 bf 71 21 98 3e 86 b1 9c 3f
       -0.3495325 -1.1459172 0.29713014 1.2241676
0001f0 5d ab 8f bf 8d 44 82 3e ae 18 a9 3f 56 10 c2 3e
       -1.1224171 0.25442925 1.3210657 0.37903088
000200 72 31 16 bd e8 5b 36 3f ab 03 93 3e 66 96 90 3f
       -0.03666825 0.7123399 0.28713736 1.1295898
000210 6b 78 de 3e 14 26 eb be ed bf 80 3d 53 2a 9c 3f
       0.43451247 -0.4592749 0.06286607 1.2200416
000220 21 14 e2 bf a5 8a d7 be b5 4f 22 3f 49 a7 42 3e
       -1.7662393 -0.42097965 0.63402873 0.19009127
000230 6d 33 67 bf 6e 84 f3 39 22 49 c7 3e 2e a0 d1 3e
       -0.90312845 0.0004644724 0.38922983 0.4094252
000240 85 10 b5 be 02 64 29 bf 83 52 98 bf 89 48 c5 be
       -0.35364166 -0.66168225 -1.190018 -0.38531902
000250 de e5 db 3e b3 78 25 3f 6c 18 62 3f 9a 64 ad 3f
       0.42948812 0.646373 0.88318515 1.3546326
000260 59 73 35 3f 33 aa 2a bd 84 ee f9 bd d1 9c 6f be
       0.7087913 -0.04166622 -0.12203696 -0.23399664
000270 d0 13 e0 be 04 14 90 3e e7 35 02 3f e3 3d cc 3e
       -0.43765116 0.2814027 0.508635 0.39890966
000280 0e b3 88 3f 23 96 77 bf 56 00 0f 40 65 ec 66 3f
       1.0679643 -0.96713465 2.2343955 0.9020446
000290 6e 6e 69 3f 35 37 4b 3f 11 3e c9 3e 93 c7 cc bf
       0.9118413 0.79381114 0.39305165 -1.5998405
0002a0 29 1e c7 bf 4b ee e1 3f b8 5c 4c 3f 78 dd 60 3f
       -1.5556079 1.7650846 0.7982898 0.87837934
0002b0 16 bd 0b 3f 37 d2 26 3f 83 ef 1f be bc 19 04 3f
       0.545854 0.6516451 -0.1561871 0.5160177
0002c0 46 01 7b bf ed 3c d4 3f 8e d7 e5 3c 3b 19 4f bf
       -0.9804882 1.6581093 0.028056886 -0.80897874
0002d0 96 6e 5e bf b2 9d 23 3d 47 86 dc 3c 67 3c 8c 3f
       -0.8688749 0.03994531 0.026919497 1.0955933
0002e0 68 69 86 3f 9c c2 d7 3f 0b 15 d3 be 03 0e 4f 3f
       1.0500917 1.6856265 -0.41226992 0.80880755
0002f0 a1 5d d6 3d 5d 41 00 3e a8 1d 4e 3f 32 dc 34 bc
       0.10467077 0.12524934 0.80514 -0.011038827
000300 a9 69 ae bc 9c 86 97 3f a3 89 3c bf 02 f8 9f 3e
       -0.021290617 1.1837955 -0.73647517 0.31243902
000310 06 5c 05 bf 10 48 a5 bf f0 54 91 bf 81 a2 61 bf
       -0.5209354 -1.2912617 -1.1354046 -0.88138586
000320 8e 6f 21 40 b1 6d 6e bf cb f7 b3 3f 0b 23 a2 3e
       2.5224338 -0.93136126 1.4059995 0.3166736
000330 83 8b 38 3f a1 84 ef 3e 66 4f 1d be e9 c2 a6 bf
       0.7208788 0.46780875 -0.1536232 -1.3028232
000340 38 8f a4 3f 54 09 6f bf 50 66 5e be 13 9f 18 3f
       1.2856207 -0.9337361 -0.21718717 0.5961773
000350 38 ee a2 3e 25 fe 8d 3f 65 80 11 bf f5 38 9e 3e
       0.3182237 1.1093184 -0.5683654 0.3090283
000360 38 5b a1 3d f1 c1 d4 3f a2 3c 25 bd c9 3e 74 3e
       0.07878727 1.6621686 -0.040341027 0.23852076
000370 3d 51 b9 bd c0 07 e1 3f 16 2e a2 bf d6 0c b4 bf
       -0.09048698 1.758049 -1.2670314 -1.4066417
000380 c4 44 a3 bf fe 7d 07 3f cd e6 07 bf c6 c6 f5 3e
       -1.2755361 0.52926624 -0.5308655 0.48003215
000390 69 d5 25 3f 9b ec 9d 3e 35 1b 81 3f 8d d2 9e bf
       0.64778763 0.30844578 1.0086428 -1.2408005
0003a0 dc 6a f2 3e 2d 3c 8c 3e 85 da 59 bf 09 0a 1f 3f
       0.47347152 0.2738966 -0.8509906 0.6212469
0003b0 07 7c 5b 3e de df c8 3f 61 73 99 3e 2d 03 ca 3e
       0.21434031 1.5693319 0.2997084 0.39455548
0003c0 26 f5 5e 3f cc f1 50 bf 23 da 61 3e c9 2a d0 3e
       0.87092817 -0.8161895 0.22055869 0.40657642
0003d0 34 e1 64 3e 29 71 d4 3f 12 64 87 be e0 1a 95 be
       0.22351533 1.6597034 -0.26443535 -0.29122066
0003e0 1b d6 8d bf d0 24 cb be 57 dc 76 3f c9 80 01 be
       -1.1080965 -0.39676523 0.9642996 -0.12646784
0003f0 93 b6 02 40 f5 60 86 be a9 a1 56 3f 86 b0 ec be
       2.0423934 -0.26245847 0.83840424 -0.46228427

lstm.weight_ih_l0 f4 [8, 5]
000000 01 7a 75 3e 9f 79 20 3f e7 6c cd be ac eb 0a bf
       0.23972322 0.6268558 -0.40122148 -0.54265857
000010 16 9d 34 3e 2b 14 17 3f 82 b5 07 3f d3 64 23 bf
       0.17638049 0.5901515 0.53011334 -0.6382572
000020 d2 07 7d 3d 0d e3 2b 3f 17 a0 38 3e a9 bd dd bd
       0.061775036 0.67143327 0.1802982 -0.108271904
000030 2d c5 14 3f 54 1c b5 3e 08 d7 15 3f 6e 32 d9 be
       0.58113366 0.35373175 0.58531237 -0.42421287
000040 b1 bc 7f 3e c8 be c9 be ad 2c 3f 3e d4 98 0f 3f
       0.24974324 -0.39403367 0.18669386 0.5609257
000050 3a a8 d5 3d 20 ca 73 3e 60 5d 18 3d c7 b0 b4 3e
       0.10432477 0.23807573 0.037198424 0.3529112
000060 a6 97 4e 3e 9c 73 07 bf 30 27 14 be b9 2b 0f 3f
       0.20175037 -0.5291078 -0.14468074 0.5592609
000070 4b f4 28 3e 87 61 22 bf dd 3a 04 3f 4f 09 3c be
       0.1649944 -0.63430065 0.5165232 -0.18362926
000080 62 42 f8 bd 7f 30 ce 3e 9c 9d bc be 2b 2b 24 3f
       -0.121220365 0.40271375 -0.36838996 0.6412837
000090 7b c1 d0 be 7d 20 b5 be d1 7a 88 3d 98 7f 34 3e
       -0.40772614 -0.3537635 0.0666405 0.17626798

lstm.weight_hh_l0 f4 [8, 2]
000000 c1 dd c8 3e 92 91 ed 3e 88 3e f6 be 02 82 c1 3d
       0.39231685 0.46400124 -0.48094583 0.09448625
000010 08 fe 9a 3e 76 16 8e be 7a 1e ab be 82 71 b8 3e
       0.30271935 -0.2775151 -0.3342169 0.360241
000020 dd 01 ca 3e 8a 33 b8 be c9 42 23 bf 85 a7 26 3f
       0.39454547 -0.3597682 -0.6377378 0.65099365
000030 9d 75 ce be 5d 0a a9 3e 93 1c fd 3e 41 1d 03 3e
       -0.40324107 0.3301572 0.49435863 0.12804128

lstm.bias_ih_l0 f4 [8]
000000 f9 88 36 3f f3 ea 33 bf 5b 75 46 3d 5b 97 de be
       0.71302754 -0.7028038 0.048451763 -0.4347485
000010 41 7d 30 bf fd 3b 64 3e d2 12 57 3d a7 fc 92 be
       -0.6894112 0.22288509 0.052508183 -0.28708383

lstm.bias_hh_l0 f4 [8]
000000 9e 67 2a 3f 9c b8 09 bf 1e 6e b0 3e c7 60 27 3f
       0.6656436 -0.53797317 0.34459013 0.65382046
000010 06 87 45 bd 1f ac c7 3e cf 76 33 3f 4b 93 07 bf
       -0.04822447 0.38998505 0.7010316 -0.52959126

lstm.weight_ih_l0_reverse f4 [8, 5]
000000 35 cf 2f 3f 30 bf b7 be 55 dc bf 3e c6 d0 d3 be
       0.6867555 -0.35888052 0.37472787 -0.4137022
000010 e5 1e 36 be d4 80 db bd 13 43 97 3e 69 4c 06 bf
       -0.17785223 -0.107179314 0.2954336 -0.5246034
000020 a3 66 2a bf cf ad 08 3f 1d 6a 3b 3e 9b 3a 8b 3e
       -0.6656286 0.5339021 0.18302198 0.2719315
000030 b7 9f 73 3e 96 fe fc 3e 9e 23 ec be 65 a0 66 be
       0.23791395 0.49412984 -0.46120924 -0.22522123
000040 49 ac 2e bf 60 00 10 3f be 4a 8e be f9 94 32 bf
       -0.68231636 0.5625057 -0.277914 -0.69758564
000050 90 8b a5 be 06 2c c5 3e 31 42 1e bf 91 28 29 3f
       -0.3233304 0.3851015 -0.6181975 0.66077524
000060 0f 5a 0a bf ca 10 b4 3e a8 51 d0 3e 2c d9 0f 3f
       -0.5404367 0.3516906 0.406873 0.56190753
000070 4c 5f 2d be 36 b7 43 be bc 0d 0e 3f c4 73 04 3f
       -0.16930884 -0.19112858 0.55489707 0.51739144
000080 b2 73 f0 3e 04 50 c2 be 5a b9 a3 3d 81 1d 28 3e
       0.4696327 -0.37951672 0.079943374 0.16417505
000090 38 36 a7 be da 63 0c bf 43 2d 28 3f f7 cc 3f 3e
       -0.32658553 -0.5483986 0.65694064 0.18730532

lstm.weight_hh_l0_reverse f4 [8, 2]
000000 43 c1 82 bd 9a ff b9 be c1 48 16 3f 5e d1 d9 bd
       -0.06384518 -0.3632782 0.58704764 -0.10635637
000010 81 1d 76 be 8c 99 1a 3f fe 7a 37 3c 59 c0 ec be
       -0.24034692 0.60390544 0.011198757 -0.462405
000020 1e 34 09 be 4f 39 18 3f 48 e2 05 bf 65 9b 4d 3e
       -0.13398787 0.59462446 -0.522984 0.2007881
000030 8e a3 f9 bd 20 76 0f 3e b7 ca b4 3e ed 56 52 bd
       -0.12189399 0.14009905 0.3531091 -0.05135243

lstm.bias_ih_l0_reverse f4 [8]
000000 15 30 8a 3e 0e 08 c3 3d f1 fc ef be 1c e9 57 be
       0.2698981 0.09523021 -0.46872666 -0.21085018
000010 10 b1 4f be a6 17 72 3e af a9 84 3e 11 a8 4f bc
       -0.20282388 0.23641834 0.25910708 -0.0126743475

lstm.bias_hh_l0_reverse f4 [8]
000000 bb 1a 03 bf a1 1b 9f 3e 43 f5 0b 3f d9 ee bb be
       -0.5121266 0.31075767 0.54671115 -0.36705664
000010 45 9f 31 bf 91 18 89 3e 5d 82 6c bd 72 c2 ff 3d
       -0.6938365 0.26776555 -0.05774151 0.124882594

crf.start_transitions f4 [243]
000000 0a 5c 46 bd e8 ed 56 3d e0 c6 2c 3d d5 b6 49 3d
       -0.04842762 0.05247298 0.04218185 0.049246628
000010 7b 90 50 bd 83 71 84 bd fd f3 95 3d ef 7a 24 bc
       -0.050919037 -0.06466963 0.07321928 -0.010039075
000020 0e d0 96 bd a8 87 1a 3d 74 6f 77 3d 40 89 25 bd
       -0.07363902 0.037727028 0.060409024 -0.040414095
000030 a6 9d 10 3d b9 80 e5 bc 1d b6 5a 3d c8 13 3f 3d
       0.035306595 -0.028015481 0.053396333 0.046649724
000040 90 3d 80 3d 67 9e bc bd 1d 44 b8 bd c3 1f ad 3c
       0.06261742 -0.092099 -0.089973666 0.02113331
000050 3f d3 59 3d 21 1e 40 bc 00 87 a2 3d 00 55 58 3d
       0.053179976 -0.011725933 0.079359055 0.052815437
000060 de 71 58 3d 0f d8 59 3d 47 e3 52 bd 94 1c 9f 3d
       0.052842967 0.053184565 -0.05148628 0.07769123
000070 e0 2d 8e 3d fa 1d 43 bd 09 7b fc bc 63 c3 3d 3d
       0.06942344 -0.04763601 -0.030820386 0.046328913
000080 5d 65 cd bd 56 eb a3 bd df 4c c1 bd 8e 8a 8e 3b
       -0.10029099 -0.08003871 -0.0943849 0.004350013
000090 f0 ce 0b 3d 87 44 44 bd 7e 7c be bd 4a 21 a9 3d
       0.034132898 -0.047916915 -0.09301089 0.082583025
0000a0 bb d0 49 3d 62 4a aa bd 60 7b 0e 3d 58 dd 8c bc
       0.049271327 -0.08314969 0.03478563 -0.017195389
0000b0 24 f4 cc bd 62 09 89 bd c2 d4 54 3d b6 56 ae 3d
       -0.10007504 -0.06691243 0.051960714 0.085126325
0000c0 aa 4a 77 bd 77 93 0b 3d c5 15 d1 3c c5 92 a3 3d
       -0.06037394 0.03407618 0.025523076 0.079869784
0000d0 97 07 23 3d 21 f8 c0 3d 2a 0b b4 bd 44 e1 6a bc
       0.03980216 0.09422327 -0.08791192 -0.014335934
0000e0 28 e2 54 3d 7d 46 1f 3d 51 6b 5a bc 4f e3 57 bd
       0.051973492 0.038885582 -0.01333125 -0.052707013
0000f0 98 1f c7 bd 56 a4 88 bd b9 cb cb bb a6 91 a8 bd
       -0.09722823 -0.066719696 -0.006219354 -0.08230905
000100 f6 7f 4b 3d bb fd 90 3d a3 0c 9e bd a6 27 75 3d
       0.04968258 0.07079645 -0.07717254 0.059852265
000110 f3 0f f9 bc 5f 1b ce ba 08 ae 48 bd b7 ba a4 bd
       -0.030403113 -0.001572471 -0.048994094 -0.080434255
000120 ec 73 b7 3c dc ca b6 bd cb 81 17 bd 87 38 76 bc
       0.022394143 -0.08925411 -0.036989015 -0.015028126
000130 05 0b c7 3c 15 9b a5 3d bc 86 59 3d ad 81 a4 3d
       0.024297247 0.0808622 0.05310701 0.08032546
000140 aa bc b9 bd 10 7c c7 bc f9 d1 29 bc f4 76 34 3d
       -0.09069188 -0.02435115 -0.010365003 0.044058755
000150 08 ed 07 bd e3 c6 a2 3c 1f f0 85 3d 7f 0a 96 bc
       -0.033185035 0.019870227 0.0653994 -0.018315552
000160 43 f3 91 bd 4f a3 86 3d e9 5f ab 3d 57 a0 b8 bd
       -0.071264766 0.065741174 0.08367903 -0.090149574
000170 60 a5 b0 3d fa fa 60 3d 46 e5 92 bd 21 8b 19 bc
       0.08625293 0.05492685 -0.07172637 -0.00937155
000180 23 a4 10 3b 78 87 c6 3d 45 61 75 3d 22 41 60 3d
       0.002207049 0.09693807 0.059907217 0.054749615
000190 f7 77 09 bd 02 53 b7 bc 84 6e c8 bc 9f 40 98 bd
       -0.033561673 -0.022378448 -0.02446676 -0.074342005
0001a0 cc 27 6f 3c f2 f8 f6 bb dc 4a ba bd 42 e2 51 bd
       0.014596891 -0.007537001 -0.090963095 -0.051241167
0001b0 81 97 b9 bb 52 a6 be 3d 18 d7 a7 3c fd f1 dd 3c
       -0.0056638126 0.09309067 0.020488307 0.027092928
0001c0 fe 5e b8 bd 3f 62 ba 3d d9 e4 c8 bc 74 78 8e 3c
       -0.09002493 0.0910077 -0.024523186 0.01739142
0001d0 1b 6e 04 bd 34 99 93 bd 5a bc 9e 3b 39 4a 57 3b
       -0.032331567 -0.072069556 0.0048442306 0.0032850637
0001e0 dd 85 53 bd 9c f4 4c bd 9b ae ce bd 9b fc 04 bd
       -0.051641334 -0.050037965 -0.10091897 -0.032467466
0001f0 73 a5 72 bc 40 0c bd bc 9c e2 60 bd ac 27 bd bd
       -0.014809954 -0.02307713 -0.05490361 -0.092360824
000200 83 59 ac bc 1c f5 92 3d d7 48 c9 3d 3c ac b6 3d
       -0.021038776 0.07175657 0.09828346 0.0891957
000210 eb 5a 4a bd eb da 81 3d fd dd ce bd bc 85 9d bc
       -0.049403112 0.063405834 -0.10100935 -0.019228809
000220 2e 26 f0 3c a1 ae c7 3d 4e d3 8d 3d 36 e2 98 bd
       0.02931508 0.09750105 0.06925069 -0.07465021
000230 e6 9c bf 3d 8f 46 cf bd 66 db 11 bd a8 31 41 3d
       0.09356098 -0.1012088 -0.035609625 0.047166497
000240 d2 bd b7 bd 19 87 c6 bd 5a e4 ad 3d 66 28 6e 3d
       -0.08971752 -0.096937366 0.0849082 0.058143996
000250 a5 fc 4d bd 93 a7 f7 3c d5 da 7b 3d 64 b7 11 bd
       -0.05028977 0.030231273 0.06148799 -0.035575286
000260 3e 25 9c bb 55 e8 49 bb ad 49 2f 3d 93 97 71 bd
       -0.004765182 -0.0030808647 0.042794872 -0.058982443
000270 f1 a6 07 bc 83 b2 a5 3c 91 69 50 bd c7 45 ea 3c
       -0.008279548 0.020226723 -0.050881926 0.028597726
000280 d3 6d 96 bd cc 62 d1 bc 98 58 a1 bc 72 34 52 3d
       -0.07345166 -0.025559805 -0.019695565 0.051319547
000290 8f 21 b4 3c 20 a9 29 bd fd 27 47 3d 98 fc 85 3b
       0.021988658 -0.041421056 0.04862212 0.0040889494
0002a0 dc d6 80 bd 1f 71 86 3d e7 9c 86 bc d2 87 42 bd
       -0.06290981 0.06564545 -0.016432239 -0.04749281
0002b0 71 fc c2 bc 84 8f 3e 3d 3f 1e cf bd dc 82 91 3b
       -0.023802014 0.046523586 -0.10113191 0.0044406485
0002c0 7a e9 a1 3d 5d 0b 19 bc f2 af 7d bd ca d6 13 bc
       0.0790586 -0.009341088 -0.061935373 -0.009023378
0002d0 86 a7 cf bd ad b1 af 3d a6 52 b3 bd fa aa 9d 3d
       -0.101393744 0.08578811 -0.08755998 0.07698627
0002e0 33 67 b5 3d 1a 8a 96 3d 07 cf 99 3c 7d fb 8f 3d
       0.08857574 0.073505595 0.018775476 0.070303895
0002f0 40 7f 2d 3d c8 1b b4 bd 69 6a 9a bd 6b 96 93 3d
       0.042357683 -0.08794361 -0.075398274 0.07206424
000300 29 6a c5 3d c7 f3 2a 3d 36 c4 bd 3d c0 dc aa bd
       0.09639389 0.04173639 0.0926594 -0.08342886
000310 28 83 9e bd b2 37 c3 3d b0 fd 84 bd 3a 2a 65 bd
       -0.0773986 0.095321074 -0.064936996 -0.055948474
000320 80 8e 90 3d 39 44 03 3d 97 94 87 3d 52 fd bc bd
       0.0705843 0.032047484 0.06620138 -0.092280045
000330 e9 5c c5 3d 75 af 87 bd 6a 95 90 bb 0b b7 44 3d
       0.09636862 -0.06625263 -0.004412343 0.048026126
000340 38 01 56 3b e8 56 28 bd 36 2c da 3c 6c b7 f0 bc
       0.0032654535 -0.041098505 0.02663241 -0.029384337
000350 e7 aa 29 bd b8 f7 a0 3d c3 37 2d bd 73 09 07 3c
       -0.04142275 0.078597486 -0.042289507 0.008241999
000360 38 7c d8 3d 0b a4 5c bb 9d da e0 bc d0 75 dc bc
       0.10570568 -0.0033667113 -0.027447993 -0.026911646
000370 82 71 04 3d 5a 7e 57 bd 58 1f 70 3d a8 d9 8b 3c
       0.032334812 -0.052610733 0.05862364 0.01707156
000380 da cf 18 bc 3e 67 8c bd 65 1d c1 3d 7e ec 0a 3d
       -0.009326899 -0.068556294 0.09429435 0.033916943
000390 2c 24 14 bd c5 98 a3 3d c8 43 f0 3d 19 cf 85 3d
       -0.03616731 0.07988123 0.11731678 0.06533641
0003a0 17 1f 98 3d c2 f0 6e bd ba 8f 99 bc 48 a4 05 3d
       0.07427805 -0.058335073 -0.018745292 0.032627374
0003b0 8b aa 9f bd dc ba 20 3d 50 c8 3e 3d 04 1f 9b bc
       -0.077962 0.039240703 0.04657775 -0.018935688
0003c0 af 8b 0b 3d e5 1d fe 3c 61 50 92 3e
       0.03406876 0.031020114 0.2857695

crf.end_transitions f4 [243]
000000 6c f8 95 3c 6b e6 b2 bc 4f a1 90 3d 92 36 94 3d
       0.018306933 -0.021838387 0.07062017 0.07236971
000010 d6 b7 98 bd c5 84 3d 3c d8 4a 3f 3c a4 25 36 3d
       -0.07456939 0.011567299 0.011675559 0.04446949
000020 f6 2d 49 3d 57 a3 ad 3d 90 c2 1f 3d b0 3a 9a 3d
       0.049116097 0.0847842 0.03900391 0.07530725
000030 63 1a 85 bd 89 45 5c bd 84 30 b9 3c 11 ad 29 bc
       -0.064991735 -0.05377725 0.022606142 -0.010356204
000040 97 e2 a6 bd d7 c5 b6 bd fb b0 ab bd 63 2c c5 3d
       -0.08148687 -0.08924454 -0.08383366 0.09627607
000050 67 1a 92 3c 66 e1 ce 3c f0 4c 48 bd 2c 17 8b bb
       0.017834855 0.025253963 -0.0489015 -0.0042447057
000060 b2 cb 07 3d 0b ef b7 3d 59 a4 6f bd 6e a3 83 bd
       0.033153243 0.08981141 -0.058506344 -0.06427656
000070 52 8f b1 3d 27 bd 80 bd 38 05 bd bc 81 f9 96 bd
       0.08669914 -0.06286078 -0.023073778 -0.07371808
000080 7c 92 8a bc 5c 9a 45 3d 41 db b3 bd f2 24 ea 3b
       -0.016915552 0.04824291 -0.08782054 0.0071455175
000090 d1 7b 8b 3d 87 4a b2 3d f2 e3 30 3c c2 f6 6c bc
       0.068107255 0.08705621 0.010796534 -0.0144631285
0000a0 0e e1 af 3d 01 58 19 bd ea 7f a4 3c 1a fa 5d 3d
       0.08587848 -0.037437443 0.020080525 0.054193594
0000b0 5f 4a df b9 f7 1a 4e bd ea ad 81 bd c7 23 1f 3d
       -0.00042589285 -0.050318684 -0.063319996 0.03885248
0000c0 4e d5 11 3c cf 6b 73 bd 0b 23 84 bc e1 4f b7 3c
       0.008900953 -0.059428986 -0.016129991 0.022376956
0000d0 d6 d3 3f 3d 7d 79 42 bd 30 36 64 bc 16 ed 7a 3d
       0.046832882 -0.04747914 -0.013928935 0.06126126
0000e0 13 7e 62 3c 67 9b 63 3d 9d 5d 90 bd d4 3f b8 3c
       0.013824004 0.055568125 -0.07049105 0.022491373
0000f0 db d3 6d bc 13 95 bb bc cc 14 b2 3b ca df 3b bd
       -0.014515842 -0.022898233 0.005434608 -0.04586772
000100 2b 31 f3 3c f0 de b9 3c ee c8 24 bc 5d c3 e6 3c
       0.029686531 0.022689313 -0.010057671 0.028169328
000110 7d 64 9e 3d 53 da 51 3c c3 46 3b 3d 10 67 aa 3d
       0.0773401 0.0128084 0.04572178 0.08320439
000120 87 75 61 bd 43 fc 91 3b b5 80 4f bd 5d e0 c7 bb
       -0.055043723 0.004455121 -0.050659854 -0.0060997442
000130 4a f5 48 3c 5c c6 8a bc 98 97 2a bc 3b f8 9f 3d
       0.012265513 -0.016940288 -0.010412119 0.07811018
000140 a2 b6 f4 ba 66 c1 42 bd 4b 95 89 bd f0 70 ba 3d
       -0.0018670151 -0.04754772 -0.067179285 0.09103572
000150 8c 18 87 3d 89 c3 5f 3d c7 14 2e bd 9f 93 c7 3d
       0.06596479 0.054629836 -0.042500284 0.09744953
000160 18 d9 c5 bd 39 d8 1f 3d 8d bf cf 3c 17 f4 85 3d
       -0.09660548 0.039024565 0.025359893 0.06540697
000170 3a 84 91 3c ad 24 74 3b fd 5a 95 bc a6 0b 89 bd
       0.017763246 0.0037253306 -0.018231863 -0.06691675
000180 23 0f 05 bd a1 4c 06 3b 90 88 b3 bd 5c 2a 29 3d
       -0.03248514 0.0020492452 -0.087662816 0.041300163
000190 8b 91 8e 3d 42 48 1b 3d f7 2b 3c bd 4a 97 0a bd
       0.06961354 0.037910707 -0.045940366 -0.033835687
0001a0 05 3d 53 bc 35 c0 ae 3d 7d 83 80 3d c7 3b 28 3d
       -0.012892966 0.08532754 0.062750794 0.041072633
0001b0 6e 6d cf bd 37 0d ba 3d 9a 76 aa bd 4b 26 32 bd
       -0.10128294 0.09084552 -0.08323403 -0.04349355
0001c0 5e 64 b2 3d 18 d6 22 3c 0a 8e 21 3d cb 11 08 3d
       0.0871055 0.009938739 0.0394421 0.033220094
0001d0 0e a1 29 b8 10 4f 68 bc b1 d3 b8 3d 05 9b 80 3d
       -4.0442734e-05 -0.014179006 0.09024752 0.06279568
0001e0 1a cf 26 bd 86 7f 38 bd 34 1e 0d bd 4c ef 08 3d
       -0.04072485 -0.04504349 -0.034452632 0.033431336
0001f0 b8 ce 8c 3d 1a 94 e9 bc 44 ce e3 3c 5c b1 af bc
       0.06875366 -0.028513003 0.027808316 -0.021446876
000200 92 0c a3 bd 13 c8 81 bd e9 52 55 3d c7 c3 70 3d
       -0.07961382 -0.06336989 0.052081022 0.058780458
000210 e5 52 0c 3d ee 86 b8 3d d1 29 9d bd 84 4b 8b 3d
       0.034258742 0.09010111 -0.076739915 0.06801513
000220 2c 24 b2 bb 06 fd ce bd 9e e0 61 bd de 6b 85 3d
       -0.005436441 -0.10106854 -0.055145852 0.06514715
000230 07 fd b0 bd 65 2f c4 3d ee e6 27 bd b1 70 4b bd
       -0.08642011 0.09579352 -0.040991716 -0.049668018
000240 22 7b b0 3c 07 e5 70 3d 0b 9e 25 3d 1e 16 84 3d
       0.02154309 0.058812167 0.040433925 0.06449531
000250 d4 f4 62 3d 76 4c a3 bd df 9f b3 3d 89 8f c1 bc
       0.055409268 -0.07973568 0.08770727 -0.023628013
000260 f7 46 b5 3d b0 3b 8d bd 1a 02 53 bd 2c c3 d7 3b
       0.08851426 -0.0689615 -0.051515676 0.0065845456
000270 6b 1a fd 3c cf ff 38 3d e7 16 6b 3d b6 e7 72 3d
       0.030896386 0.045165833 0.05739489 0.059303008
000280 06 1c 63 bd bc 83 88 bd 42 22 88 3c 8b 47 c0 3d
       -0.055446647 -0.06665751 0.016617898 0.09388646
000290 8f d2 ae bd 18 f4 68 bd 37 56 bf 3d f5 00 96 bd
       -0.085362546 -0.05687341 0.09342616 -0.07324401
0002a0 2f 2b c8 3a 7b 3a a0 bd 56 87 95 bd c8 f1 e8 3c
       0.0015271659 -0.07823654 -0.07301204 0.028435603
0002b0 1b b9 0f 3d d6 79 a9 3d 25 8c 09 3d 75 eb 48 bc
       0.03508864 0.082751915 0.033580918 -0.012263169
0002c0 c9 7b 8e bd 37 ed 42 3d 84 9a c2 bd 5f 48 63 bd
       -0.06957204 0.047589507 -0.09502128 -0.05548894
0002d0 66 4a ca bd df d3 38 3d e7 86 95 bd 82 bf 22 bd
       -0.098774716 0.04512393 -0.07301121 -0.039733417
0002e0 df 14 af 3c 0d 29 5c bc 37 3e 24 bd 6d a2 45 bd
       0.021372257 -0.013437522 -0.040098395 -0.048250604
0002f0 52 2f 52 3d 22 6c 1e 3b a0 d2 88 3a 6d 85 3c 3d
       0.05131466 0.002417334 0.0010438748 0.046025682
000300 bc 8b 91 bd 87 1e 95 bd a4 38 8f 3d 67 7a 0a 3d
       -0.0710673 -0.07281213 0.06993225 0.03380814
000310 92 64 88 3d a5 80 95 3c da cf 82 3d a7 68 95 bd
       0.06659807 0.018249819 0.06387301 -0.072953515
000320 ee ba 93 3d 49 a1 b5 bd 87 04 94 3d be 0f 5d 3d
       0.072133884 -0.08868653 0.07227426 0.05397009
000330 f2 31 0a 3d 61 87 a6 3d 27 70 a2 bd c4 85 aa 3c
       0.033739038 0.0813129 -0.079315476 0.020815738
000340 00 1a 95 bd ea eb 88 3d fe 4d af 3c 24 f9 be bd
       -0.0728035 0.06685622 0.021399494 -0.093248636
000350 f5 e6 88 bd 02 2e 16 3c b6 62 e5 bb 68 65 a8 bd
       -0.066846766 0.009166243 -0.0070002927 -0.08222467
000360 78 e3 8f 3d e1 b8 90 3d 4e ba 59 3c 59 b3 c2 3d
       0.07025808 0.07066513 0.013289047 0.09506864
000370 8d d3 29 3d eb 91 9c bd a3 ca 09 bd de 8e cb bd
       0.041461516 -0.07645019 -0.033640515 -0.09939359
000380 ed 4e 62 bc b5 67 8f bc 2a 76 92 3d 64 84 19 3d
       -0.013812763 -0.017505506 0.07151444 0.037479773
000390 46 3a b5 bd f3 33 3a 3d 73 91 cc bc b1 f1 a9 3d
       -0.088490054 0.0454597 -0.0249717 0.08298052
0003a0 ef ba 37 3d 6c f1 a0 bd 25 6c b4 3d d5 64 9d 3c
       0.04485601 -0.078585476 0.088096894 0.01921312
0003b0 54 6d 8c 3d c0 7c 8f bd 96 8b 07 bd c6 5b 50 3d
       0.0685679 -0.07006216 -0.033092104 0.050868772
0003c0 28 ce 3c 3d 7d 52 1d bd da c0 ba 3e
       0.046095043 -0.038408745 0.3647526

crf.transitions f4 [243, 243]
000000 9b 2b 40 3d 82 51 4f bc e0 78 61 bd 82 2d fc bb
       0.046916585 -0.01265371 -0.055046916 -0.0076958546
000010 69 d4 75 bd a1 06 92 bc 20 fb 71 3d bc 6e 9d bc
       -0.060017023 -0.017825427 0.059077382 -0.019217841
000020 65 17 cc bd ae eb 97 3d 81 c4 97 3d e0 7b 33 3d
       -0.099654 0.07417999 0.07410527 0.04381931
000030 57 95 97 bd eb f5 c4 bd 72 29 67 3d c6 f5 94 3d
       -0.07401531 -0.09617218 0.05643601 0.0727344
000040 e7 04 43 3d 8b b4 59 bd bb 40 fa bc 79 3d 5d 3d
       0.047612097 -0.053150695 -0.030548444 0.054013703
000050 e5 94 84 bd be 17 b9 bd eb 90 c3 bd 58 bf 97 bd
       -0.06473712 -0.090377316 -0.09549125 -0.07409543
000060 71 be ab 3d 0c 23 0a 3d 47 fa b3 bd 8f 4c c9 3d
       0.08385933 0.03372483 -0.08787971 0.098290555
000070 93 5e 5a 3d 0d 09 05 3d 55 15 4a bc 0e e1 0a bc
       0.05331285 0.032479335 -0.0123341875 -0.008476509
000080 74 2b 78 3d 4b c8 84 3c 89 93 58 3d 7b 98 1c 3d
       0.060588315 0.016208788 0.052875075 0.038231354
000090 97 0d 82 bd 50 e0 ae 3d 11 93 b2 3b df 7c 4b bd
       -0.06350248 0.08538878 0.0054496606 -0.049679633
0000a0 c9 40 68 bd 4c 42 bf bd 07 c7 17 bd 91 f7 b0 bd
       -0.05670241 -0.09338817 -0.03705504 -0.086409695
0000b0 cc 05 2f bc 2b 34 52 3c 0e 0c e6 3c 60 6c 01 3d
       -0.010682534 0.012829821 0.02808192 0.031597495
0000c0 00 7a 56 3d f8 c6 b8 3d 7a 2f 8b 3d 5b 2b 8e bd
       0.052362442 0.09022325 0.06796165 -0.06941863
0000d0 c5 2e 82 bd fb a0 a7 bc bb d9 76 3c 6c 49 01 3d
       -0.06356577 -0.020462504 0.015066559 0.03156416
0000e0 d4 dd 80 bd 51 d5 95 3d 0a 6b 45 bd d7 e3 a9 3d
       -0.0629231 0.073160775 -0.048197784 0.0829541
0000f0 14 e0 81 bd 7a 56 82 bc 98 c5 73 bd 36 c1 bd 3d
       -0.06341568 -0.015910376 -0.059514612 0.09265368
000100 dc 0b 60 bc 42 a0 b9 3d 8e da 19 bd 4d c1 94 bd
       -0.0136747025 0.0906377 -0.037561946 -0.07263432
000110 d6 62 bb bd b8 6e 8f bd a3 24 a3 3d ea ee 95 3c
       -0.09149711 -0.0700354 0.07965972 0.0183024
000120 1d df b7 bd b7 d8 38 3c dd 9b 80 3d fb f7 5b 3d
       -0.08978102 0.011282138 0.062797286 0.05370329
000130 1d 79 8e bd f1 6a 81 bc 4d 28 67 3d 49 88 be bd
       -0.06956694 -0.015798064 0.05643492 -0.09303338
000140 7e ff 7f bd 04 01 62 3c b0 9d ba bd d8 0d cb bd
       -0.062499516 0.013794187 -0.09112108 -0.0991475
000150 49 9e e5 bc be a4 72 3d 0a 9d ab bd 06 7d 2a bd
       -0.028029578 0.05923914 -0.08379562 -0.041623138
000160 74 ab 4b 3d b9 0d f5 bc dc 2d ba 3d b5 92 cc bd
       0.049724057 -0.02991377 0.09090778 -0.0998892
000170 60 94 95 bd a0 d2 b4 bd 31 7e b4 bd 16 1e c4 bc
       -0.07303691 -0.08829236 -0.088131316 -0.023940127
000180 0a 09 30 bc 3f 46 51 bd b5 11 80 bd 0b 39 43 bc
       -0.010744343 -0.051092383 -0.06253377 -0.011915456
000190 cb 14 35 bd 0c d3 1d bd db a8 d8 3b 10 cc 4e 3d
       -0.044209283 -0.038531348 0.006611926 0.050487578
0001a0 64 2d cb 3d 34 cb c0 bd 83 b5 25 3d 4f 95 94 bd
       0.09920767 -0.09413758 0.040456306 -0.07255041
0001b0 11 2f 1a bd 70 77 91 3d 54 2f 36 3d 38 49 09 bd
       -0.037642542 0.07102859 0.04447873 -0.033517092
0001c0 3e 09 af 3d e8 a7 cd 3b 49 a4 94 bd bd a5 c1 3d
       0.08546685 0.0062761195 -0.072578974 0.0945544
0001d0 92 49 48 3d bb 72 d7 3c 1b 77 a5 bd 15 9c 71 3c
       0.048898287 0.026299825 -0.08079358 0.0147466855
0001e0 98 b2 2f bb 79 23 fc 3b bd db 5a bd f8 81 c0 bd
       -0.002680933 0.0076946584 -0.053432215 -0.093997896
0001f0 51 fd 01 3d e3 27 b4 bc b5 e8 21 bd 80 1e d9 3c
       0.031735722 -0.021991676 -0.039528567 0.026503801
000200 e4 31 ac bc 3d 54 9f bd c9 2e 8f bd 73 ad 92 3d
       -0.021019883 -0.07779739 -0.069913454 0.07161989
000210 9a aa b5 3d 10 b8 62 bd 19 77 cc bd 82 61 a9 bd
       0.0887043 -0.055351317 -0.099836536 -0.08270551
000220 87 a0 50 3d ec 4c cc 3d 01 f5 26 3d 8e aa 32 3d
       0.05093434 0.09975609 0.040760998 0.043619685
000230 47 fe e2 3c c0 7c 9e 3d a9 cc c5 3d 9d 06 8f 3d
       0.02770914 0.07738638 0.096581765 0.06983683
000240 bf d8 14 bd a0 05 ff 3c 72 40 09 bc 91 39 a3 3c
       -0.036339518 0.031130612 -0.008377181 0.01992491
000250 cd 01 98 bd 09 85 80 3c 47 85 7e 39 99 e9 c2 bd
       -0.074222185 0.015688436 0.00024272977 -0.095172115
000260 5d 21 81 3d 04 c3 30 bd 9e 25 ab 3d a1 b1 f9 3c
       0.06305192 -0.04315473 0.08356784 0.030480208
000270 db 8c 18 bd dc 6f 19 3d 3b 0a c6 bc f1 f9 b2 bc
       -0.037243705 0.037460193 -0.0241748 -0.021847697
000280 e7 c8 6c 3d 96 32 69 3d d4 0b be bc d4 fc b4 3b
       0.057808783 0.056933008 -0.023199 0.0055233035
000290 db 72 36 bd 69 57 c0 bd ee ad 89 bd 99 50 5e bd
       -0.04454313 -0.09391672 -0.067226276 -0.054276083
0002a0 bc fd 85 3d f5 e5 40 bd cc 6d 25 bc d9 21 bd bd
       0.065425366 -0.047094304 -0.010096978 -0.092349716
0002b0 13 a2 bc bd f3 96 16 3a 04 55 c8 3d d0 49 40 bb
       -0.09210601 0.0005744539 0.097818404 -0.002934087
0002c0 2e bd b0 3c ce 50 94 3d f8 7e 6b bd 9d ae 69 3d
       0.021574583 0.07241975 -0.057494134 0.05705129
0002d0 ec b1 7e bd 0d 9e 41 bc 1e 18 72 3c 57 57 67 bd
       -0.0621814 -0.011817467 0.014776258 -0.05647978
0002e0 5c 59 10 3b 38 33 6f bd fa 50 84 bd 51 a6 f0 b8
       0.0022025919 -0.058398455 -0.064607576 -0.00011475071
0002f0 e4 30 28 3d 7c a6 80 3c ba d2 9d bd 94 6f 9e 3b
       0.04106225 0.015704386 -0.077062085 0.0048350785
000300 07 04 4d bd 2a 5f a3 bc c6 97 b8 3c 96 11 0b 3d
       -0.05005267 -0.019942839 0.022533309 0.033952318
000310 4d 8d 9d bd 02 aa b1 bd a2 93 a4 bd e8 ab a0 3d
       -0.076929666 -0.086750045 -0.08035971 0.078452885
000320 43 8a a5 bd 9b e0 b8 3c 79 1b e6 3c 1d bc 08 bb
       -0.08083012 0.022568038 0.028089272 -0.0020864077
000330 55 d5 0e 3c 26 f4 86 3d ad 9b 9d bd d7 42 7f bc
       0.0087178545 0.06589536 -0.076957084 -0.015579901
000340 ea e1 c5 3d 4a 94 af bd a0 5d cb 3d e1 1e ab 3d
       0.0966223 -0.08573206 0.09929967 0.08355499
000350 90 1d 8d bb 84 86 04 3d fe 6b 8f bc 8f 5a 9f bd
       -0.0043065026 0.032354847 -0.01750755 -0.077809446
000360 1f 3f 9d bd 93 3f 92 bd f5 17 6a bd a6 9e 78 3a
       -0.07678055 -0.07141032 -0.057151753 0.00094840897
000370 96 7c 0f 3c ad 2e 62 bc d2 32 a7 bd 21 9d a5 bd
       0.008757731 -0.013805074 -0.0816399 -0.080866106
000380 6b d7 ad bd 8b 79 f5 bc 75 5e 75 3d e1 49 9a 3d
       -0.08488353 -0.029965183 0.059904534 0.075336225
000390 ab db 4a bd 02 b9 80 3d 71 4f 9b bc aa c6 9a bc
       -0.049525898 0.062852874 -0.018958779 -0.018893559
0003a0 23 f9 c5 3b de 51 36 3c d5 21 21 bd 6f 1b 78 bd
       0.0060416623 0.011127917 -0.039338905 -0.060573038
0003b0 9b f5 68 bd 0d df 43 3d a5 b9 14 bd 24 81 ac 3d
       -0.056874853 0.04782014 -0.036309857 0.08423069
0003c0 fe 6e 95 3c 8a bf 8b bd 14 26 ba bd 7f 5c 3b 3d
       0.018241402 -0.068236426 -0.09089294 0.045742508
0003d0 ec e6 d5 3d 82 ab 53 3d 4a e6 8a 3d c7 7d 9d 3d
       0.104444355 0.051677234 0.067822054 0.07690006
0003e0 1c 9f 6f bd b7 dd 5a 3d 4b 8c f6 3c 8d ad 0d 3d
       -0.058501348 0.0534341 0.030096194 0.03458934
0003f0 e5 bf c4 3d aa b7 7a 3c 1b 53 aa 3d 04 d7 f4 ba
       0.096069135 0.015302578 0.08316632 -0.0018679802

hidden2tag.weight f4 [243, 4]
000000 5e 27 af bc 62 1a 6d 3e 54 44 c9 be 38 7d 9a be
       -0.021381076 0.23154595 -0.39309943 -0.3017366
000010 db b6 3f be 80 f8 fd be df 75 fa be fd a5 53 be
       -0.18722098 -0.49603653 -0.48918054 -0.20668788
000020 d6 4d 33 bc 6e bf f0 be 0f 06 b6 3e 06 17 b9 be
       -0.0109438505 -0.4702105 0.35551497 -0.36150378
000030 57 ed 0c be 4e a5 9d be 76 33 2f 3e a7 92 e8 3e
       -0.13762413 -0.3079018 0.17109475 0.45424387
000040 8e 8b f6 3e e3 58 f8 3d 37 e2 ac bd 07 7d e9 be
       0.48153347 0.12126329 -0.084415846 -0.456032
000050 96 91 3f 3c c3 c7 28 3e 9f e8 37 bd 2d 41 b2 be
       0.011692425 0.16482453 -0.04489958 -0.3481535
000060 b5 f9 35 3e ff c2 8e be 95 2c f5 3e e7 41 30 3e
       0.17771037 -0.27883145 0.47885576 0.1721264
000070 ab 0a e4 3e 65 78 80 3e 84 b1 4a be a7 e5 6e 3e
       0.4453939 0.25091854 -0.1979428 0.23329793
000080 12 9a 8c 3c b8 b0 96 3e d3 ae af be 5b 0f b6 bd
       0.01716331 0.294317 -0.34313068 -0.088896476
000090 1d 32 c8 bd b3 90 2e bd d4 36 8d 3e 6d e1 c6 be
       -0.09775183 -0.042618465 0.27580893 -0.3884386
0000a0 23 06 a1 3e 93 5a a8 bd 80 a9 f9 be 69 5e 71 be
       0.31449994 -0.08220401 -0.4876213 -0.23571171
0000b0 18 7f df be e6 34 21 be 85 2f a8 be e2 ff 11 3e
       -0.43651652 -0.15742835 -0.32848755 0.14257768
0000c0 92 d5 24 3d b9 ec 23 3e e4 9f 60 be d2 4a 0a be
       0.04024274 0.16008271 -0.21935993 -0.13505104
0000d0 22 87 fc 3e 7c 6d c7 3e 83 82 a0 be 17 96 03 3e
       0.49321848 0.38950717 -0.31349573 0.12850223
0000e0 72 1b c4 be 1b 9e 8b 3e 54 81 e4 3d a0 59 f6 3e
       -0.3830219 0.27269062 0.1115748 0.48115253
0000f0 76 ad 22 3e 52 04 ad be 4c b9 d1 3e 20 73 90 be
       0.15886483 -0.3379236 0.40961683 -0.28212833
000100 ee 30 7f bd 84 a1 d8 bd f3 e3 a6 be e0 1a 86 3c
       -0.062302522 -0.10577682 -0.32595786 0.016370237
000110 f6 1e 17 3e b1 46 b8 be 92 a5 ef 3e 63 71 01 3e
       0.14757904 -0.35991433 0.46806008 0.1264091
000120 29 76 bd 3e 58 df e4 3e 63 8c db 3d b3 20 2a be
       0.37004212 0.44701648 0.10720136 -0.16614036
000130 22 09 e5 3e 03 87 aa be 28 5f dc 3d 11 aa 59 3c
       0.4473353 -0.3330613 0.10760337 0.013285176
000140 43 7f 90 3e 95 54 1f 3e d9 e1 3b be c9 4b 20 3e
       0.28222093 0.15559609 -0.18347873 0.1565391
000150 40 66 1d 3e b1 34 9e be 61 1b f6 3e d6 23 8e be
       0.15371037 -0.30899575 0.48067763 -0.27761716
000160 7a 69 ce 3c ae cb 9c 3e 82 79 3b bd c4 21 85 be
       0.02519678 0.30624145 -0.045770176 -0.26002324
000170 0a 69 82 3e 9c f3 6a be 95 71 0c bd b7 bf c9 be
       0.25470763 -0.22944492 -0.034288008 -0.3940408
000180 c0 04 38 3e 84 6c af 3d 9b e7 ff 3d e8 53 d0 be
       0.17970562 0.085656196 0.12495347 -0.40689015
000190 b6 88 6e be bd ae 01 be 31 f7 05 3d fc 91 6a be
       -0.23294339 -0.12664314 0.032706443 -0.22907251
0001a0 05 c5 66 3e 8f f3 b9 3d 2b d3 91 3e 5d fc 98 be
       0.22536094 0.09079658 0.2848142 -0.29880038
0001b0 8c 60 b5 be 2d 3c eb be 3b ba ee 3d 90 25 30 be
       -0.35425222 -0.45944348 0.116566144 -0.17201829
0001c0 e3 c1 6f be 9e c9 ef 3e f9 24 86 3e e0 86 b5 3e
       -0.23413806 0.4683351 0.26200083 0.35454464
0001d0 d0 c8 74 be e3 d4 51 3e e8 15 44 bd f9 eb db 3e
       -0.23904729 0.20491366 -0.047872454 0.4295347
0001e0 1e 95 1e 3c 68 b2 e8 bd 1e 90 30 bd 56 94 47 3e
       0.009679107 -0.11362153 -0.04310619 0.1949018
0001f0 8f c9 91 3e 5d 00 cf 3e 94 f6 82 be 57 49 ed 3e
       0.2847409 0.40429965 -0.2557875 0.46345016
000200 3c 31 7b 3e bc 32 48 3e 7a ec 4d be d8 e8 6a 3d
       0.245305 0.19550604 -0.2010974 0.057350963
000210 6d cb d8 bd 46 28 95 bc 60 52 d9 3e 1f 58 ef be
       -0.105856754 -0.01820768 0.4244566 -0.4674692
000220 55 31 ca be 65 60 cd 3d da df 2c bd 04 af a1 3e
       -0.39490762 0.100281514 -0.04220567 0.3157884
000230 28 ed f1 be c9 c3 75 be ae 64 ce 3e d1 7c e0 be
       -0.47251248 -0.24000467 0.40311188 -0.43845227
000240 29 c2 0c 3d a9 02 8f 3e a2 8b 68 3e 9f f0 ca 3e
       0.034364853 0.27931717 0.22709516 0.39636704
000250 41 ee f6 3e 37 11 8a be 79 67 b6 3d 31 1d 26 3e
       0.48228648 -0.2696626 0.089064546 0.16222073
000260 fc d5 ff bb fc 79 39 be 6b ee 4b be 55 44 a5 3e
       -0.0078074913 -0.1811294 -0.19915168 0.32278696
000270 b4 16 af be a7 05 68 be c7 8d 1a 3d 06 ef eb bd
       -0.3419701 -0.22658406 0.037732866 -0.115201995
000280 60 85 c2 3e 54 33 ba 3e 60 3e f9 3e b2 22 b9 3d
       0.37992382 0.36367285 0.486804 0.09039821
000290 47 fc f2 bc b1 8d e6 3e c6 2f 74 3d 22 0b 38 3e
       -0.02966131 0.45029977 0.059615873 0.17972997
0002a0 67 bd 82 be 46 b5 bd be 5e 0a b4 be c7 39 d4 3e
       -0.25535128 -0.37052363 -0.3516416 0.4145033
0002b0 2d 5d ff 3c 80 b5 2d bd a8 3b 19 be 10 f4 b1 be
       0.03117236 -0.04240942 -0.14964163 -0.34756517
0002c0 f0 de 41 3e 3f eb b0 3e 77 dd d8 3e c2 b2 a4 3e
       0.189327 0.3455448 0.42356464 0.3216763
0002d0 c1 69 b0 3e 32 df 16 be 0c f2 62 3e fb 9a 4a 3e
       0.34455684 -0.1473358 0.22162646 0.19785683
0002e0 29 a2 00 3f 02 9d b9 3e d6 b5 42 3e 6b 38 82 3e
       0.50247437 0.362526 0.19014677 0.25433668
0002f0 31 a7 94 be 1d 34 67 be 6d d8 f4 3e bd c3 06 be
       -0.29033807 -0.22578473 0.4782137 -0.13160606
000300 2b a4 0f be 3d 72 5f 3e 25 51 7f bc 69 66 7e 3e
       -0.14027469 0.21820922 -0.015583311 0.24843754
000310 5b 25 99 be c5 f9 db bb c8 2d be 3e b9 f9 fb 3e
       -0.29911312 -0.0067131245 0.37144303 0.4921396
000320 0f 54 f3 be 19 49 95 bd 4b 14 cf be 0f fd 37 3e
       -0.4752507 -0.07289333 -0.4044517 0.17967628
000330 c3 7e 73 be 71 25 a3 be 4a c5 da be a5 7e f7 be
       -0.23778825 -0.31864503 -0.42728645 -0.4833881
000340 a1 7e ef 3e 57 24 a9 be 75 fa d1 bd 43 30 d2 3e
       0.46776298 -0.33035538 -0.10252849 0.41052446
000350 e7 a5 9a be e7 81 60 bd 0b 4a b1 be b0 66 f7 3e
       -0.30204698 -0.054811385 -0.34626803 0.48320532
000360 e3 c2 7f bd 6e bf 3f 3e 98 6e 19 3c 6a 00 bc 3d
       -0.062441718 0.18725368 0.0093647465 0.091797665
000370 74 e4 1d be 2a 08 e1 be c4 00 f8 be fa 6c e8 bc
       -0.15419179 -0.4395154 -0.48438084 -0.028372277
000380 75 86 f1 be e5 d1 88 3e 34 f3 35 3e cd 13 b6 be
       -0.47172895 0.26722637 0.17768556 -0.35561982
000390 c5 5e 86 3e b2 b1 e6 3e b1 a2 d6 3e ba 13 c9 3d
       0.26244178 0.45057446 0.41921 0.09818216
0003a0 84 11 8e bc 51 d1 d3 be a0 4c 90 3e 06 37 73 be
       -0.017342336 -0.41370633 0.2818346 -0.23751459
0003b0 3c 7d c5 be 96 6b f3 be e4 63 ab be 6b f8 f2 3e
       -0.3857211 -0.4754302 -0.33474648 0.47455153
0003c0 51 0d d9 be be 41 ce 3d 4e ff 69 be 99 e8 9e bd
       -0.42392972 0.10071133 -0.22851297 -0.07759208
0003d0 51 00 d1 3e 4e 62 48 3e 67 5b a1 be dc 90 70 be
       0.40820554 0.1956875 -0.31515047 -0.2349276
0003e0 cb 96 e1 bd 43 9c bd 3c 1c 6c 48 3c 17 a2 c6 be
       -0.110150896 0.0231458 0.0122328065 -0.3879554
0003f0 64 24 86 3c 61 72 c2 3c 2b 8d 00 3f 24 4a 2b 3e
       0.016374774 0.02373618 0.50215405 0.16727501

hidden2tag.bias f4 [243]
000000 61 f1 2d be bb a5 c4 be f7 eb 5a be cb f5 db be
       -0.1698661 -0.38407692 -0.21379076 -0.42960963
000010 e0 3d 41 bd 85 4a 15 3d d0 de 8a be 8d 14 8d be
       -0.04717815 0.03644802 -0.27123117 -0.27554742
000020 19 b9 d5 3d da d8 04 bd 5b 4d 98 be 28 fe 0b bd
       0.10435695 -0.03243337 -0.29746518 -0.03417793
000030 04 06 e0 bd 9c e1 4c 3e cf 43 8f 3e 82 53 ac 3d
       -0.109386474 0.20007938 0.2798142 0.08414365
000040 41 5d 7c 3e e3 7a 38 be 55 88 f7 be cb 4a d5 be
       0.24644949 -0.18015628 -0.483462 -0.41658625
000050 7a b6 9e be d9 22 c8 be 4f 82 6a bd 26 8c ea 3e
       -0.30998594 -0.39089087 -0.05725318 0.4581005
000060 33 28 d9 3e 2f 20 98 be 53 e2 dc be 99 b8 e2 3e
       0.42413482 -0.29712054 -0.43141422 0.44281462
000070 b4 7c 68 3d 65 e7 a4 3e ed e9 80 3d 3b 2c b2 3e
       0.05675955 0.3220779 0.06294618 0.3479937
000080 c0 0b 0c bd 3a 75 b6 3e f5 ce bc 3e 23 21 14 3e
       -0.034190893 0.35636312 0.36876646 0.14465766
000090 ff 69 e4 3d 8b c3 70 3e eb 10 29 3d ca fa b3 be
       0.1115303 0.23512094 0.0412759 -0.35152274
0000a0 3b 52 df bc 72 be b0 be da 25 e2 3e b3 cd a6 be
       -0.02726089 -0.34520298 0.44169503 -0.3257881
0000b0 cc e6 cc be f4 21 6f be 9f 42 d2 be 98 fb a3 bd
       -0.40019834 -0.23352796 -0.41066453 -0.08006972
0000c0 e3 28 e6 be f6 36 b5 3e 73 2a b3 bd 2d c8 c9 bd
       -0.4495307 0.35393494 -0.08748331 -0.098526336
0000d0 48 3e 7d be 0a 1c 90 3e 15 3b 99 3d f6 a1 b0 be
       -0.2473079 0.28146392 0.07481972 -0.34498566
0000e0 9e 14 c7 3e 29 73 45 bd d7 53 da 3e 43 48 57 be
       0.38882917 -0.04820553 0.4264209 -0.2102366
0000f0 3a 12 97 3e a0 c6 4f be 12 8b ea be 30 f4 e9 be
       0.29506093 -0.20290613 -0.45809227 -0.45694113
000100 6d 0a 91 3e 18 12 20 3f 4e bc 57 be 8f 7b 6d 3e
       0.28328267 0.6252761 -0.21067926 0.23191665
000110 cf d1 a2 3c 10 6c f2 be 3d e0 ec 3b e3 73 c1 bd
       0.019875435 -0.4734807 0.0072288797 -0.09445932
000120 9e e8 a6 be b0 d0 c9 be 68 b5 95 be e6 a3 a0 3e
       -0.32599348 -0.39417028 -0.29239964 0.31375045
000130 8a 84 6f 3e 61 77 93 bb 75 b5 00 3c 04 9b 63 be
       0.23390403 -0.004500315 0.007855763 -0.22227103
000140 91 cf 12 bd 0f fe 8b 3d 22 6f 92 3e 5a 0a c4 be
       -0.035842482 0.06835567 0.28600413 -0.38289148
000150 1a 3a c8 be 72 59 36 3e 0d 96 92 be ed 03 c7 3e
       -0.39106828 0.17807558 -0.28630105 0.38870183
000160 d6 ef 5e be 83 a8 de bd ae c2 16 ba e4 3b e1 3e
       -0.21771178 -0.10871985 -0.00057510554 0.43991005
000170 ea eb 82 3d 6b 50 1d 3e 4f f8 7b be a2 db 00 bd
       0.06392653 0.15362708 -0.24606441 -0.03145946
000180 dd 26 5c 3e 5d c8 9b 3d 18 f3 9c be 88 41 36 3d
       0.214992 0.07606576 -0.30654216 0.04449609
000190 9a d5 b8 bc a7 89 b8 3c 03 5e 24 3e 87 f7 77 3e
       -0.02256279 0.022526575 0.16051488 0.24215518
0001a0 47 d7 89 be a6 00 a5 3d 67 43 69 3e 20 19 84 3e
       -0.26922056 0.08056764 0.22779618 0.2580042
0001b0 87 bb 64 3e c1 e8 11 be 60 2a 8a 3e 6f cc f9 be
       0.22337161 -0.14248945 0.26985455 -0.48788783
0001c0 42 4a c3 3d e8 75 ae bd db 61 ac bd 52 c6 d0 bd
       0.09535648 -0.085185826 -0.08417102 -0.101940766
0001d0 19 58 47 be 69 2b b4 3e 1e ef ad 3e 73 ff be 3e
       -0.194672 0.3518937 0.33971494 0.37304267
0001e0 5c 73 aa 3e 14 f2 aa be a1 11 13 be 09 a5 c9 3e
       0.33291137 -0.33387816 -0.14362194 0.39383724
0001f0 b1 89 83 be 3c b5 c9 be 29 bd b3 be ae bf d0 be
       -0.25690988 -0.39396083 -0.35105255 -0.4077124
000200 4c be a4 bd 59 5e b2 3d 88 3b 27 be 1f b1 ad 3d
       -0.08044109 0.08709402 -0.16331303 0.08481049
000210 06 0b 1e be 4f 16 72 3e d0 0f aa be 31 3a 48 be
       -0.15433893 0.23641323 -0.3321519 -0.19553448
000220 e5 e1 af be 23 85 2c be 06 22 41 3e 04 bf 3e 3e
       -0.3435203 -0.16847663 0.18860635 0.18627554
000230 09 bd cc be d7 29 36 be c6 d9 aa 3e 9c a3 41 3c
       -0.39987972 -0.17789398 0.33369273 0.011818793
000240 dc be 84 be 77 19 02 bf c5 4f f8 bd 37 6e 8f be
       -0.25926864 -0.50820106 -0.1212459 -0.28013775
000250 2f a2 9c be b2 e3 39 3e 8f a5 f6 bd e9 5e 08 3e
       -0.30592486 0.18153265 -0.120432965 0.13317455
000260 10 8a 69 bd da 2e 82 3e e5 bf 2d be 7b d8 bb 3e
       -0.057016432 0.2542637 -0.16967733 0.366886
000270 88 99 45 be 4e 73 06 3e fa 03 c7 3e 7f 78 a5 3d
       -0.19296849 0.13129923 0.3887022 0.080796234
000280 a0 20 c6 be c3 9a 8f bd 9c aa 9b 3e 76 90 ae be
       -0.38696766 -0.0701194 0.30403602 -0.3409459
000290 f5 56 74 be 3b 4e cc 3e 11 b9 8c bb 79 09 34 bc
       -0.23861296 0.39903435 -0.0042945226 -0.010988587
0002a0 9e a9 3d 3d 12 84 99 be c5 93 a3 3e a1 ae 62 3e
       0.046304338 -0.29983574 0.31948677 0.22136928
0002b0 4b 00 b6 be 04 77 5e 3e d5 72 aa bd 3c 8f f0 be
       -0.355471 0.21725088 -0.08322684 -0.4698428
0002c0 e8 a2 c7 bd 4f c2 19 3e 21 0a 20 3e 62 1c 36 3d
       -0.09747869 0.15015529 0.15628864 0.04446066
0002d0 32 2a 8b bd 5e 8c 4e be dd 43 9c 3e d0 3e 59 be
       -0.067951575 -0.20170733 0.30520526 -0.21215367
0002e0 e4 07 64 be 03 cd dc 3e 4c 5a 2a 3e 98 9c b1 3e
       -0.22268635 0.43125162 0.16636008 0.34689784
0002f0 fc 38 ef 3d bb 03 2b 3e 61 67 a5 3e 0c 99 bb be
       0.11680791 0.16700642 0.32305434 -0.36640203
000300 e2 45 af be 32 55 e7 3e f6 65 c0 3e e4 66 ba 3e
       -0.34233004 0.45182186 0.3757779 0.36406624
000310 21 72 05 be a6 ab 13 3e 99 ba b3 bd 52 08 04 3e
       -0.13031818 0.14420947 -0.08775825 0.12893799
000320 a3 90 6a be 78 b4 c4 be 4e 2a 02 3f f2 2e fe 3d
       -0.22906737 -0.38418937 0.508458 0.12411298
000330 59 99 06 be e4 66 3f 3d e6 98 dd bd c2 fa 9c be
       -0.13144435 0.046728984 -0.10820179 -0.30660063
000340 00 dc a7 3e 11 9f 2a 3e 02 94 6f be ff d3 70 be
       0.32785034 0.16662242 -0.23396304 -0.2351837
000350 54 1c da 3e 11 9c 78 be de cd cc be e6 7f 08 be
       0.42599738 -0.24278285 -0.40000814 -0.1333004
000360 4f c5 7f be 2f 64 ac bd 77 81 ea be 60 9c 86 3e
       -0.24977611 -0.08417546 -0.458019 0.2629118
000370 c8 48 86 3e 9f d6 98 be 55 ca cd 3d 1b 0c e7 3e
       0.26227403 -0.29851243 0.100483574 0.45126423
000380 95 c7 0b 3e 13 9d c3 be 40 28 a2 3e 0a 87 81 3e
       0.13650353 -0.38205776 0.31671333 0.2529834
000390 65 9b c0 be 7d 2c e2 be f3 e3 07 3e ce 7c 91 3e
       -0.37618557 -0.44174567 0.1327055 0.2841553
0003a0 44 46 61 be e4 5f c2 3e b0 46 91 be 2b ca 97 3e
       -0.2199946 0.37963784 -0.28374243 0.2964643
0003b0 7e 20 cf 3e 08 d3 df be 72 53 bd 3e 41 ad cd 3e
       0.40454477 -0.43715692 0.36977726 0.40171245
0003c0 52 21 90 be 12 68 18 bd 44 08 28 40
       -0.2815042 -0.037208624 2.6255045
