temp/trigger_model.pth (torch, 155693 bytes, 14 tensors)

word_embeds.weight f4 [3918, 5]
00000000: 7710 83be 13f8 75bf b025 7b3f 0ebb e8bf
00000010: 0c52 943f 83f0 883d 231f 013f 75ff b73d
00000020: 142a b83f d7e7 533f 5af5 b0bf 8e3d 29c0
00000030: 5088 0140 3194 f1bf 179d 823e c87a 2dc0
00000040: 76ba 8bbe bc98 493f 0a10 e33f 71c0 86be
00000050: 2eaf 943f 7420 05c0 90be b6bf 560c 33bf
00000060: 20b3 813f 31d4 e63e f96d 47bf f017 0ec0
00000070: 967e f7be 147c 2f3c ae96 cf3e b6af c83f
00000080: 763a 8abf ba2d cf3f 4872 623e 9871 fabb
00000090: 9b4f debf 1e6d 083f 04a7 f1bf bc43 91bf
000000a0: 8dcc 603d b19a 4d3f b235 923f 6375 513f
000000b0: 4d84 85bb b59f c43f 559d 693f f100 42be
000000c0: 9e39 993f 7fbd a73e d965 3f3e 549f 1c3f
000000d0: a54b 473f 167a 19bf 3160 243f a069 6bc0
000000e0: 26d5 4d3f 314b bf3e ba6a f0be cac5 14bf
000000f0: aed3 0fbf 6968 f93e 5ec9 953e 2f74 1ec0
00000100: 2caf 823e a1bc 063f 7212 8ebf b462 083f
00000110: 2d0b 69bf d202 823f 5cd9 08bf 386e 1ebf
00000120: 9888 843f 79d9 263f d556 713f 0e29 783f
00000130: cd57 8b3e bff6 063f 0fd7 e63e e777 a5bf
00000140: 6fb9 8b3e b80b 70be 3eba 863f c328 823e
00000150: 7f44 fabf 9004 c83d 7f8e 08bf 0988 d13e
00000160: aea9 6c3f 1241 acbf 0deb f4be 479c b73e
00000170: 7159 743e ff4f e43e caa8 713f 285e adbd
00000180: bd8d 5d3f a56d 47bf fc24 c33d 28b1 0f40
00000190: a3b7 67bf 7be6 c93f b9d5 43bf 60f4 853e
000001a0: b742 693f 02e1 813e 94f9 fa3e 1d94 e73e
000001b0: 268a 34bf c81d 06bf f144 e0bf eaca 90bf
000001c0: 5500 113e 790a 323f a0ad 503f b7e1 1a3f
000001d0: 14be 05be a6d3 dcbf 2da5 953e c829 933f
000001e0: 15e4 703c f05b a93e f7f2 c33e 4cb8 dbbf
000001f0: 7c7b c4bf 354d a9bd 7c26 3640 1f6e a93d
00000200: 759a e63f ce44 5a3f ee8d 853f 71ac b4bd
00000210: a7bc 033e bf2c b23e bd53 a43f ed0f eebe
00000220: c9f5 55bf ce58 78bf 23af 0abf 1b4b 2c3f
00000230: 6562 1c3f c422 a03d 1f1c 0b3e a6f4 2e3f
00000240: 4ae1 03c0 ab78 34bf 6e94 8bbf 40d5 0b3f
00000250: 1ba5 e03e d4ca acbe 76b6 cf3d 3bcd 63bf
00000260: df45 2d3f 1233 3abf 675f 30bf 1775 753f
00000270: 8c45 1e40 a040 26bd 9c96 ad3f 7ee0 3fbf
00000280: 3cb0 243f b37a 9fbf d208 ae3e 1e77 febe
00000290: d69c 6e3d e186 583f b932 8ebf 409b dfbd
000002a0: 49a2 b6bd 32a3 2440 ae0d 2c3f e41e 9a3e
000002b0: 118e 11bf 08d9 49bf 9be8 4240 063d c3be
000002c0: 8c45 f33f aeaa 283f e4ea 003f c18c 253e
000002d0: cfcf 40be af9b 53bf ec21 7ebd 819c e73f
000002e0: 83b5 d9bf de88 80bf 296b 613e f960 9c3d
000002f0: 7d92 1bbe 0993 9a3f f12e abbf 62a3 03c0
00000300: 737a 8fbf a33d f73f 3208 5bbe 647c 813e
00000310: 0212 693f c9f2 973e d1e6 4bbe 1d17 a9bf
00000320: 049a 343f fe65 b3bf 2651 afbf e810 4d3f
00000330: d99f 4fbe 8cd3 b73f 3380 c6be 51d6 86bf
00000340: 5877 803e cc23 573f 8f1a 813f 22d4 733e
00000350: 2f41 c5bf 5632 903e e361 a13e e9cd 0cc0
00000360: 0d4a 62bf 02d7 1a3f 0112 613f 198c 8f3f
00000370: df15 373e 6baa bfbf ddf2 ab3d 2db3 4ebf
00000380: e2d2 cbbe 2e41 97bd eae7 973e c155 783f
00000390: 475c 933e 29ca c2bf bbd9 9cbd 8d23 92bf
000003a0: 2de5 05c0 d425 2fbe d9c2 3d3f e9cf 97bf
000003b0: 486e 9e3f 8011 a2bf 2a41 4f3f ed0c f13f
000003c0: a8b9 983c cc51 45bf cb3a 783f 8c6c c53e
000003d0: 4fca bbbe dd94 33bf 03ad 93bf 088f c5bf
000003e0: 2a08 933e 2ccc 90be eec3 123f e6e4 8abd
000003f0: 8622 35bf 910d 463e 649a 95bf 255c a33e
-0.255985 -0.96081656 0.9810438 -1.8182085 1.1587539 0.06686499 0.50438136 0.089842714
1.4387841 0.82775635 -1.3824875 -2.644382 2.0239449 -1.887335 0.25510475 -2.710619
-0.27290696 0.7874868 1.773927 -0.26318696 1.1615961 -2.0801058 -1.4276905 -0.699407
1.013279 0.45083764 -0.7790218 -2.220211 -0.48338765 0.010710735 0.40544647 1.5678623
-1.0799091 1.618583 0.22113907 -0.007642936 -1.7368044 0.532915 -1.8879094 -1.1348796
0.054882575 0.80314165 1.1422637 0.8181974 -0.0040746094 1.5361239 0.91255695 -0.18945672
1.1970708 0.32761762 0.18691196 0.61180615 0.778498 -0.59951913 0.64209276 -3.6783218
0.80403364 0.37362054 -0.46956426 -0.581143 -0.5618237 0.4871247 0.29255193 -2.4758413
0.2552427 0.52631575 -1.1099379 0.5327561 -0.9103268 1.0157111 -0.53456664 -0.6188693
1.0354185 0.65175587 0.9427312 0.96937644 0.27215424 0.52720255 0.45085952 -1.2927216
0.27289912 -0.2344197 1.0525587 0.25421724 -1.9552153 0.09766495 -0.5334243 0.409241
0.9244641 -1.3457358 -0.4783558 0.35861418 0.23862244 0.44592282 0.94398177 -0.084652245
0.865444 -0.7790168 0.095285386 2.2451878 -0.9051458 1.5773462 -0.7649799 0.26163006
0.91117424 0.2536698 0.49018538 0.4523019 -0.705233 -0.5238919 -1.7521039 -1.1311924
0.14160283 0.6954723 0.8151493 0.60500664 -0.1306079 -1.725209 0.29227582 1.1497126
0.0147028165 0.33077955 0.38271305 -1.7165618 -1.5350184 -0.08266679 2.846099 0.08272957
1.8015887 0.8526124 1.0433939 -0.08821953 0.12864934 0.34799764 1.2838055 -0.46496525
-0.83578163 -0.97010505 -0.5417349 0.673021 0.6108764 0.07819131 0.13584946 0.68342054
-2.0606256 -0.70496625 -1.0904672 0.5462227 0.43875965 -0.33748496 0.101422235 -0.8898503
0.6768474 -0.7273418 -0.6889557 0.9588179 2.4729948 -0.040588975 1.3561587 -0.7495192
0.6433141 -1.245932 0.33991104 -0.49700254 0.05825504 0.8458081 -1.1109229 -0.109182835
-0.08917672 2.5724607 0.67208374 0.30101693 -0.568574 -0.7884679 3.045447 -0.38132495
1.9005599 0.65885437 0.50358415 0.16166975 -0.18829273 -0.8265943 -0.06204407 1.8094636
-1.7008518 -1.0041769 0.22013535 0.076356836 -0.151926 1.2076122 -1.33737 -2.056847
-1.1209244 1.9315685 -0.21389845 0.25290215 0.910431 0.29677418 -0.19912268 -1.3210179
0.7054751 -1.40155 -1.369664 0.8010392 -0.20275821 1.4361434 -0.38769683 -1.0534154
0.25091052 0.84038997 1.008623 0.23811391 -1.5410517 0.28163403 0.31519994 -2.2000678
-0.8839424 0.60484326 0.87918097 1.121463 0.17879437 -1.4973882 0.08395932 -0.8074215
-0.39809328 -0.07385479 0.29669124 0.9700585 0.2878134 -1.5217944 -0.07658716 -1.1417099
-2.0921128 -0.17104274 0.7412544 -1.1860324 1.2377405 -1.266159 0.8095881 1.883207
0.018643215 -0.7707794 0.9696471 0.38559377 -0.36677787 -0.7014902 -1.1537174 -1.5434275
0.28717166 -0.2828077 0.57330215 -0.0678194 -0.70755804 0.19341113 -1.1687741 0.31906238

lstm.weight_ih_l0 f4 [8, 5]
00000000: 9e87 cbbe 6736 2f3d 8984 63be fcd4 20bf
00000010: 1db9 7fbe 2e5d 1cbf 8b7d c9be 9cf7 12bf
00000020: b7d5 29bf 8a21 e8be fdb2 0a3f 65eb cdbe
00000030: 8826 983e 7af7 87be b626 acbe 91e2 2c3f
00000040: d44c c33e 0c4d e93e 879c c83e 00e3 84be
00000050: d7f1 1cbd d1d2 063f 7ce5 843e e151 05bf
00000060: 0912 1ebf 460a 2bbe 0bf1 92be f740 10bf
00000070: 1cef d0be c670 1bbf b180 9e3e 36dc b93d
00000080: 74f9 d1be b56f e93e 5e08 d2be ec62 2d3d
00000090: 70cf 3cbe a773 27bf 3ad8 19bf de55 a9bc
-0.39751905 0.04277649 -0.22218527 -0.6282499 -0.24972959 -0.6107968 -0.39353594 -0.5740907
-0.6634173 -0.45338088 0.54179364 -0.40218654 0.29716897 -0.26555997 -0.33623284 0.6753321
0.38144553 0.45566595 0.3918192 -0.25954437 -0.038316574 0.5266543 0.25956333 -0.5207806
-0.6174627 -0.16703138 -0.28699526 -0.5634913 -0.40807426 -0.60718954 0.3095756 0.09075205
-0.4101063 0.45593038 -0.4102201 0.042330667 -0.18438506 -0.65410846 -0.6009556 -0.020670827

lstm.weight_hh_l0 f4 [8, 2]
00000000: 0327 773e 5992 94bd 68e1 933e adbc 94bc
00000010: f120 343f 5e24 e7be f8d9 293f 4517 d6be
00000020: c0e3 aa3d f9fa 7b3e 3f14 0abe 46b0 f6be
00000030: cdba c53d cd85 123f bfee e93e a03d 09be
0.24135976 -0.07254476 0.2888291 -0.018156374 0.70362765 -0.45144933 0.6634822 -0.41814628
0.08344221 0.24607457 -0.13484286 -0.4818136 0.0965477 0.57235414 0.4568996 -0.13402414

lstm.bias_ih_l0 f4 [8]
00000000: 730e 033f 2242 f53e 616e 343f b852 1b3f
00000010: a744 633f 40b2 1dbf dff8 a03e c97e d13e
0.5119392 0.47902018 0.70480925 0.60673094 0.8877663 -0.6160011 0.31439874 0.40917042

lstm.bias_hh_l0 f4 [8]
00000000: 2124 62ba 2c99 393f 9011 09bf f204 14bf
00000010: ea17 56bd f2c4 9fbe dd30 8dbe 0021 b7bd
-0.00086265994 0.72499347 -0.53542423 -0.57820046 -0.0522689 -0.31204945 -0.27576342 -0.08941841

lstm.weight_ih_l0_reverse f4 [8, 5]
00000000: 6f51 25bf ae4f cfbe f82c 24bf 6670 18bf
00000010: d085 103f 4d19 13bf b44d 2b3e 1a8d a53e
00000020: 2e77 d3bd a5c0 523e 1295 46bd c933 523e
00000030: 7bc2 b73e dbb1 ac3d a538 0f3f a3d6 9bbe
00000040: 0395 0ebf 24d2 803e 8779 213f fe8e ce3e
00000050: 67fd 5abe 538a e1be b7fb bfbc 7d46 06bf
00000060: de39 ff3e bb21 1a3e 4b7c 16bf 5a66 a63e
00000070: f9f4 cb3e 8512 80be 98f6 febe 63ca 1abe
00000080: 4060 b73e 5bab 0a3f 1105 57be 76c9 203e
00000090: 479f 1abf ec99 77be 554c b93e 2199 ba3e
-0.6457738 -0.40490478 -0.64131117 -0.59546506 0.5645418 -0.5746048 0.1672886 0.32334214
-0.10325466 0.205813 -0.04848201 0.20527567 0.35890564 0.08432361 0.5594581 -0.30437192
-0.55696124 0.25160325 0.6307606 0.4034347 -0.21385728 -0.44050846 -0.023435457 -0.52451307
0.49848837 0.1505193 -0.58783406 0.32499963 0.39835337 -0.2501413 -0.4979751 -0.15116267
0.3581562 0.5416772 -0.20998026 0.15701851 -0.6039929 -0.2417981 0.3619105 0.36444953

lstm.weight_hh_l0_reverse f4 [8, 2]
00000000: c0da c43e deb8 6dbe f3f4 bfbe c5ba 223f
00000010: 45ca 223e b09a 18bf 3870 95be a1e7 d43e
00000020: 1b58 a9be 3494 953d 77bb a4be cee7 13bf
00000030: 049b c63e 0f58 f9be 5eab d53e ff9d 243f
0.38448143 -0.23215052 -0.3749157 0.6356624 0.15897472 -0.59611034 -0.2918718 0.4158297
-0.33075032 0.07303658 -0.32174274 -0.5777558 0.38790143 -0.48699996 0.41732305 0.6430358

lstm.bias_ih_l0_reverse f4 [8]
00000000: 5312 0ebf f667 ce3e 54f2 af3e 05d0 0f3f
00000010: 195b 7d3d 371a 443f 001a 8d3e a9fc b6bd
-0.5549671 0.4031369 0.3436457 0.5617679 0.061854456 0.766025 0.275589 -0.0893491

lstm.bias_hh_l0_reverse f4 [8]
00000000: dd77 ec3e d58b 14be b1cc 973e ba25 f7be
00000010: df77 563f 62b4 14bf 47b3 26be 445b 0f3f
0.46185198 -0.14506467 0.29648355 -0.4827097 0.8377666 -0.5808774 -0.16279326 0.55998635

crf.start_transitions f4 [131]
00000000: eae8 1f3d 5dc9 1a3d 77df cb3d 403d 8e3c
00000010: cd39 5abd 7e87 20bd 8365 003d a593 963d
00000020: 85df e23c 29e9 d6bc da19 99bd 3354 b73d
00000030: 6aa8 99bd 7a0f c6bc be1c 7fbb b46c 703d
00000040: e5bf ab3d ed6c a93d 32c7 6b3a 6d36 7ebd
00000050: 0015 8c3d 5b4a cbb6 aabd 7a3d dd3c 04ba
00000060: 9bb5 07bd 547c a3bd 072f 9f3d 7bfe 72bc
00000070: 76f5 233d e2d7 f43b cfe4 463d da2e b63d
00000080: 01a6 4d3c e1c2 2fbc 67d6 b73d f37c c23c
00000090: 1f61 893d 2a27 833d 41f1 5ebd 43d2 13bd
000000a0: f135 b2bd 2005 d03c 265e 343d ca2e 643d
000000b0: 9257 36bc 31f9 703d 55a1 98bd 44a5 183d
000000c0: 0bba 28bd 7d19 04bc d02c b9bd ad07 e93c
000000d0: 86a0 c93c 4d32 e63b 0ba3 1bbd bfcc bc3d
000000e0: de69 c53d e82c 2fbc c960 bcbd 3789 c13c
000000f0: b34b 0b3d f2e4 4c39 ac13 4ebd 3521 833c
00000100: e298 6ebd 48d0 85bd 54bd fa3c 69e6 8bbc
00000110: 81bc b33d 8bc6 203d 5659 043d bb21 c13d
00000120: ec64 743d 988d 7bbc 1627 9dbc 2815 92bc
00000130: 28f6 0cbd aebd 89bd 5772 32bd 77a7 a83d
00000140: e572 d0bb 1c79 e43c 313c 86bd bd25 6abd
00000150: 160c 0c3d bcb5 f8bc 7236 a1bc e243 c4bd
00000160: 2743 79bd 13cd bbbd 4956 20bd d9ca b13d
00000170: ce13 c2bd cb4b acbd 0ba7 6bbd 9160 c2bd
00000180: 6538 223d c4a4 dcbc ebe4 9bbc a3ae a73d
00000190: 37ba a63d 2db4 bc3d 2db2 93bd 9286 91bd
000001a0: fd45 99bc ffb2 213d ff91 c2bd c409 9cbc
000001b0: b35d c3bd b789 98bc f78b b1bd 5a9f 8a3c
000001c0: 5f0a 84bd df1e 1f3d 360b 893c f1a6 803d
000001d0: 704f 46bb 4a06 45bd 73a9 88bd 24e4 00bd
000001e0: 120a 7c3d 7dd3 ab3d 6d7c a63d 5ae2 99bd
000001f0: 981f 083d eec9 d23a df34 97bd 4ff5 cebd
00000200: 3984 82bc 68ef bc3d 03b3 8c3e
0.039040484 0.03778969 0.09954732 0.01736319 -0.05327778 -0.039191715 0.03134681 0.0735238
0.027694473 -0.026234226 -0.07475634 0.089516066 -0.075028256 -0.024177302 -0.0038927044 0.058697417
0.0838621 0.08272729 0.0008994221 -0.062063623 0.06839943 -6.0585276e-06 0.061216034 -0.000504447
-0.033132177 -0.07982698 0.07772642 -0.014831181 0.04002901 0.0074720243 0.048558053 0.08895655
0.012551785 -0.010727615 0.08976441 0.023741221 0.067079775 0.06403954 -0.054429296 -0.036089193
-0.08701695 0.025393069 0.0440351 0.055708684 -0.011129277 0.058831397 -0.07452647 0.037266985
-0.04119305 -0.0080627175 -0.090417504 0.028446043 0.024612676 0.0070250393 -0.037997287 0.0921874
0.09639333 -0.010691859 -0.09198148 0.023625 0.03400774 0.00019540245 -0.05031173 0.016007045
-0.05825127 -0.06533867 0.030607857 -0.017077642 0.08776189 0.039251845 0.03231176 0.09430262
0.05966656 -0.015353583 -0.019183677 -0.017832354 -0.03441444 -0.06725632 -0.043566074 0.082350664
-0.0063613527 0.02788978 -0.06554449 -0.057164896 0.034191214 -0.030360095 -0.019679282 -0.0958326
-0.060855057 -0.09169974 -0.039144788 0.08681268 -0.09476434 -0.08412894 -0.05753235 -0.09491075
0.039604563 -0.026934035 -0.019030055 0.08187606 0.081409864 0.09214053 -0.07211719 -0.071057454
-0.01871013 0.039477345 -0.09500503 -0.019047625 -0.09539356 -0.018620355 -0.08669274 0.016921688
-0.06447291 0.0388478 0.016728979 0.062818415 -0.003025975 -0.0481017 -0.06672945 -0.03146757
0.06153304 0.083899476 0.08129201 -0.07513876 0.033233255 0.0016081908 -0.07383131 -0.10105383
-0.01593219 0.092253506 0.27480325

crf.end_transitions f4 [131]
00000000: a5e7 96bd ca9b 94bd 6344 6abd dae0 1f3d
00000010: abdf b63d 826c bd3d bbc4 52bd 554f cd3c
00000020: 94d7 43bd 069c 7d3d 451a d1bd 8b1b b83d
00000030: e1ff bc3d 3f19 1cbd 1e06 4c3d c183 a4bd
00000040: a459 2dbd 4aee b8bd 41cf 61bd 710f c0bc
00000050: 02de be3b 8588 723d f121 413d d1f4 713d
00000060: cbdb 1ebd 9493 123d caea bcbb 3327 adbb
00000070: 6550 2e3d 9047 59bd d8fd 0c3d feb5 90bc
00000080: 0ed2 1f3d 8a99 4a3c ca42 0fbd d82d a9bd
00000090: 21a1 0c3d c364 5b3d 74e7 cdbd 54f7 a33d
000000a0: 7010 49bd 4b2d b03c cd60 e5bb c44f a73d
000000b0: 2fa8 bebd 54fb ecbb 555b 9d3d c692 35bc
000000c0: bc1b 8abd e90d c53d 961c 76bd 728f c2bd
000000d0: 4d3f 8a3d 9946 bfbd 77b9 9ebd 2ab1 d1bd
000000e0: 9f14 56bd 0df0 49bd e104 633d e43c fcbc
000000f0: ae55 8abd 4f07 c03d 8375 babc 6992 8dbd
00000100: 35f2 ae3d 4829 8b3d 88f0 a13c 0adc 62bd
00000110: 87e7 8f3d 8b87 83bd 16b9 aabd 8024 acbd
00000120: f788 233c 4892 9ebc c5ee 38bd 1b66 65bd
00000130: e006 af3d 969c 1b3c c2b9 cd3c 9300 7e3d
00000140: 3cf1 7a3d f7d3 dbbc 544d 873d b5f0 433d
00000150: 0fe2 2e3d b3a4 2fbd 216c 5a3d e205 d93c
00000160: 0478 1dbd 693d 7d3d aa6a a4bd bc89 923d
00000170: df99 a93c 5a61 af3d 94ab aa3d a821 453d
00000180: dbb8 813d bfc4 0dbd c15b 8c3c 3b1a 8a3d
00000190: e171 93bd 0b0b 35bd cf0d c53d 5e10 5fbc
000001a0: 2c20 a43d b781 18bd 75d5 bbbd 9cea 0d3d
000001b0: 869d c73c 968e 873d ef60 c03c c64a 823d
000001c0: b05c 263d c62a 083d bd78 ae3d a582 823c
000001d0: cfda 10bb 5d89 8f3d a627 91bb c284 033d
000001e0: 7cca c0ba d57f 01bd 5a5d 0abc 56db 413d
000001f0: 9059 99bd ea38 9c3c fa6d 4a3d 0802 b1bd
00000200: f43c 64bd 9cb3 bb3c d36a 013e
-0.073684014 -0.07256277 -0.057194125 0.039032795 0.0892938 0.09249212 -0.051457148 0.025062243
-0.047813013 0.061916374 -0.10210089 0.089896284 0.092284925 -0.038110014 0.04981052 -0.080329426
-0.042321816 -0.09029825 -0.055129293 -0.023444863 0.0058248052 0.059212226 0.04715151 0.059071366
-0.03878383 0.035785273 -0.0057652937 -0.005284214 0.04255714 -0.053046763 0.03442177 -0.017664906
0.039018683 0.012365708 -0.034975804 -0.08260697 0.034333352 0.05356289 -0.10053912 0.080061585
-0.04908794 0.021505972 -0.007000065 0.08169511 -0.09309422 -0.007232109 0.07683436 -0.011082357
-0.06743571 0.09621794 -0.060085855 -0.09500016 0.06750355 -0.09339637 -0.07750218 -0.102388695
-0.05226576 -0.049301196 0.055424575 -0.030790754 -0.06754623 0.09376394 -0.022761112 -0.06912691
0.08542291 0.06794983 0.019768015 -0.055385627 0.07026582 -0.06422337 -0.083360836 -0.08405399
0.009981385 -0.019356862 -0.045149583 -0.05600558 0.08546233 0.009497782 0.02511299 0.062012266
0.061265215 -0.026834471 0.06606546 0.047836978 0.042696055 -0.04288168 0.053325776 0.026492063
-0.038444534 0.061826143 -0.08028157 0.07155177 0.020703254 0.0856349 0.08333507 0.0481278
0.063340865 -0.03461146 0.017133595 0.06743284 -0.07199455 -0.044199985 0.096217744 -0.013614742
0.08013949 -0.03723308 -0.09171573 0.03464757 0.024367105 0.06618993 0.023483722 0.06361918
0.040615737 0.033243917 0.08519123 0.015931437 -0.0022103076 0.07008622 -0.0044297753 0.03210903
-0.0014708783 -0.03161605 -0.008445108 0.047328316 -0.07487786 0.019070107 0.049421288 -0.086429656
-0.055722192 0.022912793 0.12638406

crf.transitions f4 [131, 131]
00000000: 818c d6bc d89d ac3d 497e ca3d c670 3f3c
00000010: 91ab 953d dbdf bf3c 3ffa 2b3c 5364 8c3c
00000020: 1b16 c0bd 2fb4 85bc 9ac2 c3bd 0c03 90bd
00000030: 1e69 843d 080c 903c 81eb b3bd 77d2 60bb
00000040: 3cad 48bd 758f 42bd 4aef c73d 3f66 973d
00000050: 83a7 8dbd be43 d73c 80b5 1fbd 723a 79bd
00000060: 31f5 cc3c d1a5 c73c 21aa bd3c 7feb 9cbd
00000070: 2b10 1abb f380 cb3c 0201 3fbd 60a7 92bd
00000080: 389f eabb 5819 b5bd 9d67 6f3d 1a00 67bc
00000090: 910e b03d fe6f cbbd 80f4 6c3d 4c3d 8e3d
000000a0: 7f9d a1bc 30fe 953b 0e9a 243d 7d97 89bd
000000b0: 865c 2a3d 2012 733d 4ea7 4abb 4775 e93b
000000c0: d9ba 9f3c db27 45bd c971 8bbc 6996 adbd
000000d0: d5f4 9e3d 9776 f13b 33db cbbd da6e 04bd
000000e0: ae15 b43d 15dc 41bd ff9f 91bd 01f1 a2bb
000000f0: 977f b7bc bca9 a3bd 3653 54bc 22de 553c
00000100: 5130 433d 512a 1a3d 19c7 ab3c 561a a5bd
00000110: 0497 c4bd 9036 793d 7919 b2bd 68d8 9b3d
00000120: ef12 7b3d ac94 c0bd fbfe 243d bd1c 213d
00000130: c046 bcbd 523c 9dbd e413 93bd e832 863d
00000140: cd02 76bd 2d34 a4bd 895b bc3d 6f97 633d
00000150: 65a7 a93d a681 debc 8282 32bd 82ba 7e3d
00000160: dc9f 393c f2de 49bb 6363 663d c1d1 bcbd
00000170: 1443 8fbd 9c71 2d3d fb77 1ebd a2f2 a73d
00000180: 7f53 c7bc 1e3c 35bd d5b3 9b3b cb92 cb3d
00000190: e6ad 22bb da01 98bd 2f48 e43c 2b94 d33c
000001a0: 793b a33d 452b 47bc 610b bebd dff0 8ebc
000001b0: 156a 193d a806 3dbd 7997 c13d 57e2 91bb
000001c0: c366 04bc 22d9 a8bd 03d9 a2bb fa78 393c
000001d0: 079d 783c e30b 44bd 76fe f53c d08a 8f3d
000001e0: ad86 453d 769d d73c fa86 013c a1d7 133b
000001f0: f0a6 c43d b5b4 103d 1b2e c1bc 3229 bb3d
00000200: 8411 8f3c b5af 4dba 7059 cabd 71ae a93d
00000210: 3023 323d 15a1 f63c 9dc0 2ebb f477 06bd
00000220: 9469 b13d 2d0a 97bb 1709 efbc 3b4d 59bd
00000230: de7a ecbc 54eb 8f3d 55e4 c6bc 729e 51bc
00000240: 4ba8 b73d de97 7e3c c580 82bc 7791 7f3b
00000250: 16e2 b43d 7799 86bd bf2b ca3c 68c5 443d
00000260: cb44 323d a1d3 483b 7f67 54bd dae3 873d
00000270: a229 8b3d a609 9dbd 302c 78bd 9d03 80bc
00000280: 4bd4 a73d 3bf3 a33d 664b b3bd 7af1 713d
00000290: 6e90 ba3d 71fa 593c e378 16bd 2364 bbbd
000002a0: d863 ce3c 0afc 33bd 2abd cabc 972d 89bb
000002b0: 1355 a43d 8378 9d3d 7559 893d 18da ccbd
000002c0: fccf d53c 24ea 9a3d 1110 c5bc e547 a03d
000002d0: cd8e a2bd 777b 0b3d df2e 25bc f090 d9bb
000002e0: 4fae 1c3c 3836 943d 95b7 303c 196d b73d
000002f0: 0cbb 81bd 2f3b 823c d499 923d 2c30 bcbd
00000300: ddf4 83bd 955f 853d 84c1 0ebc 00d3 60bc
00000310: 815d b1bd a06b bdbd 7660 833d ae99 c03d
00000320: 6652 423d c3b6 b73d 9078 9b3c d1c0 5f3d
00000330: e6f3 a23d 926e 80bc a6be 6ebd 5789 663d
00000340: 6f07 36bd 411b b93d 7da1 9ebd 2e17 cdbd
00000350: a13b 80ba 54c5 903d 8ade 2c3d bb5d 5db9
00000360: 0310 f43c 1ca2 ce3c b0c8 263d faf9 0abd
00000370: 3297 d3ba c9d7 aebd 6e23 54bd 2b71 103d
00000380: fb83 e53b 1250 c73c ce15 4cbd 391d 84bd
00000390: 194d c33d 6e9d 613d 9998 2bbd de2a 103d
000003a0: aeb5 4a3d 1358 20bd 6db4 c43c 2b3e 863b
000003b0: 2f30 63bd 8b1a cbbd 1bbd b03d 4530 a73c
000003c0: 4770 033d 47c9 a53d e47b b73d a35b 06bd
000003d0: 6eaf b1bd b20a 293d 7a4a 36bc cf6b a93d
000003e0: ad43 933d 191c 593d e190 9f3d 98d1 8fbd
000003f0: 7644 883d 3b9d be3d 8eee 06bd 0637 85bd
-0.026190044 0.08428544 0.09887368 0.011684602 0.07308114 0.023422172 0.010496675 0.017137682
-0.09379216 -0.01632127 -0.09558602 -0.07031831 0.06465362 0.017583862 -0.08785153 -0.0034305134
-0.048993334 -0.047500093 0.09762438 0.07392549 -0.06916716 0.02627742 -0.03899145 -0.060846753
0.02501926 0.02437106 0.023152413 -0.07662105 -0.0023508172 0.024841761 -0.04663182 -0.071608305
-0.0071600936 -0.088427246 0.058448423 -0.014099145 0.08596528 -0.0993347 0.05785036 0.06945285
-0.01972842 0.0045774207 0.04018598 -0.06718347 0.041592143 0.059343457 -0.0030922475 0.0071245763
0.019498276 -0.048133712 -0.01702203 -0.08475954 0.07761542 0.0073688733 -0.09953918 -0.03233228
0.087931976 -0.047329027 -0.07110595 -0.0049725776 -0.022399707 -0.07991359 -0.012959292 0.013053449
0.0476535 0.037638012 0.02096896 -0.08061664 -0.095991164 0.06084305 -0.08696265 0.076096356
0.061297353 -0.09403357 0.04028223 0.039334048 -0.09193182 -0.07677521 -0.07181528 0.06552678
-0.060061265 -0.08017764 0.091971464 0.05556434 0.08283881 -0.02716143 -0.043581493 0.062189586
0.011329617 -0.0030803052 0.056247126 -0.09219695 -0.06995216 0.042344674 -0.03868864 0.082005754
-0.024331806 -0.044246785 0.0047516623 0.09940108 -0.002482289 -0.07422228 0.027866451 0.025827488
0.07970328 -0.012156312 -0.09279514 -0.01744884 0.037454683 -0.046148926 0.09452719 -0.0044520306
-0.008081141 -0.0824454 -0.0049697175 0.011320347 0.015174157 -0.0478629 0.030028563 0.07008898
0.04822414 0.0263202 0.007905716 0.0022558945 0.09602153 0.035328586 -0.023581555 0.09138717
0.017464407 -0.0007846312 -0.0988034 0.08285225 0.04349059 0.030106107 -0.00266651 -0.03282924
0.086627156 -0.0046093673 -0.029179139 -0.05305217 -0.028867181 0.07027307 -0.0242788 -0.012794124
0.08967646 0.015539138 -0.015930543 0.0038996616 0.08832185 -0.0657224 0.024679063 0.048039824
0.043522637 0.0030643719 -0.051856514 0.06635256 0.0679505 -0.07667856 -0.060589015 -0.015626723
0.081947885 0.08005377 -0.087546155 0.05906818 0.09109579 0.013304339 -0.03673638 -0.09149959
0.025194094 -0.043941535 -0.024748404 -0.004186343 0.08024039 0.076890014 0.06706516 -0.100025356
0.026100151 0.0756419 -0.024055513 0.07826213 -0.07937393 0.034053292 -0.010081976 -0.0066395923
0.009563043 0.07236904 0.010785957 0.089563556 -0.063345045 0.015897362 0.07158247 -0.091888756
-0.06443188 0.065123715 -0.00871313 -0.013722181 -0.086604126 -0.092490435 0.06414883 0.09404312
0.047441863 0.08970406 0.018978387 0.054627243 0.07956676 -0.015677724 -0.058287285 0.05628332
-0.044440683 0.090384014 -0.07745645 -0.10014187 -0.0009783396 0.07068887 0.042204417 -0.0002111112
0.029792791 0.025223784 0.040718734 -0.033929802 -0.0016143082 -0.085372515 -0.0517916 0.035264175
0.0070042587 0.024330173 -0.049825482 -0.06450886 0.095361896 0.055081777 -0.041893575 0.03519713
0.04948967 -0.039146494 0.024011815 0.0040967665 -0.055465873 -0.09917172 0.08629819 0.020408759
0.032089498 0.08095031 0.08959177 -0.032802235 -0.08676039 0.041269965 -0.011126155 0.08272516
0.071906425 0.05300531 0.07791305 -0.07022399 0.06653683 0.09307333 -0.032942347 -0.065046355

hidden2tag.weight f4 [131, 4]
00000000: e62e 9bbe 51e8 bb3e 7d26 423d 5d9e c23e
00000010: 35d5 9a3d 51fc 9aba fbdd acbe 695b 18be
00000020: 8de5 86be 13cf 583d 9083 ca3e caf6 b8be
00000030: 19a3 db3d 8733 fb3e 3a66 57be 8439 91be
00000040: e9fc 5abe a4f0 4b3e 67a5 593e 41be 4c3e
00000050: 3333 ca3e 20a3 783d 0253 e3be 9eae 61bd
00000060: 9a19 a93e f5ff de3d 67dd 7d3e 3a17 a4be
00000070: 089b adbe b42f 6bbd 4bba cb3e e1b8 9dbe
00000080: 157c 753e 9d1a ad3e 1c9b ce3e a9d5 d23e
00000090: f6ea 39be c624 f53e d5e1 cabd 904d 8b3e
000000a0: 082a 8cbe 4626 19bd c0a7 89be e254 cc3e
000000b0: 4422 7fbb 4f72 f0be 76da adbd b12b 113e
000000c0: b904 56be a3f9 fc3d 120a 9cbe a43e 91bd
000000d0: 94c3 483e ae94 99be 15fa 243e 20dd 95be
000000e0: dfb8 e73e f811 76be b0c2 e1bd 930a c0bd
000000f0: 423d ebbc 2f3a 813e bd22 933e 9cca e4be
00000100: d164 9f3c f9d2 40be 8728 90bd b638 a6be
00000110: 629c 973e afbc 663e fabc 863d f9b8 9b3e
00000120: 6948 1c3e f4cf dabe 3408 4a3e 6592 02be
00000130: 729e 8a3d 4f9f 943d ef5e 16bd 4998 05be
00000140: a485 a4be 72c8 0b3d 0f9d ef3e b84b ea3e
00000150: 2d0d 513e 1c26 c43c b378 7dbe 6b19 ddbe
00000160: 00aa 7f3d fb71 5d3e 86fb d13d 3d88 f43d
00000170: d0a5 fb3e 970c 2e3e 952b 843e 424c b4be
00000180: 4887 993e 01f3 94be e55c 35be b8cc ce3d
00000190: eb41 72be b4a0 95be b53b d43e 8e30 8a3e
000001a0: 2e67 31bd 0312 1b3e a7e6 e4be d914 a93e
000001b0: ae03 593d 524e 243e d223 fd3d 57ca c5be
000001c0: 3422 01bf f0c6 cebe 092f 0abe e5a5 1bbe
000001d0: 98b5 e93e fd65 93be e709 a93e d1f0 84bc
000001e0: 0f73 813d 23f0 f9bd 4189 bb3d 3478 5cbc
000001f0: 5d20 353e 64d7 aa3e 8835 6fbe 72aa c03e
00000200: 6e3f 713e 3d85 45be 82df 4cbe 2cf2 883b
00000210: 0ccd d23d 14eb c4be 13be c0be cd04 8d3b
00000220: 50b2 223c 02e9 4e3e 4fa5 b2bd 53bb 92be
00000230: 4509 f23e 4a04 afbe 5eb2 47be 02e0 b9bd
00000240: 314c 2abe e0f1 4ebd fd5a 813e bae4 503c
00000250: 6d7f 9dbe 6dea ccbe f0b8 963e 32a2 a03d
00000260: 23f8 a3be 632e fa3e 26ca d73d e898 c73e
00000270: b081 883d 75ce d7be 5254 9d3e 8454 94bc
00000280: c059 fcbe a9cf 8bbe 8dd3 393e 6b3d 8f3e
00000290: 6235 423c e889 483e 3270 debe c0b7 ca3e
000002a0: 407a b4bc 9391 8abe 842c f53e ac7e b33e
000002b0: cbbd 23be 54d1 c7be 053f 01bf f0c0 683e
000002c0: 1094 9bbe e562 7b3d 6167 d13e 1575 1e3d
000002d0: 3bac 4bbe 52ac 1ebe b528 cc3d 92e7 e1be
000002e0: 7dbd b2be 4f13 843e 179e 713e 49a0 423e
000002f0: 1dd2 063e 1500 b53d ab98 c63e 3671 163e
00000300: c2a5 46be 046b 6e3e fd5d 97bd 22b6 443e
00000310: 6ad1 53bd 197e 5dbe a377 83be a55f 83be
00000320: 2f80 693e 1c04 b0be a599 2ebd a579 23be
00000330: 8a4c cfbe 9eed bd3e 2ea2 853e 11a5 ec3e
00000340: 3adb c93d 96d2 fabe 91b4 b83d 9f08 cb3e
00000350: 1750 483e 5134 ed3e 90a9 c93e e8ab de3c
00000360: a3fc 1fbc 6db3 0f3e 5c16 81be a27c 88be
00000370: af9b 6ebe 2f6c 96be 018f 6ebe 7ea1 033d
00000380: 1a91 a2bd 4f0e a83d e87b e4be 8e18 82bc
00000390: 6056 0f3c 7d9c 3cbd 2f51 92be 7dd9 b33e
000003a0: 40d2 ce3e ef29 b73e 195a 483e 9026 f93d
000003b0: 1cd5 e63e 9018 423e de7e 97be d5d5 813d
000003c0: 9a65 c13e 37e3 b5be 3206 6d3e ebef 783e
000003d0: 2fcf 16be 3f75 58be deed dcbe d29e a9be
000003e0: cf04 bf3e 0042 ab3e ac6d 88bd 1250 9bbe
000003f0: 2435 793e bd32 283e e24e 1d3e 4ed5 353e
-0.30309218 0.3670068 0.047399987 0.38011447 0.07560197 -0.0011824464 -0.33763108 -0.1487862
-0.26347008 0.052931856 0.395535 -0.36125785 0.10724468 0.4906275 -0.2103509 -0.28364193
-0.2138554 0.19916016 0.21254502 0.19994451 0.39492187 0.060702443 -0.44399267 -0.05509817
0.33027345 0.10888664 0.2479149 -0.3204897 -0.33907342 -0.05741854 0.39790568 -0.30805114
0.23973115 0.33809367 0.40352714 0.41178635 -0.18156037 0.47879618 -0.09906355 0.27207613
-0.27375817 -0.037390016 -0.26885796 0.3990851 -0.0038930336 -0.4696221 -0.08488934 0.14176823
-0.20900239 0.12352302 -0.30476433 -0.07092026 0.19605857 -0.29996246 0.16111024 -0.29270267
0.45258233 -0.24030292 -0.11023462 -0.09377017 -0.028715733 0.25239703 0.2873744 -0.4468583
0.019457253 -0.1883048 -0.0703898 -0.32465142 0.29611498 0.22532915 0.06579013 0.3041456
0.15261997 -0.4273678 0.19729692 -0.12751158 0.06768502 0.07256948 -0.03671163 -0.13046373
-0.3213321 0.034126706 0.46799514 0.45760894 0.20415182 0.023943953 -0.24753074 -0.43183455
0.062417984 0.21625511 0.102530524 0.11940048 0.49149942 0.1699699 0.258145 -0.3521443
0.29986024 -0.29091647 -0.17711218 0.10097641 -0.23657958 -0.2922417 0.41451803 0.2699017
-0.04331129 0.1514359 -0.44707224 0.33023718 0.052982025 0.16045502 0.12360348 -0.38630936
-0.50442815 -0.40386152 -0.13494505 -0.15200002 0.45646358 -0.28788748 0.33015367 -0.016228111
0.06320774 -0.122040056 0.091570385 -0.013456393 0.17688127 0.33367455 -0.23360264 0.3763004
0.23559353 -0.19289108 -0.20007136 0.0041792598 0.10293016 -0.384606 -0.37645015 0.004303551
0.009930208 0.20206073 -0.08722936 -0.28658542 0.47272697 -0.3418296 -0.19501635 -0.09075929
-0.16630627 -0.05052364 0.2526473 0.012749845 -0.3076128 -0.40022603 0.2943797 0.07843436
-0.3202525 0.48863515 0.10536604 0.38983846 0.06665361 -0.42149702 0.30728394 -0.018106706
-0.49287224 -0.2730687 0.18147106 0.27976546 0.011853548 0.19583857 -0.43444973 0.39593315
-0.02203095 -0.2706419 0.47885525 0.3505758 -0.15990369 -0.39026892 -0.50486785 0.2272985
-0.303864 0.06137361 0.40899184 0.038685877 -0.1988992 -0.15495422 0.09968702 -0.44121987
-0.34910193 0.2579598 0.23595463 0.19006456 0.1316609 0.08837906 0.3878835 0.14691624
-0.19399169 0.2328301 -0.07390974 0.19210103 -0.051713385 -0.21630134 -0.25677213 -0.25658908
0.22802804 -0.34378135 -0.042626996 -0.15964372 -0.40488082 0.3709535 0.26100296 0.46219686
0.09856267 -0.4898879 0.09018815 0.39655015 0.19561802 0.46328977 0.39387178 0.02718158
-0.009764823 0.14033289 -0.2521237 -0.26657587 -0.23301576 -0.29379413 -0.23296739 0.032136433
-0.07937832 0.08205854 -0.44625783 -0.01588085 0.008748621 -0.046047676 -0.28577563 0.35126868
0.40394783 0.3577418 0.1956562 0.12165558 0.45084465 0.18954682 -0.2958898 0.06339613
0.37772828 -0.35524914 0.23146895 0.24310271 -0.14727472 -0.21138476 -0.43150228 -0.33128983
0.37308356 0.33448792 -0.06661543 -0.30334526 0.24336678 0.16425605 0.15362123 0.1775715

hidden2tag.bias f4 [131]
00000000: 1909 943e 074e 2bbe 979b 0ebe 4719 cabe
00000010: 07d3 cbbe 2983 9ebe cc99 073e 3c37 cdbe
00000020: 44b2 bb3e a4c4 e03e 470e bebd cc9e 413e
00000030: 10f2 c3be 53a4 8abe fa3f 66be 998a 4a3c
00000040: 76eb c2be c88c 8dbd 564a 47be d09e 243d
00000050: e128 c9be 8f7c b43e b146 4cbd 3d01 7bbe
00000060: f357 ca3e db10 4d3e a828 403e e7b4 203e
00000070: c550 463e 3a76 82be 44e5 fb3d b030 edbe
00000080: e027 70be 9494 743d af11 b43e 807d 5a3e
00000090: e1b9 e1be 784f b4be 3d1c b7bd ee00 d2be
000000a0: 8aa2 a63e a021 a33d e5af 2b3d 4d90 9a3e
000000b0: 37f1 abbd 9cbe 7a3e 31f0 583d e6e0 f7be
000000c0: 46e7 8e3e 4b98 dcbe 7b23 843e 6835 e1bd
000000d0: 6069 2cbe 1451 22be 3262 b9be 8b98 d03e
000000e0: bd47 47be 9cf0 8a3e 7cd7 e33e 0dfa a13d
000000f0: 2fdd 6b3e 97cb c5bd c054 b13e e264 55be
00000100: 5813 d7be bc89 333e c9a0 fb3d 1121 ac3d
00000110: 734b 55bd 1993 d73e b507 bebe 03d4 293d
00000120: 4430 6ebe 8266 c9be 914d 00be 74cc a1be
00000130: 83c3 90be cd5b 28be 1b8e b2be 2adb 9a3e
00000140: b594 a33e f953 cc3e 10e3 90bd 946e cbbe
00000150: bd26 71bd 2930 1f3e bfde 523e a0d9 58bd
00000160: a2a2 80be fb95 ebbe ec06 b03e 03ae 9dbe
00000170: 5e59 fdbe c496 a0be 9b9f 393d 8866 cbbe
00000180: 8840 a7bd a47b 85be 6d37 113c 7609 903e
00000190: 3627 d4be 0d41 18bc 9cf6 51be 5c81 d1bd
000001a0: c1bb 20be 73e9 45be cac4 bfbe a602 01be
000001b0: 46d8 2b3e b231 243e 1cbd dcbe c290 81be
000001c0: 7cd0 7dbe 9bca 83bd 3ece d83e 5e64 043e
000001d0: a545 d53e 588b 5f3c 6205 583e 2eea a9bd
000001e0: d555 e0be 9a8b 7cbe 6c81 8d3d ada5 cfbe
000001f0: f9e1 8a3e 016d 6a3e 855e 9fbc 81ff 383e
00000200: 26f2 883e 40ad 21be 86d3 1340
0.2891319 -0.16728984 -0.1392654 -0.3947241 -0.3980944 -0.30959442 0.13242263 -0.40081203
0.36659443 0.43900025 -0.09280067 0.18908232 -0.38270617 -0.27078494 -0.22485343 0.012362146
-0.38070267 -0.069116175 -0.1946195 0.040190518 -0.39289 0.3525128 -0.049872104 -0.24512191
0.39520225 0.20025961 0.18765509 0.15694009 0.19366749 -0.25480825 0.12299588 -0.46326208
-0.23452711 0.059712008 0.35169742 0.21336937 -0.44087127 -0.3521688 -0.08940933 -0.41016334
0.32545882 0.07965398 0.041915793 0.30188218 -0.083956175 0.24486774 0.05296344 -0.4841377
0.27910823 -0.4308494 0.2580832 -0.109965146 -0.16837072 -0.15851241 -0.3620773 0.4074138
-0.1946096 0.27136695 0.4450034 0.079090215 0.23033594 -0.09657972 0.34634972 -0.20839265
-0.42006946 0.1753301 0.12286527 0.084047444 -0.052073907 0.42104414 -0.37115255 0.041461956
-0.232606 -0.3933602 -0.12529589 -0.31601298 -0.28274164 -0.16441269 -0.34874043 0.30245334
0.31949392 0.39907816 -0.07074559 -0.39732802 -0.058874834 0.15545715 0.20592783 -0.05294192
-0.2512408 -0.46012864 0.3438028 -0.30796823 -0.49482244 -0.31365025 0.045318227 -0.39726663
-0.08166605 -0.26070893 0.008863312 0.28132218 -0.41436166 -0.009292853 -0.2050423 -0.102297515
-0.15696622 -0.19327335 -0.37454826 -0.12598667 0.1678172 0.16034582 -0.4311303 -0.25305754
-0.24786562 -0.06435128 0.4234485 0.12928912 0.41654697 0.013644062 0.21095803 -0.08296619
-0.43815485 -0.24662629 0.06909451 -0.40556088 0.27125528 0.22893144 -0.01945425 0.18066217
0.26747245 -0.15788746 2.3097854
